src/NN_Model/a3c_torch/model/checkpoint_2800000.pth (torch, 657051 bytes, 12 tensors)

actor.0.weight f4 [32, 1, 3, 3]
000000 b2 c4 a2 3e 56 4a f1 3d b0 dd c7 3d 4f 56 8a be
       0.31790692 0.117817566 0.097590804 -0.27018973
000010 30 a9 08 be a4 f3 89 3e 97 fb 87 be 78 af 74 be
       -0.1334579 0.26943696 -0.26559135 -0.23895061
000020 68 c5 22 3e 80 b1 1d 3e 60 2f 7c be 2e 08 30 3e
       0.15895617 0.15399742 -0.24627447 0.1719062
000030 eb bb 6d bd 4e 90 5d be fe d4 83 be 46 6f a7 3e
       -0.05804054 -0.21637079 -0.25748438 0.32702082
000040 e6 70 93 3e de 6c 4b 3e 3e 6c 36 be 66 bc b8 3d
       0.28797072 0.19865748 -0.17814729 0.09020309
000050 1b 94 39 3e d6 be bb bd a6 81 f2 3d 76 19 20 3d
       0.18122904 -0.091672584 0.11841135 0.03908678
000060 e6 a3 8b bd eb a8 3c 3e 40 af f2 3c c3 55 0b be
       -0.068183705 0.18423812 0.029624581 -0.13606934
000070 a8 aa 53 be 2b 95 7e 3c 10 e9 19 3e 56 45 a7 bd
       -0.20670569 0.015538494 0.15030313 -0.08167522
000080 a4 4f 94 3e c6 d2 39 be e8 de 96 3e e6 4d 9a be
       0.2896701 -0.1814681 0.2946694 -0.30137557
000090 06 43 f1 3d 60 72 54 be 56 fa ed bb 56 9f 7d bd
       0.11780362 -0.20746756 -0.0072625084 -0.061919533
0000a0 ab 30 ba bd d0 f6 d3 3d d6 13 eb 3c c0 ab 46 3d
       -0.09091314 0.1034981 0.028695982 0.048503637
0000b0 4e 78 1d be a6 8f 09 be 76 6c 64 bd 56 39 97 bd
       -0.15377924 -0.13433704 -0.0557675 -0.07383983
0000c0 b6 0d 0a 3e 20 3e 68 3d be 0c 56 3e f3 07 3d 3e
       0.13481793 0.056699872 0.20903298 0.18460064
0000d0 86 a6 97 bd 56 35 78 bc 5e 0d a8 3e d6 90 3e 3d
       -0.07404809 -0.015149435 0.32822698 0.046524845
0000e0 f2 eb 94 3e 4b 80 39 3e 56 32 88 3d 13 cb 7f 3e
       0.29086262 0.18115346 0.06650226 0.2497981
0000f0 5a 48 a9 be 2e 48 6e 3e 6b 55 55 bd 1e 39 14 3e
       -0.33063012 0.23269722 -0.052083414 0.14474913
000100 0e 8e a7 3e ab 04 f0 bc ab a8 cf bb 4b fb ca bd
       0.32725567 -0.0292991 -0.0063372455 -0.099112116
000110 c6 5c 07 3e 00 1d 18 be 78 4a 83 be 23 0e 29 3e
       0.13218984 -0.14854813 -0.25642753 0.16509299
000120 93 f3 64 be c0 df 83 be 4f b6 94 3e 40 cc 13 3e
       -0.22358541 -0.25756645 0.2904534 0.14433384
000130 da 92 a6 3e e0 eb 1b 3e e6 ac b1 3d 96 a3 06 3e
       0.32533914 0.15226698 0.08675556 0.1314834
000140 88 8f 5b be 36 c5 5c 3e 70 41 89 be 96 59 fb bc
       -0.21441472 0.21559605 -0.26807737 -0.030682366
000150 13 9b 37 be 33 9d 64 be 96 3d a6 3d 1b 30 b5 bd
       -0.1793025 -0.22325592 0.08117215 -0.08847066
000160 7b d0 89 bd c4 c1 a7 be eb 34 86 be 08 9e 31 3e
       -0.067292176 -0.3276502 -0.26212248 0.1734544
000170 ce 14 84 3e 80 45 9e bd 56 2e 7a bc 20 08 3e be
       0.25797123 -0.077281 -0.015269836 -0.18557787
000180 78 7f 74 3e c3 b0 49 3e a6 18 5e 3e c4 a9 95 3e
       0.2387675 0.19696335 0.2168909 0.29231083
000190 8b ff 13 3d eb 3b 12 bd 80 4b 86 3c 10 85 a7 3d
       0.036132377 -0.035701673 0.016393423 0.081796765
0001a0 83 d6 71 3e 98 4f 1d be 3b 90 3c be 20 b4 da 3d
       0.23616986 -0.15362394 -0.18414395 0.10678887
0001b0 b0 29 9b 3d 1b 03 f4 bd 68 e9 70 be 8b 36 1e 3e
       0.07576311 -0.11914655 -0.23526537 0.15450494
0001c0 3e 15 5d 3e 66 4c de bd f2 76 84 3e 16 5b bd 3d
       0.21590135 -0.108544156 0.25871998 0.09245889
0001d0 e0 09 8f be 76 7d f2 bd 40 cd cf bc 0f 2e 84 3e
       -0.27937222 -0.11840336 -0.025366426 0.2581639
0001e0 22 d6 98 3e 3c 22 8c be 33 52 19 3e 0c 32 8e be
       0.2985087 -0.2736987 0.14972763 -0.27772558
0001f0 5f a3 8c be be 43 82 be 3e 13 36 be 00 50 81 be
       -0.27468392 -0.25442308 -0.17780778 -0.25256348
000200 a6 63 af 3d 47 cc 97 be eb 45 11 bd 96 52 be bd
       0.08563928 -0.2964804 -0.03546707 -0.09293096
000210 96 86 91 bd 33 d4 82 3e 16 53 7c be b0 c8 f3 bd
       -0.07105748 0.2555252 -0.2464107 -0.119035125
000220 2b be 66 bc 1a d1 91 3e 2b db 2f 3d 26 b3 e7 bd
       -0.0140834255 0.28479844 0.042933624 -0.11313467
000230 80 b8 62 bd f3 35 07 be c0 02 79 be 06 aa 3c 3e
       -0.055351734 -0.13204174 -0.24317455 0.18424234
000240 87 59 9f 3e ab 97 3b bc 00 43 bd 3d eb 7c e6 3d
       0.3112299 -0.011449735 0.09241295 0.11254295
000250 cb fe 4c be db 7f a7 3e 66 99 f5 bd 26 c5 be 3d
       -0.20019071 0.32714733 -0.11992149 0.09314947
000260 6b 40 a8 be 26 31 a9 be 7b 0f da bd 56 7d ed ba
       -0.32861647 -0.3304531 -0.10647484 -0.0018119018
000270 60 a5 5f be 90 f3 4b 3e aa 62 84 3e 7f 2d 99 3e
       -0.2184043 0.1991713 0.25856525 0.29917523
000280 56 14 84 be 56 4a 88 3b 10 b9 0e be 88 ad 34 3e
       -0.25796765 0.004159252 -0.13937783 0.17644322
000290 08 90 58 3e c0 8d d0 3c 7e a9 3e 3e ce 27 15 be
       0.21148694 0.025458217 0.18619344 -0.14565966
0002a0 cf 30 8d 3e dc 65 80 3e 30 d5 7c 3e 73 ee 90 be
       0.275763 0.25077713 0.246907 -0.28306922
0002b0 b8 5c 24 3e be 9b a7 3e 90 fa 70 3e d3 82 61 be
       0.16050994 0.3273601 0.23533082 -0.22022562
0002c0 03 84 1d be 2b b4 f4 bd 76 61 04 be 97 c1 83 be
       -0.1538239 -0.11948427 -0.12927803 -0.25733635
0002d0 6b b7 26 3e f0 8c f6 3d 5b 22 2e be ce 04 67 3e
       0.16280906 0.120386004 -0.17005293 0.22560427
0002e0 56 39 03 bc 10 32 82 3d b8 70 0a 3e a6 11 b7 bd
       -0.008009275 0.06357205 0.13519561 -0.08938913
0002f0 2e 51 0b 3e 6b 48 3d bd a6 f6 43 be 86 4d b9 3d
       0.13605186 -0.04621164 -0.19137058 0.090479895
000300 b0 87 ac bd ab fd da bc 8b 7c 48 3d 48 f4 33 3e
       -0.08424318 -0.026732286 0.0489469 0.17573655
000310 5b 55 5a 3e 16 d1 28 3d ab dd d2 bd 40 b1 9b 3d
       0.21321623 0.041215025 -0.10296186 0.07602167
000320 ee 83 53 be ab 7a 46 bb 60 fc 14 3d 2b 26 22 bc
       -0.20655796 -0.0030285518 0.036373496 -0.009896795
000330 20 98 92 be 2b 48 36 3d ab cd ac 3c 50 84 b9 bd
       -0.28631687 0.04450242 0.021094164 -0.0905844
000340 83 f8 68 3e 80 7a 7e 3d 00 81 a7 3c c0 25 5b 3d
       0.2275105 0.062128544 0.020447254 0.053502798
000350 56 35 3d ba 56 78 95 3d 03 d5 3b be 50 00 91 bd
       -0.00072177255 0.07298343 -0.18342976 -0.07080138
000360 d0 7d 81 be 2b d3 ca bc de 02 01 3e 8e 8a 67 3e
       -0.252913 -0.024758896 0.1259875 0.22611448
000370 3e aa 34 be 90 34 47 be ab 4b ac bc d3 37 4a 3e
       -0.17643067 -0.19453645 -0.021032175 0.19747858
000380 fb ec de 3d a3 dd 18 be 9e ed 67 3e bb 66 d2 bd
       0.10885044 -0.14928298 0.22649238 -0.102735005
000390 c6 b5 df 3d 16 5f fc 3c 87 31 99 3e 26 91 5c 3e
       0.109233424 0.03080706 0.299206 0.21539745
0003a0 a6 b2 80 3d 80 80 aa bd de fe 55 3e 2b 1e 18 3c
       0.062840745 -0.08325291 0.20898005 0.009284536
0003b0 4b ca 22 be b3 78 93 be 2b 98 70 3d 22 a3 a1 3e
       -0.15897481 -0.28803024 0.05873887 0.31569773
0003c0 77 f8 a2 be 00 98 2f 3c 83 9e 9b be 30 d9 99 3d
       -0.3183019 0.010717392 -0.30394372 0.07512128
0003d0 f0 49 04 be 00 b2 1d 3b 28 ee 6c be cb 63 33 3e
       -0.1291883 0.0024062395 -0.23137724 0.17518537
0003e0 10 cd 3c be e8 3f 12 3e e6 03 80 3e 06 42 c1 bd
       -0.184376 0.14282191 0.25002974 -0.09436421
0003f0 2e e3 1a be 56 96 89 3e 3b ea ea bd 83 dc 5a be
       -0.15125725 0.2687251 -0.11470457 -0.21373181

actor.0.bias f4 [32]
000000 c0 8d 43 3e b6 38 a8 3e db b3 e8 bd 23 9d 9f 3e
       0.19097042 0.32855767 -0.1136243 0.31174573
000010 b6 66 04 bd 40 29 20 be 3b 02 71 be 2b 29 6b be
       -0.032324515 -0.15640736 -0.23536007 -0.22964923
000020 46 4b 16 3e a6 56 b6 3d a3 22 09 3e 6e 39 8a 3e
       0.14677152 0.08903246 0.13392119 0.2699694
000030 00 84 ae bb a0 11 e6 3d f6 4e 96 3e 00 69 52 3d
       -0.005325794 0.112338305 0.29357117 0.051369667
000040 80 a1 58 bc 2b 67 9b bd 76 e5 65 3e a3 bf 22 be
       -0.013222098 -0.07588037 0.22450814 -0.15893416
000050 8e 87 84 3e 73 84 2b be 40 64 fd 3c bb 71 9c 3e
       0.2588467 -0.16749744 0.030931592 0.3055552
000060 8b e2 61 be 7b ea 45 be 06 47 2f be ab 66 ee bb
       -0.22059076 -0.19327728 -0.17116937 -0.0072754226
000070 e8 7a 0c be d8 e7 81 be b0 07 fb bd d0 4c 19 3e
       -0.1371876 -0.25372195 -0.12257326 0.14970708

actor.2.weight f4 [64, 32, 3, 3]
000000 95 5d dc 3c 8e 5c 82 bb 51 97 36 bd 1d be 4f 3d
       0.026900092 -0.0039783185 -0.0445779 0.050718416
000010 c7 6a 53 3c ef 82 19 bd 3c 4a 13 bc 92 8e 0b 3b
       0.012903876 -0.037478384 -0.008989867 0.0021294695
000020 34 33 f8 ba 42 a7 45 3d 4e 50 13 bd 7b 64 e4 3c
       -0.0018936158 0.048255213 -0.035965256 0.027879944
000030 92 1c c5 3c 5a 12 13 bd e1 5e c0 bc 5d 11 82 bc
       0.024061475 -0.035906173 -0.023482742 -0.01587742
000040 1e 8e 37 bd 28 d9 85 3b 53 db 10 bd 06 88 c6 bc
       -0.044813268 0.004084725 -0.035365414 -0.024234783
000050 b8 2f 61 bd 01 11 55 3d a7 5a 79 bb 4c 38 5b 3c
       -0.05497715 0.05201817 -0.0038048418 0.013380121
000060 fc 04 5d 3d bc f8 71 bc 18 7f 4d bd 73 8e 06 3d
       0.05395983 -0.014768776 -0.050170034 0.032850694
000070 4b f7 91 39 7a 7e 5b bb 52 da fa 3b f7 37 ec 3c
       0.00027840803 -0.0033492134 0.0076554203 0.02883528
000080 bc a6 0e 3d 14 9c 65 3c 3b 6f 70 bd dd 6c 84 3c
       0.03482698 0.014014263 -0.058699828 0.016165191
000090 a4 b3 e8 3c 79 b2 67 3d 56 3a a7 bc 1b 03 06 bd
       0.028405972 0.05656669 -0.020413559 -0.032717805
0000a0 ad 8f 9a bc be 84 0e bd 37 f8 e8 3a 02 04 0b bc
       -0.018867338 -0.03479456 0.0017774169 -0.008484842
0000b0 02 bf af bc 82 16 f2 3c e0 85 f9 bc 74 fb 94 3c
       -0.021453384 0.029551748 -0.030459344 0.018186308
0000c0 b4 88 8a 3a 5a a2 10 3c d4 c4 a1 bc d3 49 14 3d
       0.0010569305 0.00882777 -0.019747175 0.036203217
0000d0 fb fe 0c bd 48 2e 5d bb 2b e9 8a 3b 3e 0d 5e 3d
       -0.034422856 -0.003374951 0.0042392216 0.054211847
0000e0 5a 61 70 bc 33 58 d8 3c cb 61 70 bd 98 7e 8e bc
       -0.014671648 0.026409244 -0.058687013 -0.017394349
0000f0 37 3d 00 3d 75 8d 9b 3c 6c 20 26 3d 21 b7 93 b9
       0.03130838 0.01898835 0.040558264 -0.00028174467
000100 9d 55 1e 3d 98 17 8f 3c 63 98 fc 3b af 62 65 3d
       0.038655866 0.017467305 0.0077085956 0.056002315
000110 59 9b 23 ba 99 26 19 bd de a6 5e 3d 5c 1b a2 3c
       -0.0006241105 -0.037390325 0.054358356 0.019788437
000120 da 32 3b 3d b0 4c 5d 3c e8 72 51 bd 86 91 d3 3c
       0.045702793 0.013507053 -0.051134974 0.025826227
000130 5b 51 51 bd ca bf 13 bc 3a cf 0f 3d 8f ea 22 3d
       -0.051102977 -0.009017894 0.035109736 0.039774474
000140 e8 22 63 3d 0e 0f ca bc a1 16 05 3d f2 db fd 3b
       0.05545321 -0.024665382 0.032492284 0.007747167
000150 0b a4 09 bc 1c 9c b5 bc 59 cd 11 3d 04 82 33 bc
       -0.008400927 -0.022169165 0.035596225 -0.010956291
000160 ae 3c 3c bd 3e 26 26 bd 56 20 de bc 4b 41 30 bd
       -0.045956306 -0.040563814 -0.027115028 -0.04303102
000170 47 c4 b3 bb 84 63 56 3d b2 d1 d4 3c 9b 66 46 bd
       -0.0054860446 0.052341 0.025978897 -0.048437696
000180 f7 c2 58 3d 1a f8 d5 bc 99 fe 28 bd 16 45 a5 bb
       0.052920308 -0.02611928 -0.04125843 -0.005043636
000190 e9 f1 cc 3a 19 56 35 bd 14 3b 15 3d e7 9d a6 bc
       0.001563606 -0.044271562 0.036433294 -0.020338966
0001a0 8b ce 4d bd 69 9e 59 bc 98 4c 5a 3c 3e a6 62 bd
       -0.050245803 -0.013282397 0.013323925 -0.055334322
0001b0 c3 9d 05 3d 6a 06 5d bd 18 4a c0 3c ba fb d6 3c
       0.032621156 -0.053961195 0.02347283 0.02624308
0001c0 26 52 ef 3b 72 94 29 bd 4f c1 22 bd 0c c6 fa 3c
       0.007303494 -0.041401334 -0.039735135 0.030612014
0001d0 2f 3f 5f 3d cd a8 96 bc b8 75 bc 3c 06 2b 42 bd
       0.054503616 -0.018391037 0.023005351 -0.04740431
0001e0 84 36 90 3a 5e ac 5f bd 95 cc ab 3c 04 72 c1 3c
       0.0011002575 -0.05460774 0.020971576 0.023613937
0001f0 ee 03 f2 3b b7 3a 05 bd 68 1f 5a 3d 22 c0 29 bd
       0.0073857224 -0.032526698 0.053252608 -0.041442998
000200 c9 e7 01 bd 85 99 86 3c 1d 6f 10 3d 2a 79 56 bc
       -0.03171519 0.016430626 0.035262216 -0.013090411
000210 f9 2b 19 3d 7a 8e 8f bc a8 e4 41 3b 11 fb c9 3b
       0.03739545 -0.017523993 0.0029585753 0.0061639627
000220 8e e2 0e bd 81 58 31 3d f3 ac b0 3c df 2a fc bc
       -0.034884028 0.043297295 0.021566844 -0.030782161
000230 84 70 cf 3c 69 87 5f 3d 6d fc 4b bb 04 99 40 bd
       0.025322206 0.054572497 -0.00311258 -0.047020927
000240 16 6c 35 3d 77 df 3b bd 00 b5 c7 3b 5f e5 9a ba
       0.044292532 -0.04586741 0.006094575 -0.0011817625
000250 9a 36 70 3d 17 68 dd 3b 1d 36 2a bd 55 95 6c 3d
       0.058645822 0.0067567932 -0.041555513 0.0577596
000260 83 dd 25 bd 0a 91 db 3b 2f 68 06 3d 9a 02 c6 bb
       -0.040494453 0.0067006396 0.0328142 -0.0060427906
000270 2d 84 cc 3c 09 7d 2c 3d 52 0f 99 3c 44 53 cb bc
       0.02496537 0.04211143 0.018684063 -0.024819978
000280 bb b0 8a 3c 64 30 f2 bc ca ec 11 bd 67 ea 5c ba
       0.016929975 -0.02956409 -0.03562621 -0.00084272627
000290 1a 65 3f 3d ba f4 16 3d 2d ef ac bc 61 9e 8c bc
       0.046727277 0.036854483 -0.021110142 -0.017165365
0002a0 48 17 c6 3b be 62 2c 3d dc f8 20 3d 5b 37 4a 3d
       0.006045256 0.042086355 0.03929983 0.049369197
0002b0 a6 e4 51 3d 53 36 21 3d 50 af 0b bd 52 5c 46 bd
       0.051243447 0.03935845 -0.034102738 -0.048427887
0002c0 96 49 22 bb 1e af 4c bc 8b 20 e7 bc 1d 4e 26 3d
       -0.00247631 -0.012492923 -0.02821376 0.04060184
0002d0 b3 e0 28 bd b1 06 d3 bc 44 f5 67 3c 3e 5c 04 3d
       -0.041229915 -0.025760027 0.014157597 0.03231453
0002e0 f2 d2 db 3c 61 82 31 3d 4f 01 f9 bc b4 5d e4 bb
       0.026833985 0.04333723 -0.030396132 -0.006969178
0002f0 7e ff c6 bc 71 d1 31 3d cb e3 ed 3c df 22 1d bd
       -0.02429175 0.04341263 0.029039284 -0.038363334
000300 f1 70 d5 3c 0e 29 e4 bc 4f 05 42 3d 1c f6 46 3c
       0.026054831 -0.027851608 0.047368344 0.012143638
000310 9a 9b 55 bc 18 5c 08 bb ab 5a ba 3b c9 2c 54 bd
       -0.013037587 -0.0020806845 0.005687078 -0.051800523
000320 ff 20 e4 3c 36 80 67 3c 1e c3 d8 bc ea 58 4b bd
       0.027847765 0.014129689 -0.026460227 -0.049645342
000330 1e e2 0d bd 2c 3a d7 bc ac 31 a6 3c 47 ba 5a 3d
       -0.03463947 -0.026272856 0.020287357 0.053400304
000340 a4 a1 01 bc d8 79 e5 3c 1b e5 a2 bc 84 c8 66 3d
       -0.007912073 0.028012201 -0.019884637 0.05634357
000350 1a 75 44 3d 58 16 1b bd a2 28 3a 3d 3a 51 c2 3c
       0.04796324 -0.037863106 0.045448907 0.023720372
000360 52 a3 7f bb 47 a7 55 3d 90 35 0e bd 45 53 13 3d
       -0.0039007259 0.05216148 -0.03471905 0.035968084
000370 a7 6d 08 3c f6 74 32 3d a1 16 c3 3c 2c 40 6d 3c
       0.008326924 0.043568574 0.023814501 0.014480632
000380 1d 4a 2d 3d 1d c0 ca 3b bb cb 97 3c d3 c1 a1 ba
       0.042307008 0.0061874525 0.018529763 -0.0012341089
000390 9f 0b c8 bc 65 2e 5a bd 27 3a 3c bd 9b fe 59 bd
       -0.024419604 -0.0532669 -0.045953896 -0.053221326
0003a0 ef 9f 2c 3d bb 0e 42 bc 6e 25 07 bd 55 e1 21 3d
       0.042144712 -0.011844332 -0.03299468 0.039521534
0003b0 c5 a8 53 3b 91 85 03 bd 1d f8 b1 bc e7 34 af 3c
       0.003229664 -0.0321098 -0.021724755 0.02138753
0003c0 15 7c 62 bd 08 0d c0 3c 9a ea 6a bd bd 16 b8 3c
       -0.055294115 0.023443714 -0.05735264 0.02247178
0003d0 9b 6f df 3c 06 c2 91 bc f1 94 b8 3b fd 92 61 3d
       0.027274897 -0.017792713 0.0056329896 0.05507182
0003e0 8a e8 d9 3b f9 e6 1f 3c df 1a 2a 3d 14 5c 5b bd
       0.0066500353 0.009759658 0.041529533 -0.05355461
0003f0 83 77 2c bb 28 6f b8 3c 87 f0 5c 3b 06 20 d6 3c
       -0.0026316352 0.02251394 0.0033712701 0.026138317

actor.2.bias f4 [64]
000000 fa 9e 64 bd 57 02 33 3d 9b 0d 05 bd 6b 4c 69 bd
       -0.055815674 0.043703403 -0.03248368 -0.056957643
000010 1b 76 e8 3c b0 8d 44 3c f8 0b 0f 3c a3 32 23 bc
       0.02837663 0.011996672 0.008730881 -0.009960803
000020 1d 80 69 3d 36 02 62 3d 2a 98 85 ba bc 37 6b bd
       0.057006944 0.05517789 -0.0010192443 -0.0574262
000030 19 d1 ec bc 22 f1 20 3d 92 d6 3b bd 85 b0 32 bd
       -0.0289083 0.039292462 -0.045858927 -0.043625373
000040 a2 c9 49 3d 67 5e 09 3d 57 74 9c bc 52 a6 17 bd
       0.049264558 0.033537295 -0.019098444 -0.03702385
000050 83 b9 5f bd 7b 6e 63 bd 64 ec ba bb 74 cb 3b bd
       -0.054620277 -0.055525284 -0.0057044495 -0.045848325
000060 d2 c7 b7 3a a5 b7 0d bb 0e 77 97 3c bb 11 c6 bc
       0.0014021343 -0.0021624353 0.018489387 -0.024178376
000070 16 38 18 bd 23 c7 c2 3c ee 22 67 3c d5 df 21 bd
       -0.037162863 0.023776596 0.014107449 -0.039520103
000080 71 17 52 bd 49 2b 10 bd 58 e9 8b 3c 8d 8f 88 3c
       -0.051291887 -0.03519753 0.01707904 0.016670013
000090 29 47 46 bc b2 a1 94 bc bc ea 0d 3c b1 48 f0 3b
       -0.012101927 -0.018143509 0.008661922 0.0073328842
0000a0 3d 13 5e bc c8 aa e6 3b 0b 44 62 3d b9 aa 21 bb
       -0.013554391 0.0070394017 0.055240672 -0.002466841
0000b0 bc d3 f4 bc 7f 1f 49 3d 9c de 5d 3d fb f0 a9 ba
       -0.029886119 0.049102303 0.054167375 -0.0012965495
0000c0 f7 f6 2a bd 81 bd 0e 3d a7 90 17 3d 50 f4 ef bb
       -0.04173943 0.034848694 0.037003186 -0.0073228255
0000d0 c6 ee 00 bd f5 d8 e9 bb b2 f4 2b 3b e3 53 20 3d
       -0.031477712 -0.007136459 0.002623838 0.0391425
0000e0 89 a8 01 b9 60 73 43 3d d2 e5 3a 3c 5f 3a a9 bb
       -0.00012365183 0.047717452 0.0114073325 -0.005164429
0000f0 e9 16 4f 3d 10 8e 5c bd b4 15 30 3d 04 5c 93 3c
       0.05055896 -0.05384642 0.042989448 0.017988212

actor.4.weight f4 [128, 64, 3, 3]
000000 ae db 26 3d 90 a0 5a bc b6 6e a1 bc 4e 58 fe 3c
       0.040736847 -0.013343945 -0.019706111 0.031047966
000010 38 ea 8c bc 6a f1 1a 3d db 2a 50 bc 9a b8 0b bd
       -0.017201528 0.037827887 -0.01270553 -0.034111597
000020 27 4e 1b 3d ab d2 f1 3b ce 32 e6 bc 90 23 7c 3c
       0.03791633 0.00737985 -0.028100397 0.015389338
000030 6b 70 25 3c f6 80 88 bc 7f e3 04 3d 10 66 53 3c
       0.010097603 -0.016663056 0.03244352 0.012902752
000040 56 26 38 bc 06 93 fe 3c 36 90 1c 3c 8b 30 5a bc
       -0.011239609 0.031075966 0.009555867 -0.013317238
000050 8e eb 8f bc c8 7c fa 3c 9b 17 4f bc 06 3e b6 3c
       -0.017568376 0.030577078 -0.012639905 0.022246372
000060 6c 1f 11 3d 73 2d b8 bc 5a 25 06 bd 8b 94 10 3d
       0.035430357 -0.02248261 -0.032750465 0.03529791
000070 a6 a7 10 3c ef 59 2a bd 23 9f 13 3d 8c ca 1f bd
       0.008829033 -0.041589674 0.036040436 -0.039011523
000080 8b 8f 9a bc 70 f5 6e 3c 5b 5f 5f 3c 16 5b 0c bb
       -0.018867275 0.014584884 0.013633574 -0.0021416596
000090 36 29 93 bb 66 1c 55 bc e0 fe 99 3b fb 9a 1a 3d
       -0.0044909967 -0.013007259 0.004699573 0.037745457
0000a0 08 a7 e3 3c 66 16 84 3c 8b 64 bd bb 70 79 16 3c
       0.027789608 0.016123962 -0.005779808 0.009184226
0000b0 0c 2f 05 bd 90 ff aa 3c f3 dc 22 bd 2b 84 01 bb
       -0.03251557 0.020873815 -0.039761495 -0.0019762616
0000c0 2b 27 51 bb a6 3a 74 3c 4c b0 20 3d 60 87 a8 bc
       -0.0031914215 0.014906561 0.03923063 -0.020572364
0000d0 de cb 9b 3c c0 8e 5e 3b 2e 10 88 bc be ce 94 bc
       0.01901811 0.0033959597 -0.016609278 -0.018164989
0000e0 23 54 b5 3c 16 05 49 3b d6 ab 57 3b c7 d6 03 3d
       0.022134846 0.0030673197 0.0032908819 0.03218725
0000f0 5b c3 f7 bc 36 2c 50 3c 9b 3b 56 3c b8 e9 c2 3c
       -0.03024452 0.012705853 0.0130757345 0.023793086
000100 58 e4 83 3c 60 53 54 3c 98 8f e8 3c ae 79 9c 3c
       0.016100094 0.012959331 0.028388783 0.01910099
000110 8b 76 80 bb 90 75 c2 bc 8e af d2 3c 1e ae d0 3c
       -0.0039203814 -0.023737699 0.025718477 0.02547365
000120 30 fb 19 3d 46 70 20 3d 3a 7f 00 bd d6 91 08 bb
       0.037593067 0.039169572 -0.031371333 -0.0020838878
000130 db 64 44 bc 22 c1 0a 3d 6b 0a bd 3b 96 bd 5b bc
       -0.011986936 0.033875592 0.005769064 -0.0134119
000140 53 dc 01 bd 9b c7 38 3c e6 5b 75 bc e0 e6 87 bb
       -0.03170426 0.011278058 -0.014975524 -0.0041473955
000150 06 b8 41 3c ab 91 95 bb 56 99 67 b9 7b 52 68 bc
       0.01182366 -0.004564484 -0.00022086999 -0.014179821
000160 80 66 b8 ba d7 d8 19 bd 0e 47 13 3d 2b 41 03 3d
       -0.0014068633 -0.03756031 0.035956435 0.03204457
000170 40 93 04 3b f3 2b ef bc c0 a9 84 3b 00 4f 1c bc
       0.002022937 -0.029195761 0.004048556 -0.009540319
000180 20 3f 03 bc ab 7e 13 b9 3b 99 61 3c f8 8e 15 bd
       -0.008010656 -0.000140662 0.013769443 -0.0365133
000190 20 97 a8 bb ee 07 f3 3c ab c2 52 3a 76 ff 2e 3c
       -0.0051449686 0.029666867 0.0008039872 0.010681024
0001a0 4b f5 15 bc 78 1e d3 bc a8 54 e3 3c e3 22 05 3d
       -0.009152721 -0.025771365 0.027750328 0.032503974
0001b0 23 6f 28 3d 53 5a fa 3c cf 34 1b 3d 43 05 22 bd
       0.041121613 0.030560648 0.03789216 -0.0395558
0001c0 cb 0e 58 3c 3c 32 00 bd 33 d6 84 bc 52 38 19 3d
       0.013187121 -0.031297907 -0.01621542 0.037407227
0001d0 e6 12 1d 3d a8 4d d4 bc 86 43 d9 3c f6 92 06 bd
       0.0383481 -0.025915936 0.026521455 -0.032854997
0001e0 ab 0a ee 38 fb d7 b4 bc 6e 2c e8 bc 48 16 1f bd
       0.000113507114 -0.022075644 -0.028341498 -0.03883961
0001f0 ab 1c 1a 3c c0 17 69 3c 66 b6 21 3d 80 09 57 3c
       0.009406249 0.014226854 0.03948059 0.013124824
000200 bb a6 52 bc 56 e9 e8 3c 96 4f 61 3c 1b 46 10 bc
       -0.012857134 0.028431576 0.013751885 -0.008805777
000210 5a 8e 29 3d 80 07 b1 3b a2 ae 22 bd d8 d4 db bc
       0.041395523 0.0054025054 -0.039717324 -0.02683489
000220 a3 28 1d bd 8e 42 b4 bc 27 8e 05 3d 00 cf 10 bc
       -0.038368832 -0.022004392 0.03260627 -0.008838415
000230 b0 56 6d bc d6 24 88 bc bc a3 1a 3d 8b a1 8a 3c
       -0.014486 -0.016619127 0.037753806 0.016922733
000240 a8 a1 dc 3c 9e 02 bf 3c d0 6f f7 bc d3 37 28 bd
       0.026932552 0.023316678 -0.030204684 -0.041068863
000250 f6 ec 24 3c 2b 1d b1 3a 96 3b 44 3b 78 4f fd bc
       0.0100662615 0.0013512721 0.0029942743 -0.030921683
000260 42 54 24 bd a0 96 cf 3c 68 cc b8 bc eb 2b db bc
       -0.040119417 0.025340378 -0.022558406 -0.02675434
000270 0b d7 af 3c 9b 5f dc 3c 70 7f 28 3c f0 9a 0a 3c
       0.021464845 0.026901057 0.01028429 0.008459792
000280 eb 2f c8 3b 00 bd 23 3b 2f d6 1d 3d 6e 22 07 bd
       0.006109228 0.002498448 0.03853434 -0.03299182
000290 76 f1 e5 3c 40 bb 5c bc 86 4f 17 bc 60 e3 ae bc
       0.02806924 -0.013472378 -0.009235268 -0.021348655
0002a0 2b 67 00 3c 0b 50 86 3c 16 1e 79 bc d6 df 38 3b
       0.007837097 0.01639559 -0.015204927 0.0028209588
0002b0 cb c2 22 3d 00 5a eb 3a 48 14 d4 bc 9b a8 25 bc
       0.03973655 0.0017955899 -0.025888577 -0.010110999
0002c0 36 4f 5a bc c4 aa 0b bd 38 68 a1 bc d7 c7 25 bd
       -0.013324549 -0.0340984 -0.019703016 -0.040473785
0002d0 d0 0f d6 3c 46 5c c9 bc ac ef 03 bd fb ec c9 bc
       0.026130587 -0.024580132 -0.03221099 -0.024649134
0002e0 0b 20 bb 3b 23 c0 e6 bc 5b e3 5b bc 80 32 d7 bc
       0.005710607 -0.02816779 -0.013420905 -0.026269197
0002f0 7b 89 e5 3c 20 f3 7b bc 00 1d e1 bb 00 86 7b 3b
       0.028019657 -0.01537779 -0.006869912 0.003837943
000300 73 0a ef bc b0 92 56 bc c0 73 88 bb 70 ca 7f bc
       -0.029179787 -0.013096496 -0.004164189 -0.01561223
000310 a0 57 ae 3b e8 8c 00 bd 5b cd 59 bc 50 f6 a4 bc
       0.0053205043 -0.03138438 -0.013293589 -0.020136982
000320 80 f2 e6 3a fc 9b 10 bd 86 b4 b2 3c 98 d8 cb bc
       0.0017619878 -0.03530501 0.021814596 -0.024883553
000330 2b 43 80 ba 0b ae a9 3c d2 58 08 bd cb a7 21 3d
       -0.0009785643 0.020712873 -0.03328783 0.03946666
000340 b6 dc 6f 3c 32 cd 01 3d 57 f7 01 3d 28 12 f7 bc
       0.014640024 0.03168983 0.031730022 -0.030160025
000350 ee db 81 3c 87 a0 16 3d 3c bb 07 3d d3 58 90 3c
       0.015851941 0.036774185 0.033137545 0.01762048
000360 d6 36 fc ba d6 df 35 bc 28 d3 c9 3c 02 37 0f bd
       -0.0019242417 -0.01110073 0.02463682 -0.03496457
000370 70 39 8e 3c 8f 95 1b bd e0 a5 7d bc 90 50 27 bc
       0.017361373 -0.037984427 -0.015481442 -0.010212079
000380 30 9d 45 bc 16 77 c9 bc 46 46 9d bc 4b 12 a3 3c
       -0.012061402 -0.024592917 -0.019198548 0.019906184
000390 50 f4 51 3c b0 55 0e 3c 58 b4 f4 bc d0 b0 74 bc
       0.012814596 0.008687422 -0.02987115 -0.0149347335
0003a0 66 e5 48 3c fe 2d 21 bd 16 ee c4 bc c0 99 5c 3b
       0.012261724 -0.039350502 -0.02403931 0.0033660978
0003b0 06 60 11 3c 58 43 8c bc ab da dd 3a 30 c2 52 bc
       0.008872991 -0.017121956 0.001692613 -0.012863681
0003c0 de 2b 0f 3d 20 33 0a 3c b0 9c 3c 3c 5e 28 ae bc
       0.034953944 0.008435041 0.011511967 -0.021259483
0003d0 a4 bf 06 bd 48 b6 21 bd 76 fe cd 3c fb f5 85 3c
       -0.032897606 -0.039480478 0.02514575 0.016352644
0003e0 1e ca e9 bc 6e 0d 0c 3d e0 67 36 3c 36 2f fa 3c
       -0.02853876 0.034192495 0.011133164 0.03054009
0003f0 bb 9f 0c bd 6f d9 18 bd 4e 34 d7 3c 80 e0 75 3c
       -0.03433202 -0.037316736 0.026270058 0.015007138

actor.4.bias f4 [128]
000000 aa cb 14 3d 10 00 d1 bc 4c be 07 3d 3b 91 7d bc
       0.03632704 -0.025512725 0.033140466 -0.01547652
000010 f8 5e b3 3c a0 40 f8 3b 80 93 73 3c 80 1f b7 bb
       0.02189587 0.0075760633 0.01486671 -0.005588472
000020 d3 88 e5 bc de 08 b5 bc 9e 70 89 bc f6 34 a3 bb
       -0.028019344 -0.022098955 -0.016777333 -0.0049806787
000030 eb 44 75 bc 36 c8 ff bb ce a0 a0 bc 68 3c 9f bc
       -0.014970045 -0.0078058494 -0.019607928 -0.019437984
000040 3e 7c ee bc 16 72 f1 bc f3 0f e9 3c 34 1c 0d bd
       -0.029111978 -0.029473346 0.028449988 -0.034450725
000050 60 8f 34 bc 7e c7 b8 3c e0 04 ca 3b f8 08 d1 bc
       -0.011020511 0.022556063 0.006165132 -0.025516972
000060 cb f5 c4 3c 16 3d 01 bc 34 f4 04 bd a4 99 02 3d
       0.024042984 -0.007888099 -0.032459453 0.031884804
000070 a0 d6 ef bb 16 24 e5 bb 9b 65 03 3c 9b 95 db bc
       -0.0073192865 -0.006992827 0.00801983 -0.026804736
000080 20 71 e3 bb 2b 2c 0b 3c 0f ac 11 3d 9c 88 16 bd
       -0.006940976 0.008494417 0.03556448 -0.036751375
000090 5c 84 0b 3d b6 19 b8 bb d3 7f 80 bc 6b b6 6d bb
       0.034061775 -0.0056182994 -0.015685951 -0.003627206
0000a0 84 90 14 3d a0 e1 1b 3c fb cf d8 bc eb 48 12 bc
       0.036270633 0.009514242 -0.02646636 -0.008928518
0000b0 fb 40 a1 bc 63 d4 d6 3c f0 8f 26 3c 10 a4 24 bd
       -0.019684305 0.02622432 0.010166153 -0.040195525
0000c0 00 d9 4b 3c bb 88 6c 3c 86 03 c2 3c c0 1f 0d 3b
       0.012441874 0.014436896 0.02368332 0.0021533817
0000d0 f3 ce 12 bd 38 6b 98 3c d6 2c 3e 3b 86 8d a6 bc
       -0.035841893 0.018605813 0.0029018424 -0.020331156
0000e0 d8 e8 be 3c 8e eb d3 3c 00 bb 9b 3a 7f 79 20 bd
       0.023304388 0.025869157 0.0011881292 -0.039178368
0000f0 c0 c3 21 3b 3e 7c 21 bd 73 ff 10 3d b0 f8 08 3c
       0.0024683326 -0.039425127 0.035399865 0.008360073
000100 7b fe 17 3d 9b c0 4d 3c a0 9b dd bb be 59 f5 3c
       0.037107926 0.012558128 -0.0067629367 0.029950019
000110 58 ec b3 bc eb 80 00 bc 3b 75 72 3c 8b ec 79 3c
       -0.021963283 -0.007843236 0.014798458 0.01525415
000120 33 93 f7 bc 16 d4 f6 bc 38 bb d0 3c f6 12 fa bb
       -0.030221557 -0.030130427 0.025479898 -0.007631655
000130 80 3e a7 3a b6 20 9f 3b 86 64 b2 bc 9e af 86 3c
       0.0012759715 0.0048561944 -0.021776449 0.016441163
000140 62 37 0e 3d 26 5e 2c bc 5e 28 dd bc 40 9f c3 3b
       0.034720786 -0.010520494 -0.026996788 0.005969912
000150 86 18 ef 3c e4 5d 1d bd f8 80 d4 3c 4b 30 4e bc
       0.029186498 -0.03841962 0.025940403 -0.012584756
000160 7f ac 04 3d 9b 73 3f 3c f7 18 27 bd 20 26 5e bc
       0.032391068 0.011685277 -0.040795293 -0.013558894
000170 2a 7d 22 bd eb 9a e7 bb 17 32 05 3d 0e 76 cd bc
       -0.039670147 -0.007068028 0.032518473 -0.025080707
000180 1b db 69 3c ab d0 85 bb 50 a1 79 3c 4e 20 0e 3d
       0.01427343 -0.004083713 0.015236214 0.034698777
000190 40 13 1e bd 56 75 48 bc 53 2c b1 3c f4 04 1d bd
       -0.038592577 -0.012235006 0.02162758 -0.0383348
0001a0 90 92 ff 3c 20 a1 53 bc 73 52 d2 3c e3 4a dc 3c
       0.031197816 -0.012916833 0.02567408 0.026891178
0001b0 2b 75 9f bb 58 0a cf 3c 56 3d a4 39 00 e7 55 bb
       -0.0048662624 0.025273487 0.00031326216 -0.0032638907
0001c0 00 e3 71 3a 12 26 16 bd 8f 8a 19 bd 96 cd 16 3c
       0.0009227246 -0.0366574 -0.037485655 0.009204289
0001d0 36 70 f1 3c b8 dc 8f 3c a6 25 00 bc b6 2c 04 bd
       0.029472452 0.017561302 -0.007821476 -0.032269202
0001e0 63 c5 c0 3c 76 92 0a 3d 3a b5 01 3d 06 60 04 bc
       0.023531621 0.033831082 0.03166697 -0.008079534
0001f0 ab e6 9b ba e0 a5 bd 3b 2e 13 ec bc f0 a2 da 3c
       -0.0011894306 0.005787596 -0.02881774 0.026689023

shit.0.weight f4 [256, 128]
000000 27 82 4a bc d8 4b 91 3d 4e 50 3f bd 89 7f 91 3c
       -0.012360132 0.07094544 -0.046707444 0.017761009
000010 53 c3 c4 bc 81 5c 5a bc 53 1a 14 bd d0 91 2e 3d
       -0.02401892 -0.013327719 -0.036157917 0.042619526
000020 dd 6b 97 3d 5a 5c 66 bb 50 d1 f2 3c ae b2 c5 bc
       0.0739362 -0.003515026 0.029640824 -0.024133053
000030 b2 fc 90 bd 22 20 f3 bc 55 53 9e bd 78 e9 9a bd
       -0.07079448 -0.029678408 -0.07730738 -0.07564062
000040 d0 6e c2 3c 02 7f d8 bc ff 67 38 3d 5d 20 26 3d
       0.02373448 -0.02642775 0.045021053 0.040558208
000050 37 19 86 3c 10 34 24 bd d0 6d 69 bd 2a 36 1d bd
       0.016369445 -0.040088713 -0.05698949 -0.038381733
000060 a5 23 83 3d 2c eb 8d 3d 1f ff a6 bc 2f d2 38 bd
       0.06403283 0.06929621 -0.020385323 -0.04512232
000070 4f 3a 64 3d 6e f6 93 3d 44 4c e6 bc 8f df 97 b9
       0.05571967 0.07224737 -0.028112538 -0.00028967528
000080 53 fa 1e 3c 9e 36 9f 3d ed aa 0e bd ca 5c 34 3c
       0.009703237 0.07774089 -0.034830976 0.011008451
000090 a3 91 b6 ba 8e a0 86 bd ea 83 36 bd 0c 33 86 3c
       -0.0013928901 -0.06573592 -0.044559397 0.016381763
0000a0 d8 6a 8a 3c 79 88 39 bd 55 1e 83 3d 38 ff c2 bc
       0.01689665 -0.045296166 0.0640227 -0.023803338
0000b0 ad ad 86 bd dd d3 98 3a 2d d0 88 3d 95 73 2e 3d
       -0.06576095 0.001165982 0.066803314 0.042590696
0000c0 92 2c 63 3c c5 8c 3b bc 4d 46 1e bd 46 59 78 bd
       0.013865607 -0.011447136 -0.038641263 -0.060632013
0000d0 70 16 0d bc 12 47 73 bd e8 cd 23 bd da 4f 81 bd
       -0.008611307 -0.05939395 -0.03999129 -0.063140586
0000e0 0b 4f 8f bc e9 2f 5a 3d e2 8e 83 bd 54 6e 98 3c
       -0.017493745 0.053268347 -0.06423737 0.018607296
0000f0 77 a7 95 bc 41 b0 7f 3d f3 03 73 bd 06 2c 8e bb
       -0.01826833 0.06242395 -0.05932994 -0.004338744
000100 5b f5 50 bd 40 47 97 bd 76 98 24 bd 61 02 1b bd
       -0.05101524 -0.07386637 -0.04018446 -0.037844066
000110 91 aa db 3c f5 62 94 bd e3 c9 2d 3d 59 60 10 3d
       0.02681473 -0.07245437 0.042428862 0.035248134
000120 f9 0b c2 bc 20 d0 ae 3c 5f 26 cc bc aa b2 97 3d
       -0.02368735 0.021339476 -0.02492064 0.07407124
000130 ad 23 1e bd e3 50 e1 3c d0 54 58 bd 02 b5 8a bd
       -0.03860824 0.02750439 -0.05281526 -0.06772806
000140 f6 31 31 bd 5c 23 da bc 4b 01 4a bd bf 78 aa 3d
       -0.043260537 -0.026628189 -0.04931764 0.08323812
000150 36 b8 97 bd 57 a0 9a 3d 9d b0 3b bc de 98 8e 3d
       -0.07408182 0.07550114 -0.011455682 0.06962751
000160 f0 7b 8c 3d fa d1 84 3d 37 81 fa 3c b9 ce 56 3d
       0.06859577 0.06485362 0.030579193 0.05244324
000170 f5 6d 7e bd 71 67 49 bc e3 79 5f 3a 93 f6 fe 3c
       -0.062116582 -0.012292729 0.00085249374 0.031123435
000180 4d d6 7e bd 5e e3 78 3d 8d c3 58 bd aa 01 a6 3d
       -0.062216092 0.06076371 -0.052920867 0.08105786
000190 3d 3d 9a 3d 50 60 63 bd b5 37 8f 3c 94 79 a8 3c
       0.075312115 -0.055511773 0.017482618 0.020565785
0001a0 3e 52 2d 3b 89 c3 29 3d d7 a3 54 bd 72 f1 93 3d
       0.0026446725 0.041446242 -0.051914062 0.072237864
0001b0 9b ec bf 3b 8f 01 8f bd 97 8e ab 3d 8c 7f 6d 3d
       0.005857063 -0.06982719 0.08376806 0.057982966
0001c0 39 d8 ef 3c 9c 9d 26 bd b6 de ed 3c a6 48 10 bd
       0.029277908 -0.04067765 0.02903686 -0.035225533
0001d0 0a 7b a8 3d b3 c7 62 3d 4b b3 a6 bd 55 72 bd 3b
       0.08226593 0.05536623 -0.08139666 0.0057814517
0001e0 d2 f5 8c 3d 04 dc b6 3c e4 c4 0a 3d cd 0a 0c 3d
       0.06882824 0.022321709 0.033879176 0.034189988
0001f0 48 b1 9b 3d 2a 64 2b bd 43 3d 5d 3d d5 b3 93 bd
       0.07602173 -0.04184357 0.0540135 -0.072120346
000200 98 75 97 bd d2 45 10 3d 72 84 77 bd bd d4 87 bd
       -0.07395476 0.035222836 -0.060429044 -0.066323735
000210 3c 32 ad 3d 4e 69 52 bd cc 8c 9f 3d 06 a9 7a 3d
       0.08456847 -0.051369958 0.07790527 0.06119635
000220 85 31 0f bc 3f 48 28 3d 09 22 e2 3c 25 5d 10 3d
       -0.008739834 0.041084524 0.02760412 0.03524508
000230 c1 76 17 bd ac 33 ab bc a7 7a 3b 3d 55 5f b8 3c
       -0.036978487 -0.020898663 0.045771267 0.022506395
000240 76 39 ac bd 2e 17 46 bd b5 9f b4 bd fd ef fe bc
       -0.08409397 -0.04836195 -0.08819524 -0.031120295
000250 49 df 9b bd c3 79 c0 3c 90 79 4f 3d f8 9d 93 3d
       -0.07610948 0.02349556 0.05065304 0.072078645
000260 19 a5 33 3d 73 b6 75 bc 65 86 52 bd 91 02 6f 3c
       0.04385862 -0.014997113 -0.0513977 0.014588014
000270 5b 8d f8 bc 59 21 5c bd 6a a6 02 3c 50 ca 54 3d
       -0.030340841 -0.05374274 0.0079742465 0.051950753
000280 c8 4e e2 bc d6 70 53 bd 04 6f 24 bd 35 20 67 bd
       -0.027625456 -0.05162128 -0.040144935 -0.0564272
000290 dd b9 8d bd 35 0b c5 3c a2 c4 00 3d 6e c9 ac 3d
       -0.06920216 0.024053195 0.031437524 0.08436857
0002a0 f6 4b 95 bd ef e7 9b 3c a2 ee 75 3d 48 58 aa bd
       -0.07289879 0.019031493 0.06004203 -0.083176196
0002b0 0a d9 37 3d d4 a3 4a bc 55 7d 12 3d b6 63 ee bc
       0.04488472 -0.012368161 0.035764057 -0.02910028
0002c0 3b 6e cc 3c 6f 7f 20 3d a2 1e 83 3d 0b f7 c2 bc
       0.024954906 0.03918403 0.06402327 -0.02379944
0002d0 09 8f 2a 3d 19 46 0e bc 3f 04 32 bd df 71 34 38
       0.041640315 -0.008683705 -0.04346108 4.3021395e-05
0002e0 ee 97 7a 3d 6e e4 d4 bc c6 a2 23 bc 3b 75 92 3c
       0.061180048 -0.02598783 -0.009987539 0.017878165
0002f0 b1 16 9a bd ef db 41 bb de 6f 80 3c a5 59 a9 bd
       -0.07523859 -0.0029580554 0.015678342 -0.082690515
000300 24 50 b1 bd 46 23 29 bd 41 eb 64 3d 29 ae 76 bc
       -0.08657864 -0.041293405 0.055888418 -0.015056171
000310 a0 48 5c bd f0 dc cc 3c 38 2b 3a 3c 9e b0 21 ba
       -0.053780198 0.025007695 0.011362843 -0.00061679806
000320 c9 a8 18 bd ea c9 63 bd 44 07 79 3d 9d fe 78 bd
       -0.03727034 -0.055612482 0.060797945 -0.060789693
000330 3e 81 07 bc 2c 0b f6 bc 5e b9 b2 bd 41 99 9d bd
       -0.00827056 -0.030034624 -0.08726762 -0.076952465
000340 5f a2 5f bb 0a 72 97 3d 5c 44 83 3d 64 d4 1f 3d
       -0.003412388 0.07394798 0.06409523 0.03902091
000350 6b 69 2a bd 61 13 6c 3d 5b 75 6a 3d cc 82 ae 3d
       -0.04160444 0.05763567 0.057240825 0.08521041
000360 74 f5 5b 3d bc 9f a4 bd e0 36 ea bc c1 f4 23 bc
       0.05370088 -0.080382794 -0.02859062 -0.010007084
000370 29 c5 70 bd a3 a2 c5 3c 1b 0c fd 3c 39 94 90 bd
       -0.058781777 0.024125403 0.030889561 -0.07059521
000380 bd 2d 1a 3d 20 33 bf 3c c6 48 90 bd 35 72 af 3d
       0.037641276 0.023339808 -0.070451304 0.08566705
000390 23 17 4c bd f3 37 4c 3d 6d 40 a9 bd 17 9c a7 bd
       -0.049826752 0.049858045 -0.08264241 -0.08184069
0003a0 bb f0 12 3d e0 03 ae 3d 34 83 95 bd 1d 8c 81 bd
       0.03587411 0.08496833 -0.07300416 -0.063255526
0003b0 c5 2d 3c 3a b6 d9 72 bb 66 cc 20 3b 47 dd 81 3d
       0.0007178451 -0.0037056035 0.0024535893 0.063410334
0003c0 28 77 88 bd f8 0c 94 bd 3e af 52 bd 5b e5 59 3b
       -0.06663352 -0.07229036 -0.051436655 0.0033248279
0003d0 a9 36 d0 bc 71 16 39 bd 19 9c 9d 3d 2a 58 10 bb
       -0.025416689 -0.045187417 0.07695789 -0.0022025206
0003e0 5c 84 9e 3d 2a cb 0a bd d4 12 93 3d bc b3 86 3d
       0.07740089 -0.03388516 0.071813256 0.0657725
0003f0 bd 8a ed 3b b5 2f 74 bd c9 c6 07 bd 57 91 6a bd
       0.007249205 -0.05961581 -0.03314856 -0.057267513

shit.0.bias f4 [256]
000000 fc 13 48 ba 17 0f c6 bc e7 a6 99 bd a5 89 82 bc
       -0.00076323724 -0.024177117 -0.07502537 -0.015934775
000010 e8 57 ac 3c 68 14 4e 3d e4 6a f3 bc fd d6 38 3d
       0.02103801 0.05031243 -0.029714055 0.045126904
000020 2e 7e a2 3d 46 1f 66 3c e0 60 a4 3d 72 97 58 bd
       0.07934223 0.014045542 0.0802629 -0.052878805
000030 42 d1 8d bd 17 aa 64 3d 46 00 c8 bb a9 aa da 3c
       -0.069246784 0.055826273 -0.006103548 0.026692705
000040 14 46 5b 3d 50 96 05 bd 5a 34 da 3c b8 0e b0 3c
       0.05353363 -0.032614052 0.026636291 0.021491393
000050 73 70 86 bd d9 32 a5 3d b7 c5 95 3b ec b5 51 3d
       -0.06564417 0.08066339 0.0045706886 0.051198885
000060 0d 27 a3 3d ed e8 78 3a f3 00 9c 3d cf 23 3b bc
       0.07966433 0.0009495158 0.076173685 -0.011422112
000070 c7 46 5b 3c 41 55 a8 3d ce 6e 4e bd a9 56 9f 3d
       0.013383574 0.08219386 -0.05039864 0.07780201
000080 ac 63 d0 bb ed c0 e0 bc df 64 85 bd 6b 19 7d 3d
       -0.006359538 -0.027435744 -0.0651338 0.06179182
000090 0f 09 a4 3c d7 ca 72 bd 6e 57 88 3d b6 34 18 bd
       0.02002385 -0.059275474 0.06657301 -0.037159644
0000a0 4c fb 5b bd bb 87 0f 3d 87 48 90 3d a6 1a 42 3c
       -0.053706452 0.035041552 0.070450835 0.011847174
0000b0 27 2f 9c 3c 21 46 81 3d fd 29 c1 bc 55 6d 29 bd
       0.019065453 0.06312204 -0.023579592 -0.041364033
0000c0 4a 18 de bc 43 10 9a bd e5 1a 84 3d 41 7a 87 bd
       -0.027111191 -0.07522633 0.06450442 -0.06615115
0000d0 8f 1c 2d 3d 60 60 88 3d 02 9c e3 bc 92 3d 03 bd
       0.042263564 0.06659007 -0.027784351 -0.03204114
0000e0 8b b8 42 bd 83 fc 51 3d 1b 22 24 3d 5e 74 41 3d
       -0.047539275 0.051266205 0.040071588 0.047230117
0000f0 38 05 b3 3d 07 ad 9a bd 20 44 9d 3d cd 9f 49 3d
       0.0874123 -0.075525336 0.076790094 0.049224664
000100 d5 a2 68 3c 69 4d 97 3c 1a a8 99 bd d5 5f 9c bd
       0.014198978 0.01846953 -0.07502766 -0.07635466
000110 1a 45 b3 3d e3 1b 35 3d 56 11 f2 3c 97 1a e2 bc
       0.087534145 0.044216048 0.029549282 -0.02760057
000120 8c 38 82 bb 28 dc a7 bd fe 8e 9a 3d 0b e3 62 bd
       -0.003974026 -0.08196288 0.07546805 -0.055392306
000130 cf 7a 73 bd 3a 9b 95 bd c1 2f a8 3c 87 5f a4 bc
       -0.05944329 -0.07304998 0.020530583 -0.020065082
000140 16 e7 e4 3b f2 d9 ac bb db 76 38 3d 1e 95 03 bd
       0.0069855554 -0.0052750045 0.045035224 -0.03212463
000150 40 6b ed 3c ac ec 7a bc 12 c7 ab 3d 5f 63 5d bd
       0.028981805 -0.015315216 0.08387579 -0.054049846
000160 38 4f 8d 3d 7c 70 0d bd ee 2d fa 3c a6 f1 01 3d
       0.068998754 -0.0345311 0.03053948 0.031724595
000170 4f b8 6a 3d b8 38 b6 bc 36 a0 6c 3d 38 4d ab 3d
       0.057304677 -0.022243842 0.057769977 0.08364338
000180 69 14 2a 3d 63 86 2a 3c 0a e9 69 bd 1e 7d b4 3d
       0.04152337 0.010408017 -0.05710701 0.08812927
000190 be 37 50 3d f7 b8 65 bc eb 7e fa bc dc 5d 88 3c
       0.05083441 -0.01402115 -0.030578097 0.016646318
0001a0 aa 06 92 bd fd 93 fc bc b5 5e 42 bc 5c 3d f5 3c
       -0.07130177 -0.030832285 -0.0118634 0.029936485
0001b0 44 8c f5 bc 57 ea 94 bd b9 3e 89 ba 91 43 87 3d
       -0.02997411 -0.07271259 -0.0010470963 0.06604684
0001c0 fd ac 82 bd 65 7e 91 bd b6 38 90 3d 11 db 73 3d
       -0.06380651 -0.07104186 0.07042067 0.05953509
0001d0 5c 4c 85 3d 6a c9 6c bd 86 d6 4d bc 2e 0f 70 bb
       0.06508705 -0.05780927 -0.012563353 -0.0036630142
0001e0 8b f6 75 3d 45 08 23 38 34 11 a6 bc 7f cc 85 3d
       0.060049575 3.886993e-05 -0.020271875 0.06533145
0001f0 a9 63 45 bd 67 c7 7f bd d3 df 9a 3d 86 ba 41 3b
       -0.048190746 -0.062446024 0.07562222 0.002956064
000200 b9 e0 64 3c 99 b6 5b bd a9 f3 80 bd 4f 06 91 bc
       0.013969594 -0.053640936 -0.062964745 -0.017703203
000210 29 a9 57 bd d5 23 a9 3d 4f e3 a5 bd 49 00 3e bc
       -0.052651558 0.082587875 -0.08099996 -0.011596748
000220 6b 18 2c 3c 74 a7 e3 3c 0f 63 14 bc b7 d6 07 3c
       0.010503869 0.027789809 -0.0090568205 0.008290938
000230 72 b4 b2 3d bf 62 9f 3d bd 28 24 bd ca 8e 03 3b
       0.087258235 0.07782506 -0.040077914 0.0020074123
000240 e4 93 60 3d 41 7d 38 3d 62 a0 17 bd da 82 2c 3d
       0.05482854 0.045041326 -0.037018187 0.042116977
000250 91 4a bb 3c c4 34 4a bc e1 4c d2 3c 60 d4 46 3a
       0.022862704 -0.012341682 0.025671424 0.0007584747
000260 0e 66 6e 3d 89 b5 af bb d4 bf 41 3d 08 a0 17 3d
       0.058202796 -0.005362217 0.047302082 0.037017852
000270 c8 90 37 bd 34 c7 af bd 1e 27 9b 3c 96 8c b0 bc
       -0.04481581 -0.08582917 0.018939551 -0.021551412
000280 57 fe 92 3d 8e c9 9a bc 76 8b 12 3c db ea 40 3d
       0.07177418 -0.018894937 0.008944383 0.047098976
000290 98 d9 23 bd 63 71 b4 3c 37 e9 69 bd e7 b9 9d 3d
       -0.040002435 0.022026723 -0.057107177 0.07701474
0002a0 8c ca e2 bc 0c a0 6c bd 85 2f a6 bd 3b ba 8e 3d
       -0.027684473 -0.05776982 -0.081145324 0.069691144
0002b0 fd 45 82 bd 2f bf 28 bc 2b a1 00 3c a3 ba 92 bd
       -0.063610055 -0.010299488 0.007850925 -0.071645044
0002c0 fd 68 73 3c 42 df 44 bc ea 0f 7e 3d ba 02 a7 3d
       0.014856574 -0.012016119 0.062026896 0.08154817
0002d0 ac f6 39 3b c5 55 a6 bc 89 5b 5f 3d 6b 5c 3a 3d
       0.0028375788 -0.02030457 0.054530654 0.045498293
0002e0 f1 7a dc 3c da b5 c3 bc 72 2e ae 3d 18 a2 22 3d
       0.026914092 -0.023890425 0.085049525 0.039705366
0002f0 f3 9a b1 3d a1 d4 a0 3d 40 95 a3 3c d3 80 0b bc
       0.08672132 0.07853056 0.019968629 -0.008514601
000300 7d 13 b1 bc 67 3c 8d bc ff 90 27 bd f4 86 51 3c
       -0.021615738 -0.017240716 -0.040909763 0.012788523
000310 1c bf 85 3d 4f fd 09 bd a2 38 7f 3d bc 23 5c bd
       0.06530592 -0.03368884 0.06230987 -0.053745016
000320 81 bb 37 bd 69 cd 36 bd 50 8a 3e 3d 39 25 74 bd
       -0.044856552 -0.04462949 0.046518624 -0.05960581
000330 c6 59 36 ba cb 3b a2 bd a1 1e 06 3d bf ea 3e bd
       -0.00069561263 -0.07921561 0.032744054 -0.04661059
000340 85 a7 78 bb 46 66 05 bd 37 4d 62 3c 2f 50 34 3d
       -0.0037941646 -0.03256824 0.013812355 0.04402178
000350 d0 3f 81 3d 81 c2 8f 3d 62 eb 6d bd 92 8b c5 bc
       0.063109994 0.070195206 -0.058085807 -0.024114404
000360 2c 40 95 bd b5 ea 2a bc ac 8e bb 3a 02 0a 98 3c
       -0.072876304 -0.010431935 0.0014309487 0.01855946
000370 de 95 23 3b ce 27 7b bc 2c 6e 73 3d 5d c8 1a 3d
       0.0024961154 -0.015329314 0.05943124 0.037788738
000380 17 e9 72 bb fe 6a 31 bd 7a f8 8b 3d 20 28 16 3d
       -0.0037065202 -0.043314926 0.068345025 0.03665936
000390 e5 22 94 3d 74 0e 37 bd 10 ad 9a bd 37 35 bc 3c
       0.07233218 -0.044691518 -0.0755254 0.022974594
0003a0 f0 36 c5 bc 43 cb 11 3c ae bb 8d bb a3 e7 36 3d
       -0.024074048 0.008898559 -0.0043253517 0.0446545
0003b0 d9 8b 18 3d 2f 64 10 3b b2 c4 07 bd 22 79 ad 39
       0.037242744 0.002203237 -0.033146568 0.00033087382
0003c0 da a6 31 3c 55 35 cc bc 69 e5 57 bd b4 c2 6f 3d
       0.010843003 -0.024927774 -0.052709017 0.058535293
0003d0 f0 cd 9c bd 65 13 88 bc 1c 9c 77 3d b6 11 61 bd
       -0.07656467 -0.01661081 0.060451612 -0.05494853
0003e0 c5 87 6b bd 35 6d 28 bd dc 2e ed 3c 94 89 a7 bd
       -0.057502527 -0.041119773 0.028953008 -0.08180538
0003f0 33 eb aa 3d 21 a1 ad bc 1a 73 ae bd 40 7e 20 bd
       0.08345642 -0.021194996 -0.08518048 -0.0391829

shit.2.weight f4 [128, 256]
000000 8c 84 91 3c 90 14 fb bc 80 38 ac 3b 90 3c 2b bd
       0.017763399 -0.030649453 0.0052557588 -0.041805804
000010 4a a9 4b 3d 04 6a 5b bd 16 b6 57 bd 9c 17 8d bc
       0.049721994 -0.0535679 -0.052663885 -0.017223172
000020 d0 8c b0 bb 06 48 27 3d e4 b6 cf 3c 4c 28 5b bd
       -0.00538788 0.04084017 0.025355764 -0.053505227
000030 70 db 91 3b 4e 26 14 3d e6 98 7c bd 98 32 4d bd
       0.004451208 0.036169343 -0.061669253 -0.050097078
000040 90 c0 fd 3c d0 94 e6 bb 60 72 cd bb e4 47 98 3c
       0.03097561 -0.007036783 -0.006269738 0.018588968
000050 18 34 66 3c c8 89 90 bc 16 a1 62 bd 82 2d 46 bd
       0.014050506 -0.017643824 -0.055329405 -0.048383243
000060 00 1c 0e bb 36 f5 07 bd 86 b8 7c 3d 78 76 72 3d
       -0.002168417 -0.033192836 0.061699413 0.05919501
000070 da 71 20 3d 4e 68 3b bd 84 c6 b3 bc 00 2d c8 39
       0.039171077 -0.04575377 -0.021945246 0.000381805
000080 c8 73 73 bc 3c 54 03 3d aa d5 44 bd b8 24 c0 3c
       -0.014859147 0.032062754 -0.04805533 0.023455009
000090 8a 92 6f bd 34 1e 26 bd d4 56 83 3c bc 26 c3 3c
       -0.05848936 -0.040556148 0.016032614 0.02382218
0000a0 66 7b 3c bd f8 8b 0e 3d 50 4d 1a bd 38 f4 54 bc
       -0.04601612 0.034801453 -0.037671387 -0.012997679
0000b0 68 51 e8 bc 18 08 56 bc 80 b8 95 3a a4 f6 a4 3c
       -0.02835913 -0.013063453 0.0011422783 0.020137139
0000c0 50 fc b8 3c 84 ee 1d 3d 80 1e 2b bd d4 74 da 3c
       0.02258125 0.038557544 -0.041777134 0.026667036
0000d0 dc 1b b8 bc fe 88 00 bd 32 5c 72 3d 50 00 6b bc
       -0.022474222 -0.031380646 0.059169956 -0.014343336
0000e0 d4 f6 1b 3d c8 c8 21 bd 60 65 0d bc 82 77 55 3d
       0.03807719 -0.03949812 -0.008630127 0.052115925
0000f0 32 a7 5b 3d 76 c7 10 bd 24 db b3 3c e0 30 2a bb
       0.053626247 -0.03534647 0.02195508 -0.0025969073
000100 48 dd 5c 3c 2c 89 9f bc f2 e5 06 bd 40 62 30 bd
       0.013480492 -0.019474588 -0.032934137 -0.04306245
000110 e0 b4 b3 bc fe 0f 17 bd cc 75 6b bd 08 f4 92 3c
       -0.021936834 -0.036880486 -0.057485387 0.017938629
000120 58 f4 75 bc 1e f8 77 3d 80 01 80 bb e8 73 c9 bc
       -0.015011869 0.060539357 -0.003906429 -0.024591401
000130 ac 3f a0 bc 02 81 72 bd d4 e2 c6 3c 60 be 57 3c
       -0.019561611 -0.059205063 0.024278082 0.0131679475
000140 4a 62 7a 3d 20 ca 5c 3b 46 63 1b bd 36 fa 44 bd
       0.061128892 0.0033689812 -0.03793647 -0.048090182
000150 80 35 f6 3c c0 93 be 3a ec ac 33 3d 94 f9 f8 3c
       0.030054808 0.0014539883 0.043866083 0.030392446
000160 d4 49 10 bd 4a cf 1c bd fc b8 9b bc 88 ac d3 bc
       -0.035226658 -0.038283624 -0.019009106 -0.025839105
000170 4c 14 82 3c b2 ae 1c bd 64 db 26 3d 44 ca 94 3c
       0.015878819 -0.03825254 0.04073657 0.018162854
000180 42 a1 6f 3d 86 ea 5f 3d cc d6 52 bd 00 5a 28 39
       0.058503397 0.05466702 -0.051474378 0.00016055256
000190 c0 3c 5e bc a0 4d 16 bc 88 f8 34 bd e0 a9 1a 3d
       -0.013564289 -0.009173781 -0.04418233 0.03775966
0001a0 c0 24 5e bd 44 f3 a4 bc cc 36 56 bd 50 5a 9f bb
       -0.054234266 -0.02013553 -0.052298352 -0.004863061
0001b0 50 94 5c 3d 02 e9 2b 3d 7c fa e9 3c 0c a7 c9 bc
       0.05385238 0.04197026 0.028561823 -0.024615787
0001c0 9c 23 b4 3c 8c 43 8a 3c 80 cd 14 bc 34 58 73 bd
       0.021989636 0.016877912 -0.009082198 -0.05941029
0001d0 5c c4 ec 3c a0 b7 a6 bc 96 1b 0d 3d 10 fe 9a bc
       0.028902225 -0.020351231 0.034450136 -0.018919975
0001e0 0e 24 06 bd 72 ad 76 bd 80 ba 00 3d da 7e 29 3d
       -0.03274923 -0.060224004 0.03142786 0.04138074
0001f0 50 2d e6 bc c0 3f 9c 3c 4a 5a 22 bd c0 bb c8 3b
       -0.028097779 0.019073367 -0.039636888 0.006125897
000200 62 cc 16 bd 38 d7 2a bd d6 4b 15 bd 00 0a 6f bb
       -0.03681601 -0.041709155 -0.036449276 -0.0036474466
000210 a0 f5 78 bc 90 2e 61 3d 80 95 0f 3b d2 a6 6f 3d
       -0.01519528 0.054976046 0.0021909177 0.0585087
000220 a0 5e 3f bd d8 e8 09 3d 32 e0 31 bd e0 a5 36 bd
       -0.0467211 0.033669323 -0.0434267 -0.044591784
000230 c8 a6 b9 3c 30 95 63 3c 00 1a a8 bc d8 59 5b bc
       0.022662535 0.01389055 -0.02052021 -0.01338812
000240 5a bf 2d 3d 94 9b 59 3d 30 16 22 bc 38 89 30 bd
       0.042418815 0.053126886 -0.009892985 -0.043099612
000250 e0 c9 5e 3d 7c 43 74 bd b2 55 18 bd 72 0a 14 bd
       0.05439174 -0.05963467 -0.0371911 -0.036142774
000260 76 7c 6c 3d 5c 37 2d bd 48 f8 2b 3d c2 ba 3c bd
       0.057735883 -0.042289123 0.041984826 -0.046076544
000270 16 62 58 3d 90 4c 4d bd b2 ad 14 bd f0 94 b8 bc
       0.052827917 -0.050121844 -0.03629846 -0.022531956
000280 7e 56 74 3d 00 f4 36 3a 26 f9 71 3d e8 67 cb 3c
       0.059652798 0.0006979108 0.059075497 0.02482982
000290 e0 0a 28 bb b2 66 46 bd 4a 02 0c 3d 9a a9 15 bd
       -0.0025641248 -0.04843778 0.03418187 -0.036538698
0002a0 00 70 c1 b7 50 94 b1 bc 9a 0b 24 bd 30 ba f6 3b
       -2.3059547e-05 -0.021677166 -0.040050127 0.0075295195
0002b0 90 e4 04 3c 88 59 55 3d 92 c5 74 3d 60 fa 89 3c
       0.008111134 0.052087337 0.05975873 0.01684302
0002c0 c4 1a 20 bd 4e b4 17 3d 30 0a 30 3d 48 c4 46 bc
       -0.039088026 0.037037186 0.042978466 -0.012131758
0002d0 7a ef 34 bd da 80 16 3d 80 ae 17 bc 90 26 fd 3b
       -0.044173695 0.036743976 -0.009257913 0.0077255443
0002e0 28 f5 dd bc 40 10 72 3c 90 cb bc bc 58 d1 ac 3c
       -0.027094439 0.014774382 -0.023046285 0.021095917
0002f0 cc 9f 98 bc 60 c5 26 3d 90 b7 34 bc 2c 8f f9 3c
       -0.018630885 0.040715575 -0.011030093 0.030463777
000300 8e 0d 09 bd 00 58 54 3d a6 21 4b bd ce 7e 50 3d
       -0.033460192 0.051841736 -0.049592637 0.05090218
000310 3c f7 cb 3c d4 db 56 bd 66 8a 2f bd 90 8b e4 3c
       0.024898164 -0.05245574 -0.042856596 0.02789858
000320 20 85 2f bd b6 e2 18 3d fa 35 51 3d 6c f1 95 3c
       -0.042851567 0.037325583 0.051076867 0.018303595
000330 3c 66 87 3c 74 a2 31 bd 8a 5b 2e bd 38 1b 56 3c
       0.016528241 -0.043367818 -0.042567767 0.013068013
000340 e8 73 a7 3c e8 15 06 3d 80 7b 16 3a a4 2f 8d bc
       0.02044101 0.032735735 0.0005740449 -0.01723463
000350 90 3d a5 bc 10 5b c8 3b ac ba 65 3d 36 e4 69 3d
       -0.020170957 0.006114371 0.056086227 0.057102405
000360 50 1d 94 3c 70 c8 cb bb c4 2e 5f bd a0 06 6d bd
       0.018080384 -0.0062189624 -0.05448796 -0.057867646
000370 f8 f8 6b bc 44 bd 74 3d e0 61 08 bc 80 81 2c bb
       -0.0144026205 0.05975081 -0.0083241165 -0.0026322305
000380 7e ee 6f bd 88 d7 1a 3d 5a be 08 bd 74 8f 4c bd
       -0.058577053 0.037803203 -0.03338466 -0.049941495
000390 64 d2 80 bc 9e bb 4e bd 7c 95 59 3d 3e 22 4c bd
       -0.015725322 -0.050471894 0.053121075 -0.049837343
0003a0 9c c5 d7 3c 90 c9 b1 bb 40 cf ab ba 28 26 f4 3c
       0.026339345 -0.0054256395 -0.001310803 0.02980335
0003b0 00 73 1e 3c 0c 9a 46 bd c8 6e 6a bd cc ea 1a 3d
       0.009670973 -0.048486754 -0.057234555 0.037821576
0003c0 ec 43 af 3c 48 64 79 bd 98 15 07 bc b0 99 e7 bb
       0.021394692 -0.06088665 -0.008244894 -0.0070678815
0003d0 80 73 2c bd c2 46 04 bd d8 a1 52 bd 06 74 6a bd
       -0.042102337 -0.032294042 -0.051423877 -0.057239555
0003e0 90 76 28 3c fc 83 cb 3c 10 b1 18 bc e4 b3 a1 3c
       0.010282174 0.024843208 -0.009319559 0.019739099
0003f0 30 26 c2 bb c0 80 5d bc a4 e6 f3 bc f4 a8 50 3d
       -0.0059249625 -0.013519466 -0.029773064 0.050942376
