src/NN_Model/a3c_torch/model/checkpoint_51_Interrupt.pth (torch, 923247 bytes, 17 tensors)

actor.0.weight f4 [32, 1, 3, 3]
0.03695826 0.034407496 -0.2534436 -0.2146647 0.010460814 -0.12324278 0.05131344 -0.033469677
0.23779254 -0.1266607 -0.29187953 -0.32780582 0.06351261 0.05904305 -0.26915073 -0.11589949
0.27037966 0.081536174 -0.25881964 0.20674913 0.27013525 0.07377319 0.13254738 0.17668259
-0.21914586 -0.24192083 0.17554983 0.08177277 -0.13498661 -0.12009867 0.02325511 -0.08722544
-0.24007735 0.20625941 -0.21749544 -0.007929882 0.060970664 0.122379504 -0.30545688 -0.1895452
0.033313356 -0.08234386 0.225806 -0.2138128 0.31829306 -0.0926671 0.07219176 -0.32035062
-0.1406636 -0.1236887 0.3212802 0.033512156 0.20700507 -0.20692182 0.1097635 -0.21901906
0.25179178 -0.15772554 -0.17261899 -0.19738337 -0.13686037 0.20314936 0.29968998 0.1459909
0.26342067 -0.096386634 0.10786959 -0.18570702 0.04338066 0.075006686 -0.22075391 0.10764556
-0.037180226 0.08732589 0.004265388 -0.23761153 0.14003941 -0.24098878 0.07432266 0.2610527
-0.010953665 0.13945663 -0.12276892 -0.2616843 -0.09494221 0.16362521 -0.099597774 -0.17601931
0.20290594 -0.054632865 -0.2388171 0.0151923895 -0.15996663 0.22064874 0.27252972 0.007509192
-0.016165733 0.1490554 0.13486016 0.1374495 0.025637627 -0.29335496 0.30017543 0.17438269
-0.32015246 0.07544764 0.07402766 0.19804081 0.1279335 -0.2723794 0.02309072 0.32947657
-0.31953698 -0.11757533 0.051205676 0.16951458 -0.17044422 0.15131101 0.25871402 0.09013021
0.17534332 0.08527728 0.20263422 0.13976865 -0.29592514 -0.0017918348 -0.24675032 -0.19750318
0.20575413 -0.2563116 -0.04059577 0.26995748 -0.09605595 0.07467799 -0.14164317 -0.057917595
-0.007873654 0.24701254 -0.07377549 -0.31412885 -0.22062802 -0.2682225 0.03588903 -0.21549225
0.112043664 -0.11018376 0.087930046 -0.1716573 0.016012073 -0.24250469 -0.12761895 0.050545573
-0.12320324 -0.22790289 -0.18899474 -0.09561145 -0.13576734 -0.32551813 -0.19216654 -0.052910447
-0.23458593 0.0049734116 0.09463549 -0.225951 0.047527157 -0.21546277 -0.028694432 -0.19554031
-0.20596623 0.072130285 0.17055938 -0.08174567 0.3014681 0.29471242 0.23950975 0.06190213
0.0036640964 0.30662355 0.068861686 0.09875572 -0.18943655 -0.17387685 0.013610165 -0.043987952
0.05695645 0.102824494 -0.11363892 0.25294077 -0.20640668 0.006640514 0.3150079 0.045027934
0.2356062 -0.026668828 0.1963639 0.19437253 -0.11670943 -0.088860795 -0.022943418 -0.27978235
-0.021259785 -0.098932706 -0.017017007 0.22409546 -0.1197358 -0.008883476 0.0992378 0.27609846
0.32164308 0.26109514 0.10695168 -0.31353113 0.27714646 -0.23228149 0.21634957 0.25206944
0.008309206 0.318677 -0.04662975 0.22587955 -0.09075336 -0.02190133 -0.08973138 0.0991348
0.1010555 -0.066214845 -0.16032927 -0.21836524 0.16199982 -0.16644502 0.29490516 -0.03920134
-0.09038039 0.02747186 -0.094117045 0.028105378 -0.3298483 0.04300813 0.27272803 0.023913145
-0.26732153 -0.067595765 -0.0001355807 -0.008254847 -0.20677412 0.28005236 0.083122455 0.26342916
0.24509808 0.019931754 0.3083682 0.17585206 0.3281463 0.20070569 -0.3205763 0.14882028
00000000: 8b61 173d e0ee 0c3d 5cc3 81be 10d1 5bbe
00000010: d663 2b3c b666 fcbd 0b2e 523d 8017 09bd
00000020: e37f 733e 58b3 01be 3c71 95be 2ad6 a7be
00000030: e612 823d 20d7 713d 20ce 89be b65c edbd
00000040: 346f 8a3e 70fc a63d 0284 84be 0bb6 533e
00000050: 2b4f 8a3e 6616 973d 80ba 073e 48ec 343e
00000060: c667 60be 18ba 77be 56c3 333e 7b78 a73d
00000070: ee39 0abe 4bf6 f5bd 8081 be3c 40a3 b2bd
00000080: d6d6 75be ab35 533e 20b7 5ebe 56ec 01bc
00000090: 60bc 793d 1ba2 fa3d d864 9cbe 2318 42be
000000a0: 9673 083d e6a3 a8bd b039 673e bef1 5abe
000000b0: 4ff7 a23e 40c8 bdbd 46d9 933d ff04 a4be
000000c0: 1e0a 10be 8050 fdbd d77e a43e 0b44 093d
000000d0: 23f9 533e 50e3 53be b0cb e03d 8846 60be
000000e0: daea 803e ce82 21be 08c3 30be de1e 4abe
000000f0: 2025 0cbe 6306 503e f770 993e a37e 153e
00000100: 13df 863e 5b66 c5bd bbea dc3d fb29 3ebe
00000110: ebaf 313d 1b9d 993d 500d 62be 4675 dc3d
00000120: 4b4a 18bd ebd7 b23d abc4 8b3b 7050 73be
00000130: 7e66 0f3e c3c5 76be 7b36 983d b3a8 853e
00000140: 0077 33bc b8cd 0e3e 466e fbbd 7cfb 85be
00000150: 1071 c2bd 5e8d 273e ebf9 cbbd 683e 34be
00000160: 93c6 4f3e b6c6 5fbd 788c 74be 80e9 783c
00000170: 4bce 23be bef1 613e 0489 8b3e ab0f f63b
00000180: 006e 84bc fba1 183e c818 0a3e 90bf 0c3e
00000190: 0006 d23c 9f32 96be 98b0 993e 6091 323e
000001a0: 06eb a3be 4b84 9a3d d09b 973d 36cb 4a3e
000001b0: 0001 033e 5075 8bbe c028 bd3c 27b1 a83e
000001c0: 5a9a a3be 56cb f0bd 0bbd 513d 3b95 2d3e
000001d0: ee88 2ebe 46f1 1a3e 2a76 843e 3096 b83d
000001e0: 338d 333e dba5 ae3d 587f 4f3e 831f 0f3e
000001f0: 8083 97be 00dc eaba 1eac 7cbe 463e 4abe
00000200: 36b1 523e 463b 83be c047 26bd de37 8a3e
00000210: fbb8 c4bd c6f0 983d e80a 11be 003b 6dbd
00000220: 8000 01bc dbf0 7c3e 9b17 97bd 7fd5 a0be
00000230: 50ec 61be 7654 89be 6000 133d 00aa 5cbe
00000240: 2677 e53d 06a8 e1bd ab14 b43d eec6 2fbe
00000250: c02b 833c 2653 78be 8bae 02be e008 4f3d
00000260: fb51 fcbd 605f 69be d687 41be f0cf c3bd
00000270: 9806 0bbe 50aa a6be 4ec7 44be a0b8 58bd
00000280: 4b37 70be 00f8 a23b 40d0 c13d b35f 67be
00000290: d6ab 423d 46a2 5cbe 9610 ebbc b83b 48be
000002a0: d0e8 52be 0bb9 933d 1ea7 2e3e 466a a7bd
000002b0: 075a 9a3e 8ce4 963e 0b42 753e 168d 7d3d
000002c0: 5621 703b c3fd 9c3e 5b07 8d3d 7040 ca3d
000002d0: a8fb 41be c60c 32be 2bfd 5e3c b62c 34bd
000002e0: 2b4b 693d a695 d23d 86bb e8bd 7481 813e
000002f0: 465c 53be ab98 d93b b748 a13e 366f 383d
00000300: c042 713e 9678 dabc 9e13 493e 9809 473e
00000310: 5b05 efbd a6fc b5bd d6f3 bbbc a23f 8fbe
00000320: 0029 aebc 3b9d cabd 4067 8bbc 4879 653e
00000330: 0b38 f5bd 008c 11bc 303d cb3d c75c 8d3e
00000340: 67ae a43e 43ae 853e 7b09 db3d 2787 a0be
00000350: 24e6 8d3e 33db 6dbe be8a 5d3e 3f0f 813e
00000360: 5623 083c a229 a33e d6fe 3ebd f84c 673e
00000370: e6dc b9bd 6b6a b3bc 16c5 b7bd 3007 cb3d
00000380: 30f6 ce3d a69b 87bd 5b2d 24be 239b 5fbe
00000390: 48e3 253e 9070 2abe cffd 963e 9691 20bd
000003a0: 5b19 b9bd ab0c e13c 70c0 c0bd 403d e63c
000003b0: e0e1 a8be 4b29 303d 02a3 8b3e 80e5 c33c
000003c0: 5ede 88be a66f 8abd ab2a 0eb9 563f 07bc
000003d0: 98bc 53be 0663 8f3e 1b3c aa3d 30e0 863e
000003e0: fefa 7a3e eb47 a33c 70e2 9d3e 9012 343e
000003f0: cb02 a83e cb85 4d3e 9422 a4be 5864 183e

actor.0.bias f4 [32]
0.00037566823 0.042960525 0.13508877 0.1785506 -0.14878163 0.11698811 -0.086992145 0.017404517
0.0777452 0.06631839 -0.27280045 -0.10704355 -0.1215845 -0.0019766092 -0.0049858494 0.06332342
0.023815315 0.15102327 -0.27871367 0.2475507 0.1875128 0.2520929 0.037585855 -0.1030978
-0.055860244 0.27071482 -0.17780599 -0.02388668 0.06455569 -0.09761588 -0.31278968 0.11931281
00000000: 56f5 c439 60f7 2f3d b654 0a3e f8d5 363e
00000010: 365a 18be 7697 ef3d f028 b2bd eb93 8e3c
00000020: e038 9f3d f0d1 873d 80ac 8bbe a639 dbbd
00000030: 4b01 f9bd 008a 01bb 5660 a3bb b6af 813d
00000040: 5618 c33c d8a5 1a3e 8fb3 8ebe ee7d 7d3e
00000050: 5b03 403e 5212 813e a0f3 193d f024 d3bd
00000060: b6cd 64bd 229b 8a3e c612 36be 00ae c3bc
00000070: c635 843d d6ea c7bd f825 a0be 465a f43d

actor.2.weight f4 [64, 32, 3, 3]
-0.055165492 0.00070806005 -0.012212548 0.042162273 0.05132953 0.045517627 -0.0034005833 0.005223006
0.040349193 0.0584106 -0.05611867 0.02909732 0.026966473 0.052421086 0.023262074 -0.058067482
0.034197405 0.052472975 0.05623165 0.0031831758 0.0012849661 -0.0013441333 -0.032513484 0.023267027
-0.029232942 -0.010637226 0.006531841 -0.02385882 0.038149487 -0.009502541 0.046123438 0.005672917
0.012822863 0.007818479 0.044224042 0.01965951 0.049210478 -0.03165671 0.043663874 -0.028201785
0.037189394 -0.008866699 0.007573353 -0.013030801 -0.017886821 0.029040499 0.002462542 0.031839192
-0.030302482 0.04188659 0.024029633 -0.034630336 -0.028067483 -0.014115878 -0.012896318 0.05774501
0.0060821413 -0.039668065 -0.029201008 -0.0522566 -0.05355948 0.0019804453 -0.013817114 0.024403138
-0.04696473 0.035719946 0.013520407 0.03292691 -0.0043462603 -0.009794653 -0.056922767 0.039558463
-0.0460795 -0.023036147 0.0068631014 0.004829776 0.055656705 0.05535484 -0.025353296 -0.031224998
0.019251661 0.010850959 -0.01479079 -0.017540844 0.042319067 0.010430158 0.006508246 -0.053016435
-0.0044492744 0.0013636402 -0.013103723 -0.046858326 -0.049521185 -0.03848277 -0.027112927 0.027377982
-0.019347329 0.025941856 -0.020505467 -0.05624666 0.056105744 -0.05590894 -0.035820037 -0.041264907
-0.021426082 0.021188892 -0.046096094 -0.045199312 0.018596139 -0.021327605 0.009372448 0.025701255
0.04727344 0.0384338 -0.0313346 -0.011627136 -0.022252258 0.026640644 0.03625418 -0.025257306
0.051106665 -0.041344065 0.0288149 0.05601246 0.052558083 -0.033299524 -0.022339543 -0.05357229
-0.026870359 -0.02262487 0.028124416 0.012565381 -0.029312136 -0.010105507 -0.047969304 -0.033611987
0.0049297833 -0.013143776 -0.044339776 -0.04974136 0.050466664 -0.03827239 -0.00036049605 0.001930431
0.03203107 0.011473201 -0.042168465 0.030929795 0.014851482 0.024573952 -0.0030874112 -0.04596565
-0.047295 -0.010749202 0.021854531 0.019054871 0.015135952 -0.046639465 -0.055758517 -0.016880853
0.030293666 -0.034232393 -0.00842866 -0.044430435 -0.017709846 0.051831633 -0.0114525985 0.055345837
-0.05145206 -0.010366066 -0.0495665 0.03559279 -0.005973494 -0.05470713 0.023249228 0.020553831
0.015941989 0.02347661 -0.0014454894 -0.03602079 0.023466915 -0.017532408 -0.03454299 -0.04880845
0.0037771373 -0.045557365 0.032641314 0.056432966 0.023018466 -0.03705206 0.014799156 0.050310217
0.056451708 -0.025592128 -0.04353614 0.013265685 0.04710697 -0.016757784 -0.010202326 -0.054753542
-0.05203168 -0.05404307 0.042885207 -0.018402368 -0.011274809 -0.04689482 0.020756844 0.008849068
-0.046348434 0.038680635 -0.05012794 -0.030282285 -0.0036298973 -0.0066783647 0.007648522 -0.024948103
0.054480866 -0.041822214 -0.031036785 -0.058797024 -0.018397177 0.04069753 0.03089541 -0.02685796
-0.010801472 0.015189815 0.030643668 -0.04844759 0.026612082 -0.05881342 0.04280341 0.02380841
0.0007921922 -0.00026936052 0.047184136 0.043355692 0.052869387 -0.0030742544 0.030662753 -0.044429388
-0.036271423 0.013595857 0.04855739 -0.028834233 -0.009568058 0.024170795 0.05145394 0.0055603283
-0.04043886 -0.049835276 -0.021234032 0.008277922 -0.032452483 0.043451075 0.05343397 -0.05119742
00000000: 36f5 61bd 1b9d 393a 2417 48bc 59b2 2c3d
00000010: ea3e 523d b170 3a3d 52dc 5ebb c025 ab3b
00000020: 3245 253d f43f 6f3d b1dc 65bd 815d ee3c
00000030: cbe8 dc3c 7eb7 563d 1b90 be3c 2bd8 6dbd
00000040: 9412 0c3d e7ed 563d 2953 663d d49c 503b
00000050: 4f6c a83a a12d b0ba dc2c 05bd 7e9a be3c
00000060: ec79 efbc c247 2ebc 0e09 d63b 9273 c3bc
00000070: a342 1c3d 8cb0 1bbc eeeb 3c3d e0e3 b93b
00000080: fc16 523c 1419 003c 4524 353d fb0c a13c
00000090: ed90 493d 77aa 01bd e4d8 323d 6e07 e7bc
000000a0: e853 183d a245 11bc e429 f83b 247f 55bc
000000b0: 6287 92bc 57e6 ed3c 9962 213b d069 023d
000000c0: e93c f8bc 4691 2b3d cbd9 c43c 8ad8 0dbd
000000d0: c7ed e5bc 4946 67bc 144b 53bc 0886 6c3d
000000e0: b34c c73b fb7a 22bd f436 efbc 040b 56bd
000000f0: 2f61 5bbd 5cca 013b 2d61 62bc 17e9 c73c
00000100: 175e 40bd 144f 123d b284 5d3c 5ede 063d
00000110: 136b 8ebb c179 20bc d927 69bd 0e08 223d
00000120: dcbd 3cbd 4db6 bcbc dee3 e03b 1943 9e3b
00000130: 49f8 633d c2bb 623d b7b1 cfbc 91cb ffbc
00000140: a9b5 9d3c 39c8 313c 1255 72bc d1b1 8fbc
00000150: c256 2d3d 41e3 2a3c 2043 d53b c327 59bd
00000160: 38cb 91bb 2cbc b23a ffb0 56bc 84ee 3fbd
00000170: bad6 4abd 1ca0 1dbd ee1b debc ca47 e03c
00000180: 4a7e 9ebc 0484 d43c 15fb a7bc e662 66bd
00000190: 23cf 653d c600 65bd 08b8 12bd 6405 29bd
000001a0: c085 afbc 5494 ad3c 42cf 3cbd ea22 39bd
000001b0: ee56 983c 3bb7 aebc e58e 193c 708b d23c
000001c0: cba1 413d c36c 1d3d b658 00bd be7f 3ebc
000001d0: 5e4a b6bc 7b3d da3c 437f 143d 69e8 cebc
000001e0: 3955 513d 6558 29bd 3a0d ec3c 526d 653d
000001f0: 2547 573d 1565 08bd 6b01 b7bc 9e6e 5bbd
00000200: 3a1f dcbc cb57 b9bc 2d65 e63c 07df 4d3c
00000210: 0120 f0bc 9291 25bc 767b 44bd b9ac 09bd
00000220: 058a a13b fe58 57bc a09d 35bd 99bd 4bbd
00000230: 22b6 4e3d 82c3 1cbd f600 bdb9 8406 fd3a
00000240: 0333 033d 18fa 3b3c d7b8 2cbd 7b60 fd3c
00000250: a153 733c 504f c93c 2a56 4abb 7a46 3cbd
00000260: 67b8 41bd 6c1d 30bc 4608 b33c f618 9c3c
00000270: c9fc 773c 0609 3fbd 0b63 64bd b749 8abc
00000280: 6c2a f83c 4437 0cbd 5d18 0abc b0fc 35bd
00000290: 3d14 91bc 684d 543d aea3 3bbc 51b2 623d
000002a0: 65bf 52bd 6fd6 29bc 3e06 4bbd bfc9 113d
000002b0: 4dbd c3bb 9514 60bd 2a75 be3c 8260 a83c
000002c0: c698 823c 0552 c03c 9376 bdba 898a 13bd
000002d0: b03d c03c 20a0 8fbc f37c 0dbd 5feb 47bd
000002e0: d989 773b 5c9a 3abd e6b2 053d 4126 673d
000002f0: 3991 bc3c e7c3 17bd 2978 723c 1612 4e3d
00000300: e839 673d 95a6 d1bc f452 32bd 5158 593c
00000310: 3df3 403d 9f47 89bc a827 27bc 4045 60bd
00000320: 2c1f 55bd 445c 5dbd 66a8 2f3d 90c0 96bc
00000330: fab9 38bc c814 40bd 420a aa3c aefb 103c
00000340: dbd7 3dbd 966f 1e3d f452 4dbd 8e12 f8bc
00000350: 92e3 6dbb 2fd6 dabb 74a0 fa3b f75f ccbc
00000360: 5427 5f3d c54d 2bbd db40 febc 26d5 70bd
00000370: adb5 96bc 74b2 263d 5f18 fd3c 3905 dcbc
00000380: a8f8 30bc b4de 783c 6e08 fb3c fb70 46bd
00000390: 9501 da3c 57e6 70bd a152 2f3d db09 c33c
000003a0: 1eab 4f3a f538 8db9 2744 413d bd95 313d
000003b0: 928d 583d 6e79 49bb 7430 fb3c 97fb 35bd
000003c0: 5891 14bd 28c1 5e3c 1de4 463d c535 ecbc
000003d0: 58c3 1cbc d501 c63c 5ec1 523d 6a33 b63b
000003e0: 38a3 25bd 1320 4cbd fef2 adbc 1fa0 073c
000003f0: e5ec 04bd c1f9 313d 94dd 5a3d 63b4 51bd

actor.2.bias f4 [64]
-0.022627013 0.036211167 0.028458746 0.0030206365 -0.03796613 -0.04185022 0.055321645 -0.012938303
0.03196356 -0.018445484 -0.0004143246 0.04153887 0.05176693 0.022797398 0.017761877 -0.029271858
0.010189338 -0.0032720005 -0.02581897 -0.05521651 -0.0060421303 0.05234964 -0.05149877 0.026237102
-0.04038374 -0.01698945 0.040972885 -0.053234197 -0.028445 -0.040153302 -0.0534055 0.024441639
-0.021644479 0.0045754337 0.03962735 0.046239953 0.015702989 0.048246495 -0.032055665 -0.045360904
0.046712097 0.024268808 -0.023402536 -0.029550154 -0.05258674 -0.010993219 0.0063792206 -0.042449456
-0.04003754 0.05859115 0.0152976345 0.036644164 0.01337401 0.05456492 -0.020779956 0.044229656
-0.006455696 0.043631393 0.018833706 0.032683596 -0.05338084 -0.0025412652 -0.005643716 -0.027669406
00000000: 495c b9bc 2952 143d 5122 e93c dff5 453b
00000010: 5f82 1bbd 236b 2bbd f398 623d 2dfb 53bc
00000020: 39ec 023d fc1a 97bc b539 d9b9 aa24 2a3d
00000030: 8f09 543d 9cc1 ba3c 5b81 913c 89cb efbc
00000040: 2ef1 263c 0f6f 56bb 4e82 d3bc b52a 62bd
00000050: 10fd c5bb 936c 563d 60f0 52bd 31ef d63c
00000060: 6c69 25bd 762d 8bbc 2fd3 273d 1a0c 5abd
00000070: 7d05 e9bc ca77 24bd babf 5abd d539 c83c
00000080: c34f b1bc 85ed 953b 4a50 223d 1b66 3d3d
00000090: 8ea3 803c 1e9e 453d cd4c 03bd 5bcc 39bd
000000a0: 2f55 3f3d 61cf c63c adb6 bfbc 2a13 f2bc
000000b0: 3265 57bd e71c 34bc c808 d13b 7bdf 2dbd
000000c0: 67fe 23bd 46fd 6f3d eea2 7a3c 3118 163d
000000d0: aa1e 5b3c 777f 5f3d ba3a aabc 282a 353d
000000e0: 4e8a d3bb d5b6 323d 2549 9a3c 3cdf 053d
000000f0: dea5 5abd 5b8b 26bb ecee b8bb f3aa e2bc

actor.4.weight f4 [128, 64, 3, 3]
-0.019445365 -0.023140024 0.016064828 0.021916982 -0.02939204 0.0324195 0.027433863 -0.004349848
0.01283448 0.031247174 0.017071273 0.008329079 -0.0069230646 -0.026031941 -0.012840793 -0.003791849
-0.00898775 -0.025482532 -0.012462249 -0.005102401 -0.0037246644 -0.019970274 0.023922335 0.025555894
-0.012586693 -0.039388016 -0.03493529 0.022909518 -0.025859233 -0.017538976 0.020850401 -0.014657056
0.040686883 -0.02455227 -0.019367144 0.018565949 -0.036191225 -0.01228644 0.025056913 0.01716438
-0.0066625676 0.032739963 0.04092002 0.023975393 -0.00082597637 0.014305512 0.006219755 0.02934527
0.010267824 -0.029924676 0.00082831085 -0.00872774 -0.029807433 -0.023502093 0.036469236 -0.005502686
0.02999432 -0.016954457 -0.039745897 -0.0031639289 -0.004527082 -0.01780216 0.0071581206 0.03609615
-0.02519158 0.014323245 0.038631648 -0.03315348 0.03837348 -0.0037697703 0.035452392 0.03218709
0.008953979 -0.03630577 0.030902898 0.0017513435 0.017474433 -0.04058167 -0.002728378 0.02895028
-0.024331337 0.037139814 -0.038879912 0.03724776 0.010083398 0.014521728 -0.038995054 0.014031157
0.019551888 0.017395115 0.0012125373 -0.001090318 -0.015196776 0.0016212811 -0.028917348 -0.02295128
0.038442135 0.006666268 -0.021498516 -0.014309253 -0.024448246 -0.032383766 -0.017225906 0.0040028594
0.014978394 0.038132794 0.03111296 0.008623715 0.029499069 0.0034069023 0.03423075 -0.040879324
-0.04027655 0.008050358 0.022775983 -0.041234292 0.003630817 -0.020738324 -0.019739132 -0.006638567
-0.0009799898 -0.03179165 0.022856912 0.027792957 -0.027330443 -0.009421691 0.020322537 0.026152462
0.0246326 -0.006215339 -0.022991475 0.003126522 0.013747713 -0.0075255535 0.0032829097 -0.020566752
-0.036584403 -0.03498861 0.023171892 0.014666891 -0.014417991 -0.018263072 0.025475135 -0.022386795
0.032009587 0.0045016757 -0.04041831 -0.03308238 -0.025213685 -0.04148119 0.0070542097 -0.035830304
0.039853655 -0.0318482 -0.010017544 0.02405408 0.0046228124 0.02604122 0.037518393 0.017387595
0.013105999 0.027313864 0.039057158 0.028621122 -0.0010614395 0.0064308196 0.021900143 -0.0028993539
-0.025092935 0.012173995 0.008260926 -0.010792166 0.010455852 0.040611863 -0.029671073 0.032331273
0.035284873 0.0011923164 -0.025484513 0.0023575574 0.041588135 -0.007719636 -0.028600445 0.04103461
0.033403795 -0.012490208 0.01376473 -0.03651075 -0.016198998 -0.004706512 -0.006923815 0.015473053
-0.02047047 -0.02390435 -0.0027630976 0.022044942 -0.008563524 -0.010728752 0.0014052491 0.0023244421
0.028406572 0.020015255 0.019296333 0.019346755 -0.030180465 0.0274252 -0.03345885 -0.018904105
0.0011745989 0.00981538 0.022029063 -0.017997514 0.014613852 -0.0039703897 -0.031206664 0.037468024
0.016432907 0.017839065 -0.004905497 -0.014724175 0.037986673 0.01899704 0.026153406 0.031487387
-0.027829792 -0.005467996 -0.008990432 -0.021979213 -0.013493067 -0.020126775 0.040115453 0.018647354
0.034199487 0.01563405 0.021763613 0.024548318 -0.02823114 -0.024023827 0.013105145 -0.038260102
-0.015923768 -0.025336301 0.027406564 -0.007453412 -0.027047858 0.024409425 0.020587951 0.029331004
-0.035866346 0.035406828 -0.006579166 0.041356158 0.017079782 0.0023936033 -0.024200415 -0.00768888
00000000: e34b 9fbc 2690 bdbc 639a 833c 3e8b b33c
00000010: 93c7 f0bc 4fca 043d fbbc e03c 2b89 8ebb
00000020: b647 523c 13fa ff3c 0ed9 8b3c b076 083c
00000030: e0da e2bb f040 d5bc 3062 52bc ab80 78bb
00000040: 5b41 13bc bec0 d0bc 762e 4cbc 0b32 a7bb
00000050: 8019 74bb b398 a3bc c6f8 c33c 985a d13c
00000060: 6b38 4ebc 5455 21bd 4f18 0fbd beac bb3c
00000070: bed6 d3bc e6ad 8fbc 76ce aa3c 2624 70bc
00000080: 4aa7 263d d821 c9bc d8a7 9ebc 9e17 983c
00000090: 403d 14bd 104d 49bc 2844 cd3c 509c 8c3c
000000a0: ab51 dabb 571a 063d c09b 273d 0b68 c43c
000000b0: 5686 58ba ab61 6a3c 16cf cb3b 7e65 f03c
000000c0: 603a 283c 9824 f5bc 0023 593a cbfe 0ebc
000000d0: b82e f4bc 7687 c0bc c460 153d e04f b4bb
000000e0: a6b6 f53c 13e4 8abc 98cc 22bd eb59 4fbb
000000f0: eb57 94bb d6d5 91bc ab8e ea3b 8ed9 133d
00000100: 935e cebc 0bac 6a3c 383c 1e3d f2cb 07bd
00000110: 832d 1d3d 400e 77bb 8736 113d 9cd6 033d
00000120: b6b3 123c 5cb5 14bd 1328 fd3c 568d e53a
00000130: 8b26 8f3c f738 26bd 96ce 32bb 2329 ed3c
00000140: 8352 c7bc eb1f 183d 8b40 1fbd 1b91 183d
00000150: d634 253c 8bec 6d3c 47b9 1fbd f0e2 653c
00000160: 482b a03c 3380 8e3c 00ee 9e3a 00e9 8eba
00000170: e6fb 78bc 2b81 d43a 13e4 ecbc 5304 bcbc
00000180: 8075 1d3d b670 da3b a81d b0bc 5b71 6abc
00000190: b047 c8bc d7a4 04bd 581d 8dbc 6b2a 833b
000001a0: f067 753c 2231 1c3d 9be0 fe3c 7b4a 0d3c
000001b0: 08a8 f13c 5646 5f3b 8b35 0c3d 1471 27bd
000001c0: 06f9 24bd a6e5 033c b394 ba3c 4ae5 28bd
000001d0: 00f3 6d3b 6be3 a9bc f6b3 a1bc 5688 d9bb
000001e0: 0073 80ba f637 02bd 6b3e bb3c 0eae e33c
000001f0: 18e4 dfbc 705d 1abc 737b a63c b03d d63c
00000200: 4eca c93c 0baa cbbb 9e58 bcbc 56e6 4c3b
00000210: 163e 613c eb98 f6bb 1626 573b 9b7b a8bc
00000220: 87d9 15bd 3750 0fbd fbd2 bd3c 664d 703c
00000230: 7039 6cbc 709c 95bc 3bb1 d03c 8364 b7bc
00000240: 7c1c 033d cb82 933b ab8d 25bd 6481 07bd
00000250: ee8c cebc 2ee8 29bd 0027 e73b ccc2 12bd
00000260: 963d 233d 4273 02bd a020 24bc 100d c53c
00000270: f67a 973b 6654 d53c e3ac 193d 6e70 8e3c
00000280: 8bba 563c 53c1 df3c 66fa 1f3d d876 ea3c
00000290: 0020 8bba a0b9 d23b ee67 b33c 1603 3ebb
000002a0: b38f cdbc 7075 473c d658 073c a0d1 30bc
000002b0: 064f 2b3c a058 263d c010 f3bc cc6d 043d
000002c0: df86 103d 8047 9c3a e6c4 d0bc 4081 1a3b
000002d0: 5258 2a3d 00f5 fcbb 7b4b eabc e813 283d
000002e0: 6bd2 083d bba3 4cbc 7685 613c 4c8c 15bd
000002f0: c3b3 84bc 1639 9abb 2be1 e2bb b082 7d3c
00000300: b0b1 a7bc 0ed3 c3bc 1615 35bb 9897 b43c
00000310: 064e 0cbc a6c7 2fbc 5630 b83a ab55 183b
00000320: e6b4 e83c 08f7 a33c 5813 9e3c 167d 9e3c
00000330: 063d f7bc d0aa e03c 260c 09bd c8dc 9abc
00000340: 00f5 993a b0d0 203c 4b76 b43c 866f 93bc
00000350: f06e 6f3c 0b1a 82bb 1ea5 ffbc 1278 193d
00000360: 4e9e 863c 3b23 923c 4bbe a0bb ab3d 71bc
00000370: ea97 1b3d ae9f 9b3c ab3f d63c ebf8 003d
00000380: 4efb e3bc e02c b3bb 9b4c 13bc c00d b4bc
00000390: 0612 5dbc e8e0 a4bc 1a50 243d 56c2 983c
000003a0: c314 0c3d fb12 803c 9b49 b23c 8e19 c93c
000003b0: fe44 e7bc 9ecd c4bc f6b6 563c a0b6 1cbd
000003c0: 9072 82bc 138e cfbc bb83 e03c c03b f4bb
000003d0: 7893 ddbc 46f6 c73c 10a8 a83c 9347 f03c
000003e0: 97e8 12bd c006 113d 0b96 d7bb 1365 293d
000003f0: e6ea 8b3c 00de 1c3b f33f c6bc 00f3 fbbb

actor.4.bias f4 [128]
0.031688735 -0.03492602 -0.008772249 0.010030648 -0.036167257 -0.040190376 0.035319507 0.03185164
-0.015197019 -0.020602128 -0.008028677 0.03628973 0.02411599 -0.0358093 0.024531286 0.028029164
0.015071318 0.0040688813 0.021415483 -0.037308514 -0.040995814 -0.018420756 -0.02626273 -0.021796823
-0.0012580057 -0.024302265 -0.038538553 -0.0068793595 0.035425946 -0.02557165 -0.009599373 -0.0060983202
0.027998805 -0.012709275 0.01675041 0.033439785 -0.026417296 -0.012622411 0.025697326 -0.027822759
-0.033177923 0.005133122 0.02985244 -0.015467754 0.015092622 -0.02400605 0.027134623 -0.006556501
-0.0039880723 -0.026902353 -0.03259678 0.010468369 -0.018647164 -0.014007474 0.022980269 0.0014484625
0.02899396 -0.007580623 -0.004049967 -0.016912103 0.03201587 -0.002939602 0.040280472 -0.022642022
-0.02223508 -0.0023540705 -0.02387928 0.032180473 -0.04140152 -0.022403687 0.025760263 0.027952433
-0.02471542 0.016010633 0.02679491 -0.020824742 -0.019069707 -0.0064306557 -0.0069185896 -0.041051023
0.011896839 0.03451691 -0.028259307 -0.013301134 -0.003951962 0.020387705 0.026612148 0.03227886
-0.024167031 -0.0060718013 0.035625644 -0.009331465 0.022856724 -0.038081355 0.036826752 0.028829888
0.033912085 0.039802216 -0.0053153983 -0.01219219 -0.03628961 -0.020064872 0.010248363 -0.029049035
0.03257761 -0.0020278245 -0.03424065 -0.0032444447 0.0070100874 -0.016321063 0.016078657 -0.02355746
-0.018940803 0.03208145 0.007633751 -0.018310046 -0.027988713 -0.028649693 0.031304486 0.039759737
0.035772316 0.039776854 0.006369333 -0.023965176 0.009506375 0.009964472 0.020341238 -0.03836096
00000000: 0ccc 013d 960e 0fbd 7bb9 0fbc 9657 243c
00000010: 1e24 14bd aa9e 24bd 30ab 103d de76 023d
00000020: ebfc 78bc cbc5 a8bc b68a 03bc 8aa4 143d
00000030: e68e c53c c6ac 12bd d6f5 c83c 6b9d e53c
00000040: b0ed 763c 4054 853b 866f af3c d0d0 18bd
00000050: 3aeb 27bd 20e7 96bc f024 d7bc 408f b2bc
00000060: abe3 a4ba 8b15 c7bc 9ada 1dbd 406c e1bb
00000070: cc1a 113d a37b d1bc b046 1dbc 6bd4 c7bb
00000080: c05d e53c 903a 50bc 2838 893c 28f8 083d
00000090: 1669 d8bc 3bce 4ebc 3383 d23c 8eec e3bc
000000a0: 93e5 07bd c033 a83b 1b8d f43c 766c 7dbc
000000b0: 0b47 773c 56a8 c4bc 6e49 de3c ebd7 d6bb
000000c0: 60ae 82bb 5362 dcbc 3484 05bd 8683 2b3c
000000d0: f0c1 98bc 9b7f 65bc 1e41 bc3c 56da bd3a
000000e0: be84 ed3c e066 f8bb 96b5 84bb 408b 8abc
000000f0: 1323 033d 56a6 40bb 23fd 243d c37b b9bc
00000100: 5826 b6bc c046 1abb 7b9e c3bc accf 033d
00000110: a494 29bd f087 b7bc 3007 d33c 80fc e43c
00000120: fe77 cabc bb28 833c 0081 db3c a698 aabc
00000130: 1338 9cbc 40b8 d2bb 56b5 e2bb 1e25 28bd
00000140: f6ea 423c 9a61 0d3d 1080 e7bc 00ed 59bc
00000150: 767f 81bb 1e04 a73c b801 da3c d736 043d
00000160: f0f9 c5bc f6f5 c6bb 32ec 113d 00e3 18bc
00000170: 063e bb3c 32fb 1bbd a6d7 163d a82c ec3c
00000180: 66e7 0a3d a607 233d cb2c aebb c0c1 47bc
00000190: 6aa4 14bd 165f a4bc c0e8 273c 3ef8 edbc
000001a0: 1a70 053d 40e5 04bb ec3f 0cbd c0a0 54bb
000001b0: e0b4 e53b c0b3 85bc 63b7 833c 93fb c0bc
000001c0: be29 9bbc d767 033d 8b24 fa3b f3fe 95bc
000001d0: 9648 e5bc c3b2 eabc 2239 003d 1bdb 223d
000001e0: fe85 123d 0eed 223d d6b5 d03b 9e52 c4bc
000001f0: a0c0 1b3c 0642 233c aba2 a63c 6220 1dbd

shit.0.weight f4 [256, 128]
-0.06996381 -0.016317805 -0.07514593 0.02864852 0.05534937 0.017459953 -0.06664809 -0.027891826
0.08111861 -0.046053957 -0.043843236 -0.019057984 0.0017907564 -0.0468156 0.061704375 0.030321455
0.002812396 0.023451528 0.06577761 0.084946685 -0.06880072 -0.08602946 0.05088632 0.056178767
-0.06887966 0.05054013 -0.06693608 0.053882997 0.06388177 0.047191404 0.0581071 0.056435358
0.048445232 -0.046046052 -0.060181715 0.01804903 -0.08690661 0.052663065 -0.023625996 -0.06308155
0.087463476 0.0815557 0.024938015 -0.054116372 -0.050691456 0.004814013 -0.040551957 -0.04250932
0.07025676 -0.037941583 -0.031240761 0.07519975 -0.007901712 0.051284473 -0.060777556 0.0027056064
-0.020579621 0.05747514 -0.024612432 0.019806258 -0.07886715 0.08402158 0.01370351 -0.0031212163
0.06887032 0.07573327 0.005486118 0.0231414 0.057989765 0.032083645 0.07305575 -0.062888294
0.07999888 0.02862989 -0.006439006 0.07035803 0.08132076 -0.07615637 -0.035889126 0.0073200436
0.074853994 0.004817132 0.0047558504 0.07597374 -0.064902246 0.009668371 0.052162625 -0.06505536
0.059001215 0.07515193 0.0648856 -0.05951902 -0.038556516 0.08308005 -0.0042924667 0.03185151
0.0046981303 -0.08612702 0.031910855 0.0818338 0.03978398 -0.028848685 0.06942937 -0.041508377
0.07196528 -0.02274678 -0.0539838 -0.06989221 0.028048538 -0.0024262255 -0.051062696 0.0301335
0.051263284 0.06137069 -0.049983315 0.08305786 0.0662633 -0.08578435 0.08340675 -0.06455885
-0.002542772 -0.07491301 -0.03704789 -0.048563525 -0.078377984 -0.055676177 -0.038242742 0.0026015036
0.034116935 0.045972347 -0.04559275 -0.08547095 -0.052157115 0.043338202 -0.01240249 -0.088175245
0.08486058 0.07250977 0.0029388892 0.007129845 0.052734 -0.06706265 -0.045850903 -0.084930986
-0.058098733 0.04535453 -0.009816907 -0.011391081 -0.06608956 0.02462222 0.06957996 0.03151067
0.019361725 0.08336182 -0.027881425 -0.081755064 0.07163571 0.027282465 -0.02142671 -0.042737745
-0.015476175 -0.024452042 -0.03482795 -0.083700545 -0.07187658 -0.010837914 -0.061826285 -0.0027867602
0.043967403 0.054023575 0.060272593 -0.03225988 0.08509542 -0.019750467 0.046131622 0.081729084
0.017392898 0.042110916 -0.07379769 0.006698451 0.080941476 -0.05161443 -0.07263063 -0.08573719
0.06188053 0.081584 -0.065198004 0.038484402 -0.06577855 -0.018644122 0.05334242 -0.043560643
0.004772751 0.04990996 -0.038043767 -0.08430526 -0.045146227 0.043303948 -0.06741932 -0.038555168
0.061875336 -0.05505826 -0.013779153 0.042027414 0.0123356655 -0.027698193 -0.056725707 0.06862917
-0.066120446 -0.086318284 -0.06244872 0.037798367 -0.034825604 0.034851134 0.06648883 -0.018213982
0.08636253 0.043073826 -0.07822627 -0.040628117 0.074159004 0.037158843 -0.015410015 0.0672499
0.044790458 -0.013978013 0.010627244 0.04044361 -0.04411613 -0.0020850152 -0.07604727 0.0027022557
0.007118097 0.0032237808 -0.06375167 0.017923452 0.018060915 0.077015154 -0.042811546 0.002210265
0.018360136 0.057905417 0.024114214 0.01533002 0.025278162 0.055744685 -0.071915545 0.018497588
-0.0817351 0.079612195 -0.02773429 -0.04687585 0.057857223 0.029764105 -0.047188368 -0.033213254
00000000: 3049 8fbd ebac 85bc 1ce6 99bd 4db0 ea3c
00000010: 05b6 623d 2d08 8f3c cb7e 88bd 667d e4bc
00000020: 8421 a63d 13a3 3cbd f794 33bd 7d1f 9cbc
00000030: d0b7 ea3a b7c1 3fbd babd 7c3d b364 f83c
00000040: 2d50 383b 6b1d c03c 69b6 863d 87f8 ad3d
00000050: 64e7 8cbd 3730 b0bd 2d6e 503d b51b 663d
00000060: c710 8dbd 2b03 4f3d c915 89bd 6bb4 5c3d
00000070: 72d4 823d c64b 413d b601 6e3d c328 673d
00000080: 826e 463d c99a 3cbd 1a81 76bd 8fdb 933c
00000090: 18fc b1bd 3ab5 573d 4e8b c1bc e630 81bd
000000a0: 0d20 b33d ad06 a73d cf4a cc3c 21a9 5dbd
000000b0: d8a1 4fbd debe 9d3b cf19 26bd 411e 2ebd
000000c0: c7e2 8f3d a268 1bbd a0ec ffbc 5402 9a3d
000000d0: 2f76 01bc ab0f 523d e3f1 78bd 8b50 313b
000000e0: 9896 a8bc 0d6b 6b3d 03a0 c9bc bc40 a23c
000000f0: 1a85 a1bd 8213 ac3d b084 603c 528d 4cbb
00000100: e20b 8d3d 0b1a 9b3d e5c4 b33b 0993 bd3c
00000110: ad86 6d3d 246a 033d 419e 953d 94cb 80bd
00000120: 74d6 a33d 3b89 ea3c 4cfe d2bb df17 903d
00000130: 808b a63d dff7 9bbd 7a00 13bd fadc ef3b
00000140: 0d4d 993d 08d9 9d3b f7d6 9b3b 1f98 9b3d
00000150: 78eb 84bd 1668 1e3c 7aa8 553d bf3b 85bd
00000160: 42ab 713d 41e9 993d bee2 843d 37ca 73bd
00000170: 70ed 1dbd e025 aa3d d2a7 8cbb bb76 023d
00000180: c6f2 993b 5d63 b0bd f5b4 023d 7b98 a73d
00000190: 87f4 223d 1454 ecbc fc30 8e3d b004 2abd
000001a0: 8862 933d 7557 babc 1e1e 5dbd a623 8fbd
000001b0: 0cc6 e53c 4f01 1fbb 1e27 51bd 88da f63c
000001c0: 73f9 513d d55f 7b3d 4ebb 4cbd 3d1a aa3d
000001d0: 0eb5 873d b5af afbd 28d1 aa3d 6e37 84bd
000001e0: a3a4 26bb fe6b 99bd 87bf 17bd 8cea 46bd
000001f0: a384 a0bd b40c 64bd 6ca4 1cbd fd7d 2a3b
00000200: 33be 0b3d 804d 3c3d 77bf 3abd 650b afbd
00000210: b3a2 55bd 6683 313d d033 4bbc 3995 b4bd
00000220: 62cb ad3d 0180 943d 619a 403b 7aa1 e93b
00000230: 9bff 573d 2558 89bd 28ce 3bbd 4cf0 adbd
00000240: f0f8 6dbd acc5 393d 18d7 20bc a8a1 3abc
00000250: f759 87bd 8ab4 c93c f07f 8e3d 5511 013d
00000260: 7b9c 9e3c 9ab9 aa3d 9667 e4bc 336f a7bd
00000270: beb5 923d 7a7f df3c 1187 afbc c60d 2fbd
00000280: c88f 7dbc a64f c8bc c1a7 0ebd 316b abbd
00000290: 0734 93bd 8291 31bc 8f3d 7dbd 14a2 36bb
000002a0: 2a17 343d d347 5d3d 65e0 763d f022 04bd
000002b0: 8246 ae3d bbcb a1bc 83f4 3c3d 9461 a73d
000002c0: 8d7b 8e3c 7f7c 2c3d 3e23 97bd ae7e db3b
000002d0: a5c4 a53d a769 53bd 5ebf 94bd fb96 afbd
000002e0: 7076 7d3d 8315 a73d 8886 85bd d2a1 1d3d
000002f0: e8b6 86bd 8fbb 98bc 957d 5a3d a56c 32bd
00000300: bd64 9c3b 636e 4c3d c8d3 1bbd 3ca8 acbd
00000310: 40eb 38bd 7b5f 313d 2413 8abd 06ec 1dbd
00000320: fe70 7d3d c584 61bd f5c1 61bc f024 2c3d
00000330: 881b 4a3c 52e7 e2bc 3759 68bd 738d 8c3d
00000340: 286a 87bd a4c7 b0bd 3bca 7fbd 76d2 1a3d
00000350: 4ba5 0ebd 10c0 0e3d 4c2b 883d 7d35 95bc
00000360: d7de b03d 2e6e 303d 1835 a0bd ab69 26bd
00000370: ade0 973d df33 183d 4a7a 7cbc 51ba 893d
00000380: 3376 373d 0904 65bc e41d 2e3c 33a8 253d
00000390: 1db3 34bd c0a4 08bb acbe 9bbd 5418 313b
000003a0: ed3e e93b 1146 533b 3c90 82bd 34d4 923c
000003b0: 7cf4 933c 1fba 9d3d 295b 2fbd 18da 103b
000003c0: ff67 963c 3b2e 6d3d 2c8b c53c c42a 7b3c
000003d0: 2614 cf3c 8a54 643d 7548 93bd 4188 973c
000003e0: bb64 a7bd b80b a33d 0633 e3bc e400 40bd
000003f0: b2fb 6c3d dad3 f33c 9748 41bd 9f0a 08bd

shit.0.bias f4 [256]
-0.03745522 0.06627396 -0.07693665 0.0005931642 0.014746876 0.05405033 0.03973251 0.0071236603
-0.034019712 -0.014793049 -0.027945869 0.06965024 -0.021276519 0.052326124 -0.0020000576 0.03129002
-0.010678378 0.05131482 -0.056646522 0.03384751 0.061980333 -0.021238165 0.06862552 0.017911252
0.0822848 -0.021202562 0.06035637 -0.022818925 0.08167351 -0.073890634 -0.0033053665 -0.04393848
-0.027400056 0.0037862516 -0.06598612 0.049407866 -0.086268514 0.026395433 0.052013543 0.07104986
-0.07078233 0.025777012 -0.060879078 0.075703315 -0.07291909 0.08038655 -0.05668121 -0.088340096
-0.07951401 0.058998086 0.014792585 -0.06914253 0.032755952 0.012331662 -0.06988512 -0.012593162
-0.0646255 0.018317716 -0.0846751 -0.039940935 0.036379654 0.03840638 -0.044774305 -0.07689913
-0.083648175 0.050752938 0.042491652 0.06244806 -0.05909377 0.05332685 -0.018743187 -0.0073824525
-0.053923223 0.022628643 0.08532125 0.086360015 0.045377742 -0.015283459 0.023382101 0.057773117
0.08431775 0.07682249 -0.047667168 0.052117623 -0.06858176 0.063501485 0.03402749 -0.083128944
-0.025939953 0.023182673 -0.0136210285 -0.0374975 0.0003183246 0.03829647 -0.08508236 0.035857726
-0.04774061 -0.027598536 0.07479624 -0.054355558 0.008531039 0.0709527 -0.027990913 -0.059433766
0.04271858 0.012640346 0.018516343 0.032991953 0.0860658 0.08543833 0.06513184 0.0016150145
-0.060890984 -0.032617044 0.05245802 -0.08078321 0.011660884 -0.0715685 -0.04612534 -0.013006548
0.08123275 -0.034666657 -0.056374718 -0.01705996 -0.013909914 0.06654703 0.04500411 -0.08731522
-0.022770371 -0.023262342 -0.02581918 -0.08282149 0.070477895 0.032516684 -0.053344242 -0.03580416
-0.070906095 -0.065489806 -0.05905138 0.018675216 0.038498964 0.015577074 -0.013417744 0.07635877
0.019334361 -0.010156526 0.010886573 0.031076642 -0.035404585 -0.05497032 0.020762801 -0.041934945
0.0745989 0.0049927263 -0.010226238 -0.04136674 -0.037708238 0.034940094 0.08586252 -0.024132283
-0.08251293 -0.08503912 0.08249367 -0.005402341 -0.015187596 -0.086192094 0.07162824 -0.040265255
0.014847966 -0.027911045 -0.06077527 0.08551181 0.0052206987 0.018960582 0.08103235 0.05939459
0.07092707 0.008917483 0.037794005 -0.06434386 -0.039503966 0.046151884 0.03367412 0.08250672
0.05145246 0.054525092 0.014521443 0.059377037 0.07083558 -0.029261881 -0.049772635 0.078245625
-0.06350894 -0.037082568 0.06650717 -0.06339363 -0.0039809807 0.07130699 0.04314302 -0.05743043
-0.08714972 0.029612934 0.009213195 0.036654755 -0.08286062 -0.029107941 0.05178711 -0.028245501
0.015162054 0.009475802 -0.08165684 -0.05321949 0.065457016 0.019709246 0.0009151872 -0.061053324
0.060742952 -0.07543325 -0.012041882 0.012507035 -0.08362496 0.08590483 -0.04937932 -0.04219006
0.07081691 -0.07139798 -0.042296153 -0.05624912 -0.0043864646 0.0036807791 -0.0079442905 0.03339045
0.07981887 -0.061597142 0.03733413 -0.028797539 -0.06077917 -0.021666778 0.060165256 0.06969497
-0.04386255 0.023334771 -0.06792279 -0.058671415 0.052417625 0.04043185 0.07862 -0.07415552
0.06241416 -0.033010256 0.06312024 0.04464545 -0.033676036 0.0019099476 0.005318574 0.06580939
00000000: a56a 19bd a4ba 873d f690 9dbd 937e 1b3a
00000010: e29c 713c e163 5d3d 8ebe 223d 986d e93b
00000020: 4158 0bbd 8b5e 72bc bcee e4bc c9a4 8e3d
00000030: 184c aebc eb53 563d 6613 03bb f729 003d
00000040: 5df4 2ebc 7d2f 523d 2f06 68bd b0a3 0a3d
00000050: 17df 7d3d a9fb adbc 898b 8c3d 9eba 923c
00000060: ef84 a83d ffb0 adbc 3e38 773d c1ee babc
00000070: 7144 a73d f953 97bd d99e 58bb d6f8 33bd
00000080: 1576 e0bc c322 783b bb23 87bd e75f 4a3d
00000090: 8cad b0bd 3c3b d83c 270c 553d 9782 913d
000000a0: 54f6 90bd 502a d33c 575c 79bd 570a 9b3d
000000b0: 9b56 95bd b4a1 a43d 8e2a 68bd a7eb b4bd
000000c0: 3ed8 a2bd faa7 713d 995c 723c 999a 8dbd
000000d0: 1b2b 063d bd0a 4a3c ee1f 8fbd 8d53 4ebc
000000e0: 605a 84bd 090f 963c 246a adbd 1b99 23bd
000000f0: d502 153d 0250 1d3d 4365 37bd 4b7d 9dbd
00000100: bc4f abbd 50e2 4f3d ba0b 2e3d 89c9 7f3d
00000110: 4f0c 72bd 416d 5a3d 508b 99bc 80e8 f1bb
00000120: 99de 5cbd b45f b93c e8bc ae3d 85dd b03d
00000130: 03de 393d 7967 7abc d28b bf3c 81a3 6c3d
00000140: c9ae ac3d 1c55 9d3d a63e 43bd 4a79 553d
00000150: 9874 8cbd 110d 823d 6960 0b3d 823f aabd
00000160: 0680 d4bc 97e9 bd3c bc2a 5fbc fb96 19bd
00000170: cee4 a639 c2dc 1c3d a93f aebd 8ddf 123d
00000180: a88b 43bd 5316 e2bc c52e 993d efa3 5ebd
00000190: c5c5 0b3c a64f 913d 334d e5bc d270 73bd
000001a0: aef9 2e3d 7419 4f3c 96af 973c 9222 073d
000001b0: 4443 b03d 4bfa ae3d d863 853d e5ae d33a
000001c0: d368 79bd 7399 05bd 39de 563d ab71 a5bd
000001d0: 4b0d 3f3c 8192 92bd eded 3cbd 6b19 55bc
000001e0: 5b5d a63d a0fe 0dbd 2de9 66bd 54c1 8bbc
000001f0: 68e6 63bc cf49 883d 3b56 383d 52d2 b2bd
00000200: ee88 babc ab90 bebc bf82 d3bc 509e a9bd
00000210: b756 903d 3730 053d 7e7f 5abd 62a7 12bd
00000220: 3737 91bd 851f 86bd dcdf 71bd c4fc 983c
00000230: 17b1 1d3d fc36 7f3c 19d6 5bbc fd61 9c3d
00000240: 1863 9e3c 8f67 26bc 995d 323c 7194 fe3c
00000250: 6604 11bd 8f28 61bd c016 aa3c fac3 2bbd
00000260: 4fc7 983d 069a a33b f38b 27bc 2c70 29bd
00000270: f473 1abd 581d 0f3d b0d8 af3d 11b1 c5bc
00000280: 8afc a8bd fd28 aebd 71f2 a83d 1f06 b1bb
00000290: 65d5 78bc 7b85 b0bd d4b1 923d 2eed 24bd
000002a0: e244 733c b4a5 e4bc 7def 78bd d120 af3d
000002b0: 6512 ab3b 3953 9b3c 4af4 a53d be47 733d
000002c0: 3642 913d a21a 123c e3cd 1a3d b7c6 83bd
000002d0: e9ce 21bd c209 3d3d e0ed 093d 49f9 a83d
000002e0: d1bf 523d b455 5f3d 59eb 6d3c 5635 733d
000002f0: 3f12 913d 9db6 efbc 64de 4bbd 3e3f a03d
00000300: fa10 82bd e4e3 17bd e934 883d 85d4 81bd
00000310: e372 82bb 6609 923d bcb6 303d 2c3c 6bbd
00000320: 8d7b b2bd d396 f23c f1f2 163c 4c23 163d
00000330: d4b2 a9bd c773 eebc b81e 543d 1c63 e7bc
00000340: 446a 783c 6540 1b3c b43b a7bd aefc 59bd
00000350: 540e 863d 4975 a13c 2ce9 6f3a 0d13 7abd
00000360: 9acd 783d bf7c 9abd 504b 45bc 4fea 4c3c
00000370: 9043 abbd dfee af3d f841 4abd 7ccf 2cbd
00000380: 7508 913d 1b39 92bd bb3e 2dbd 7a65 66bd
00000390: 55bc 8fbb 3a39 713b c528 02bc 6dc4 083d
000003a0: 1378 a33d 494d 7cbd aceb 183d d1e8 ebbc
000003b0: 94f3 78bd 877e b1bc d86f 763d 3dbc 8e3d
000003c0: 38a9 33bd 9028 bf3c 1b1b 8bbd 7051 70bd
000003d0: ddb3 563d de9b 253d 8603 a13d d9de 97bd
000003e0: fea5 7f3d c335 07bd 2f45 813d 26de 363d
000003f0: e2ef 09bd 3557 fa3a 6f47 ae3b 13c7 863d

shit.2.weight f4 [128, 256]
-0.03428249 0.033491075 0.019161552 -0.016689852 -0.018854469 -0.061354183 -0.016556121 0.016274512
0.029309265 0.057978794 -0.009432636 0.060816273 0.04933141 0.0464387 -0.014170028 0.0011460036
0.06073194 -0.05716844 0.012192257 -0.042934023 0.061769098 0.0057444647 -0.015725546 -0.00460615
-0.016514063 0.027617402 -0.030993097 -0.0323084 -0.023047835 -0.034329563 -0.0041741803 -0.00033929944
0.054899782 0.024397306 -0.021321096 0.017338231 0.00762444 0.007508002 0.013889402 -0.043246828
0.048366122 -0.044079527 -0.0505308 -0.056028992 -0.042808168 0.043004 0.050052144 0.0027326867
0.0026207268 0.0062189028 -0.009385183 -0.020247161 -0.053773962 0.056715876 -0.021628208 -0.047794186
-0.05222469 -0.01603797 -0.03968533 -0.0034009814 0.0016529635 0.025766544 -0.0367669 0.027815185
-0.013478965 -0.014132194 0.053366445 -0.044582777 0.009410836 -0.010249928 -0.019864768 -0.016449332
0.057194307 0.035459958 0.0014484227 -0.042642377 -0.013768822 -0.031188898 -0.007567957 -0.055800095
0.007262863 0.033371054 0.040870555 0.051697984 0.0557855 -0.0072559416 -0.029203065 -0.05055677
-0.05382035 -0.020136096 0.0426893 0.050673053 0.019011594 0.04327234 -0.0043568537 -0.046115518
0.030447513 0.033294894 0.023774385 -0.032238275 -0.019018643 0.058301836 0.030985124 0.001367189
0.052197866 -0.05245801 0.019968271 -0.00030054897 -0.0008263439 0.06176842 -0.025576152 0.0404652
0.011269808 0.010178 -0.011771761 0.006684482 -0.029165253 -0.013702221 -0.0003690794 0.031308994
0.016690373 8.368492e-05 0.020088263 -0.029059023 0.02640827 0.021482706 -0.058924094 -0.0020608678
0.060907543 -0.032170273 0.00045274198 -0.047065966 -0.059205122 -0.062054917 -0.007704258 0.05123288
-0.0029550716 -0.049602658 -0.06142565 0.034399077 0.022683382 0.036307305 0.00793048 -0.027577505
0.060085006 0.034599245 -0.031105272 -0.057915136 -0.04217249 0.017204322 -0.00393039 -0.049186423
-0.0035587773 -0.0577704 -0.047181375 0.031808004 0.017274588 -0.0562673 0.058282934 -0.044545785
-0.01996813 0.031062998 -0.031693257 0.02211596 0.025635786 -0.00050442666 -0.028427035 0.048881702
-0.008519657 -0.034192257 -0.00508859 0.04328888 0.04654485 0.05964519 0.031342342 0.017383166
0.0076372772 -0.019217893 -0.010166749 0.041081905 0.04471057 0.0307891 -0.022995785 0.05210483
0.02721139 -0.021654807 -0.04455845 -0.003226459 -0.0021331012 0.042047903 -0.016145386 -0.033895895
0.026326716 0.052824035 -0.0112042725 0.04437285 -0.05007214 0.04336288 0.027158916 0.040097333
0.054102108 0.016304933 0.010178186 -0.016260095 0.023028195 0.05264719 -0.007940151 0.036374934
-0.017767936 -0.021367058 0.041364536 -0.042678587 -0.036914326 -0.01313515 -0.017416313 0.04504419
-0.045456827 0.047200523 0.04310149 -0.05237914 0.003961727 -0.0463697 0.050480932 -0.039327994
-0.030477911 -0.03844209 -0.031218775 0.043609403 0.0076050237 -0.026113935 0.03119693 -0.02902989
-0.03440786 -0.057566717 -0.03061787 0.05847858 -0.055306114 -0.05084794 -0.050812356 0.052563444
-0.023294158 -0.030438356 -0.0021879598 0.027416132 -0.026631147 -0.025784582 0.053579852 -0.061987586
-0.04508265 0.01977522 0.049585618 -0.05487921 -0.036469713 0.00010150671 0.024990506 -0.030586496
00000000: cc6b 0cbd f02d 093d b0f8 9c3c 28b9 88bc
00000010: b074 9abc 864e 7bbd b4a0 87bc 2052 853c
00000020: fc19 f03c 2c7b 6d3d 588b 1abc 7c1a 793d
00000030: bc0f 4a3d 8236 3e3d 6829 68bc 8035 963a
00000040: 0ec2 783d 7429 6abd 08c2 473c 96db 2fbd
00000050: 9801 7d3d 103c bc3b dcd2 80bc 30ef 96bb
00000060: 8048 87bc e43d e23c 3ce5 fdbc d055 04bd
00000070: d0ce bcbc 289d 0cbd 90c7 88bb 00e4 b1b9
00000080: 98de 603d dcdc c73c 94a9 aebc e808 8e3c
00000090: 70d6 f93b b005 f63b 6090 633c 9623 31bd
000000a0: 8e1b 463d bc8c 34bd 62f9 4ebd a87e 65bd
000000b0: 9e57 2fbd f624 303d 7a03 4d3d e016 333b
000000c0: 80c0 2b3b f0c7 cb3b 50c4 19bc 60dd a5bc
000000d0: 1642 5cbd e84e 683d a42d b1bc d6c3 43bd
000000e0: 8ee9 55bd 1062 83bc 168d 22bd 00e3 5ebb
000000f0: 40a8 d83a 5c14 d33c e498 16bd acdc e33c
00000100: e0d6 5cbc b88a 67bc c696 5a3d 6e9c 36bd
00000110: e82f 1a3c 50ef 27bc 70bb a2bc c0c0 86bc
00000120: 9444 6a3d 763e 113d 00d9 bd3a c6a9 2ebd
00000130: a096 61bc dc7f ffbc a0fc f7bb a48e 64bd
00000140: 50fd ed3b 16b0 083d e267 273d 44c1 533d
00000150: 567f 643d 40c3 edbb 443b efbc 9e14 4fbd
00000160: ba72 5cbd 74f4 a4bc fada 2e3d 8c8e 4f3d
00000170: 34be 9b3c 563e 313d f0c3 8ebb a0e3 3cbd
00000180: 106d f93c 3a60 083d 80c2 c23c 480c 04bd
00000190: fccc 9bbc e8cd 6e3d 84d4 fd3c 4033 b33a
000001a0: 6ecd 553d 36de 56bd 8094 a33c 0093 9db9
000001b0: 009f 58ba e200 7d3d 1485 d1bc d6be 253d
000001c0: 00a5 383c a0c1 263c 58de 40bc 8009 db3b
000001d0: f8eb eebc 487f 60bc 0081 c1b9 dc3d 003d
000001e0: 40ba 883c 0080 af38 2490 a43c 300d eebc
000001f0: 2856 d83c 80fc af3c 645a 71bd a00f 07bb
00000200: 307a 793d fac4 03bd 005e ed39 3ec8 40bd
00000210: 1281 72bd 4c2d 7ebd 0074 fcbb 92d9 513d
00000220: e0a9 41bb 282c 4bbd 7699 7bbd 0ce6 0c3d
00000230: 80d2 b93c f8b6 143d d8ee 013c 38ea e1bc
00000240: b21b 763d f0b7 0d3d 7cd0 febc 6c38 6dbd
00000250: 10bd 2cbd 14f0 8c3c 80ca 80bb b477 49bd
00000260: 603a 69bb a8a0 6cbd 4241 41bd 1c49 023d
00000270: 7083 8d3c 8a78 66bd 16ba 6e3d a475 36bd
00000280: 3494 a3bc d477 fe3c cad0 01bd 882c b53c
00000290: 2402 d23c 803b 04ba d0df e8bc 2e38 483d
000002a0: 0896 0bbc 2e0d 0cbd 30be a6bb ae4f 313d
000002b0: d0a5 3e3d 844e 743d d460 003d 2467 8e3c
000002c0: 2042 fa3b d86e 9dbc 7092 26bc 8045 283d
000002d0: 6e22 373d 6c39 fc3c a861 bcbc e06b 553d
000002e0: 6cea de3c 6c65 b1bc ec82 36bd 0073 53bb
000002f0: 80cb 0bbb 6c3a 2c3d 5443 84bc 6cd6 0abd
00000300: 20ab d73c 045e 583d 2092 37bc 4ec0 353d
00000310: 7218 4dbd 469d 313d 607c de3c 1a3d 243d
00000320: 2c9a 5d3d ec91 853c 68c2 263c e433 85bc
00000330: a0a5 bc3c 94a4 573d 6817 02bc e2fd 143d
00000340: 108e 91bc f809 afbc dc6d 293d becf 2ebd
00000350: 7a33 17bd d034 57bc a8ac 8ebc 4280 383d
00000360: f030 3abd 5655 413d 308b 303d 828b 56bd
00000370: 60d1 813b 28ee 3dbd 18c5 4e3d 6416 21bd
00000380: d0ac f9bc 7475 1dbd 84be ffbc c69f 323d
00000390: 9033 f93b e4ec d5bc b490 ff3c 18d0 edbc
000003a0: 42ef 0cbd 14cb 6bbd 54d2 fabc 3c87 6f3d
000003b0: aa88 62bd ee45 50bd 9e20 50bd c44c 573d
000003c0: 64d3 bebc dc59 f9bc e063 0fbb cc97 e03c
000003d0: 9029 dabc 303a d3bc 8c76 5b3d b2e6 7dbd
000003e0: 96a8 38bd a4ff a13c 4a1a 4b3d 06c9 60bd
000003f0: 4461 15bd 00e0 d438 e4b8 cc3c 8890 fabc

shit.2.bias f4 [128]
0.02575545 0.018862493 0.054293253 -0.046524294 0.0437012 -0.046145625 -6.753206e-05 0.011559978
0.0067877173 -0.022387125 0.0410088 0.013101734 -0.027504846 -0.0381004 -0.03527093 -0.033286497
-0.06026534 -0.060301974 0.043629773 -0.060933895 -0.015328385 0.0008225143 -0.047259733 0.03158515
-0.017038517 0.052489482 0.048791803 -0.058258362 -0.01578971 0.029066198 -0.01923538 0.06158676
0.020020045 0.02226907 -0.056712084 0.04323034 0.023865908 -0.0024670213 0.008815214 -0.04282774
0.049854316 -0.037564456 0.023016721 0.059574917 0.039673254 -0.008133709 0.046458118 0.036639877
0.032630257 -0.0051594526 -0.029259376 0.054649554 0.052133933 -0.058082916 -0.032917157 0.06010524
-0.02168224 0.054199457 -0.020821579 -0.021052435 -0.033372104 0.0076905563 -0.017139569 -0.025006384
-0.022253215 0.05874192 -0.034775108 -0.059051976 0.055770747 -0.053049587 -0.014829859 0.03300882
-0.014624961 -0.0451999 0.052036993 0.058460273 0.0049230307 -0.001957409 -0.050850876 0.042754203
0.02566126 0.047493987 0.026965924 0.012333684 0.040050656 0.0073236153 0.02328609 0.048152238
-0.03971708 0.03880863 -0.04540106 -0.03518577 -0.013540342 -0.016628101 -0.024023868 -0.0076097474
-0.047697462 0.014584027 0.007983319 0.05467864 -0.008028664 -0.0149301365 0.041620173 0.019717008
0.026764773 0.060236365 -0.010319687 0.033186056 0.0059122816 0.021968246 -0.028889716 -0.016362175
-0.05901728 -0.009819716 -0.059627064 -0.04198008 0.0069722384 -0.033501618 -0.05582551 0.048593894
0.054029122 -0.04579585 -0.038683213 0.020871416 0.060435526 0.025648534 -0.039584137 -0.001662463
00000000: 18fd d23c 8485 9a3c 9a62 5e3d 4290 3ebd
00000010: 0800 333d 3203 3dbd 00a0 8db8 1066 3d3c
00000020: 806b de3b 3465 b7bc d8f8 273d a8a8 563c
00000030: d851 e1bc 2a0f 1cbd 4078 10bd 6c57 08bd
00000040: cad8 76bd 34ff 76bd 22b5 323d d295 79bd
00000050: e823 7bbc 009e 573a 6c93 41bd 6e5f 013d
00000060: 5c94 8bbc 36ff 563d ead9 473d 52a0 6ebd
00000070: 6c59 81bc 3c1c ee3c 8493 9dbc 6642 7c3d
00000080: 1401 a43c a06d b63c ee4a 68bd 4c12 313d
00000090: 7082 c33c c0ad 21bb b06d 103c 246c 2fbd
000000a0: 0a34 4c3d 30dd 19bd 908d bc3c d404 743d
000000b0: 6c80 223d 4043 05bc de4a 3e3d b213 163d
000000c0: 4ea7 053d a010 a9bb 5cb1 efbc 36d8 5f3d
000000d0: 648a 553d 5ae8 6dbd 24d4 06bd ea30 763d
000000e0: f49e b1bc 4000 5e3d 0492 aabc 2876 acbc
000000f0: 30b1 08bd 1001 fc3b 4868 8cbc 30da ccbc
00000100: 604c b6bc 5e9b 703d 5870 0ebd 7ce0 71bd
00000110: de6f 643d 864a 59bd f0f8 72bc 4234 073d
00000120: 889d 6fbc 8823 39bd be24 553d 0a74 6f3d
00000130: 6051 a13b e047 00bb 0249 50bd 081f 2f3d
00000140: 9037 d23c 0e89 423d a4e7 dc3c 3813 4a3c
00000150: 280c 243d f0fa ef3b 78c2 be3c 483b 453d
00000160: 60ae 22bd ccf5 1e3d 76f6 39bd f41e 10bd
00000170: 50d8 5dbc a837 88bc b4cd c4bc 305b f9bb
00000180: 6a5e 43bd d8f1 6e3c 78cc 023c b6f6 5f3d
00000190: a88a 03bc 889d 74bc ea79 2a3d 9085 a13c
000001a0: cc41 db3c 68ba 763d e813 29bc 1aee 073d
000001b0: d0bb c13b c0f6 b33c 20aa ecbc f809 86bc
000001c0: 1abc 71bd e0e2 20bc 823b 74bd 4ef3 2bbd
000001d0: 6077 e43b fe38 09bd 4aa9 64bd 640a 473d
000001e0: a44d 5d3d 6e94 3bbd 4a72 1ebd 88fa aa3c
000001f0: 3e8b 773d e01c d23c fa22 22bd 00e7 d9ba
