src/temp/model/checkpoint_8_Interrupt.pth (torch, 923227 bytes, 17 tensors)

actor.0.weight f4 [32, 1, 3, 3]
0	0x3e7fb566	0.24971542
1	0xbd001998	-0.031274408
2	0x3e48ed12	0.19621685
3	0xbea985b6	-0.33109826
4	0xbdf3af36	-0.11898653
5	0xbe7a6013	-0.24450712
6	0x3d545200	0.051836014
7	0xb7358000	-1.0818243e-05
8	0xbce1da40	-0.02756989
9	0xbe8dfa66	-0.277301
10	0xbdd736d6	-0.10508506
11	0x3c83af30	0.016074747
12	0x3cfb8400	0.030702591
13	0x3c0dcf00	0.00865531
14	0xbe17e6a0	-0.1483407
15	0xbe792c28	-0.2433325
16	0x3e29a5d8	0.1656717
17	0xbd9f80e0	-0.07788253
18	0x3e1d2b6e	0.15348598
19	0xbdcc87d6	-0.09986846
20	0x3aa3ac00	0.0012487173
21	0x3df38edc	0.11892483
22	0xbdcc317c	-0.09970376
23	0xbe65e0ae	-0.2244899
24	0xbddae3f0	-0.10688007
25	0x3c04be80	0.008102059
26	0x3a89cc00	0.0010513067
27	0xbaf93f00	-0.0019015968
28	0x3db4a814	0.08821121
29	0x3ea2522f	0.31703326
30	0xbe781bfe	-0.24229428
31	0xbe99c2e2	-0.30031496
32	0x3981dc00	0.0002476871
33	0xbdb0326c	-0.08603367
34	0x3ea7c659	0.32768515
35	0xbd920880	-0.071305275
36	0x3dcb85cc	0.09937629
37	0x3e4f027a	0.20215788
38	0xbe27b196	-0.16376337
39	0xbbf8be40	-0.007591039
40	0x3e50acca	0.20378414
41	0xbe2007de	-0.15628001
42	0xbe8716c8	-0.26384568
43	0xbe3ace58	-0.18242776
44	0xbd48ad08	-0.04899314
45	0xbe611ceb	-0.21983688
46	0xbe94552f	-0.2897124
47	0x3d1a0638	0.037603587
48	0x3ea88bff	0.3291931
49	0x3e7c7a0e	0.24655935
50	0xbe074b56	-0.13212332
51	0x3a488800	0.000764966
52	0x3ba1c400	0.004936695
53	0xbe5da33e	-0.21644303
54	0x3e6a3016	0.22869906
55	0x3e43b612	0.19112423
56	0x3ca09dc0	0.019606471
57	0xbe773770	-0.24142241
58	0x3e9a6645	0.3015615
59	0x3d0d1988	0.034448177
60	0xbe1701ae	-0.14746734
61	0xbe43a603	-0.19106297
62	0xbea3752a	-0.31925327
63	0x3e0bff36	0.13671574
64	0x3e0cec5a	0.13762036
65	0xbdeb5f4c	-0.11492786
66	0xbe7ff748	-0.24996674
67	0x3e3bd09e	0.183413
68	0x3db61b3c	0.08891913
69	0x3e10df6a	0.14147726
70	0xbdc39ed0	-0.095517755
71	0x3d73d8f8	0.05953309
72	0x3ddec9dc	0.10878345
73	0xbe9ba35e	-0.30398077
74	0xbe9c623a	-0.3054369
75	0x3cc2f070	0.02379629
76	0xbd8f146c	-0.06986317
77	0x3e3b60a2	0.18298581
78	0xbe757693	-0.23971014
79	0x3d8e29f4	0.06941596
80	0x3d1dc4c0	0.038517714
81	0xbe2f2858	-0.17105234
82	0xbe484530	-0.19557643
83	0x3e79e5d2	0.24404076
84	0xbe4d2e9b	-0.2003731
85	0xbdbf6bac	-0.09346709
86	0xbea4152b	-0.320474
87	0xbddf59e0	-0.10905814
88	0x3e315e1e	0.17321059
89	0xbe27bf68	-0.1638161
90	0xbe39a1f0	-0.1812818
91	0xbe849f34	-0.25902712
92	0x3e90dfc5	0.28295723
93	0xbe6bbbfb	-0.23020928
94	0xbe302358	-0.17200983
95	0x3e319afa	0.17344275
96	0x3e83cce1	0.25742248
97	0xbe9f603f	-0.31128117
98	0xbcc7b670	-0.024378985
99	0xbe369a13	-0.17832212
100	0xbba49240	-0.005022317
101	0xbe0ac636	-0.13552174
102	0xbd254620	-0.04035008
103	0xbe74f15b	-0.23920195
104	0xbe7f73fb	-0.24946587
105	0x3e43b532	0.1911209
106	0x3e8bac5d	0.2727994
107	0xbe29918e	-0.16559431
108	0x3e07f056	0.13275275
109	0x3e42c046	0.19018659
110	0xbe1da30e	-0.15394232
111	0xbde8cb06	-0.11366849
112	0x3cc80150	0.024414688
113	0xbea2da12	-0.31807
114	0xbda67fec	-0.08129868
115	0xbd947254	-0.07248369
116	0xbe2e9643	-0.17049508
117	0xbe95d140	-0.29261208
118	0x3e3abbf2	0.18235758
119	0xbd96db60	-0.07366061
120	0xbdac4bac	-0.08412871
121	0xbe921682	-0.28532797
122	0xbd17adc8	-0.037030965
123	0xbe841182	-0.25794607
124	0xbe0daf1b	-0.13836329
125	0xbea7c80b	-0.32769808
126	0xbe4607f3	-0.1933897
127	0x3e2ff0d2	0.1718171
128	0x3dfd70a0	0.12374997
129	0xbe78bad8	-0.24290025
130	0xbe5775b8	-0.21041
131	0x3e893715	0.26799837
132	0xbe6d7cde	-0.23192164
133	0x3e0dfea6	0.13866672
134	0xbe61d8a3	-0.22055297
135	0x3dc2792c	0.09495768
136	0xbe92be93	-0.28661022
137	0xbe084da0	-0.13310862
138	0x3ea0e8e1	0.31427673
139	0x3d1086e0	0.035284877
140	0xbc3b6fe0	-0.011440247
141	0xbe83b912	-0.25727135
142	0x3da4ef0c	0.08053407
143	0xbcaf8530	-0.021425813
144	0xbe196a8e	-0.14982054
145	0x3dffbbe0	0.12487006
146	0x3d8fc774	0.070204645
147	0x3c6091a0	0.013706595
148	0xbe5463be	-0.20741174
149	0xbdfdeb3c	-0.12398383
150	0x3ea63f09	0.32469967
151	0x3e7b233a	0.24525157
152	0xbe0e56fe	-0.13900372
153	0xbe52b3e0	-0.2057643
154	0xbd5b7fc8	-0.05358866
155	0x3e96247d	0.29324713
156	0x3ea1f321	0.31630805
157	0x3de3c800	0.11122131
158	0x3d99b8ac	0.075059265
159	0x3e13f77a	0.14449874
160	0x3df23634	0.11826745
161	0xbe05d04b	-0.13067739
162	0x3ea1e205	0.31617752
163	0xbb731380	-0.003709048
164	0x3dae908c	0.08523664
165	0xbe859d1c	-0.26096427
166	0x3e0b98c0	0.13632488
167	0x3dd2e5d0	0.102977395
168	0x3e69084a	0.22757068
169	0x3e94df59	0.2907665
170	0x3bee9d40	0.0072819293
171	0xbcd040f0	-0.02542159
172	0xbd4a4000	-0.04937744
173	0xbd818640	-0.06324434
174	0xbddbfb40	-0.107412815
175	0xbea788a4	-0.32721436
176	0xbca0cb40	-0.019628167
177	0xbe4570d0	-0.19281316
178	0xbe66a9a3	-0.22525649
179	0xbdd00af0	-0.10158336
180	0x3e13e9b2	0.14444616
181	0xbd586f60	-0.05284059
182	0xbdcac5a0	-0.09900975
183	0xbdd1cd6c	-0.10244259
184	0xbe287c1e	-0.16453597
185	0xbe2b23db	-0.16712897
186	0x3b238200	0.0024949312
187	0xbd6192c8	-0.055071622
188	0xbd313a40	-0.043268442
189	0xbc696ce0	-0.014247149
190	0xbe025c26	-0.12730464
191	0xbd818fcc	-0.06326255
192	0xbbaca940	-0.0052691996
193	0x3e622b12	0.22086743
194	0x3d41ab00	0.04728222
195	0xbe2f2a5b	-0.17106001
196	0x3e75beea	0.23998609
197	0xbd3d44c8	-0.046208173
198	0x3e7875de	0.24263713
199	0x3e14dbb0	0.14536929
200	0x3df88550	0.12134802
201	0xbe756858	-0.23965585
202	0xbdd91a56	-0.10600726
203	0xbaad6900	-0.0013230145
204	0xbe965132	-0.29358822
205	0x3d5d9e80	0.054106236
206	0xbe24d713	-0.1609767
207	0x3e4b2106	0.19836816
208	0x3e20729a	0.15668717
209	0xbe9eb25f	-0.3099546
210	0x3dadaa0c	0.084796995
211	0xbe26f170	-0.16303039
212	0x3e854159	0.2602642
213	0xbe112fcb	-0.14178388
214	0xbd41e298	-0.047335237
215	0xbe878d86	-0.2647516
216	0x3d9c882c	0.0764316
217	0x3e9c9485	0.3058206
218	0xbe3a9d56	-0.18224081
219	0x3e7fe746	0.24990568
220	0xbe35c1c3	-0.17749695
221	0x3dbf4934	0.09340134
222	0x3dd301c4	0.10303071
223	0x3ea01c65	0.31271663
224	0xbd7559a8	-0.059899956
225	0x3e855019	0.26037672
226	0x3e3621da	0.17786351
227	0x3c94cf40	0.01816523
228	0x3ea10287	0.3144724
229	0xbdbd2070	-0.092347026
230	0x3e0b55e6	0.13606986
231	0xbdf554fc	-0.119791
232	0xbe86e41a	-0.26345903
233	0xbe8a72ab	-0.2704061
234	0xbdb63306	-0.08896451
235	0xbe872274	-0.26393473
236	0x3e742452	0.2384198
237	0xbe8e8a07	-0.27839682
238	0x3e9cdbc7	0.30636427
239	0x3e69d702	0.22835925
240	0x3d6142a8	0.05499521
241	0x3e9868e5	0.29767528
242	0x3d2f3dc0	0.0427835
243	0xbc7eb880	-0.015546918
244	0x3d551718	0.052023977
245	0xbe1db1e6	-0.15399894
246	0xbd49fbe0	-0.049312472
247	0x3eaa23f1	0.33230546
248	0x3e841859	0.25799826
249	0xbe3e2a7b	-0.18570893
250	0xbdbd12fc	-0.092321366
251	0xbe272dbb	-0.16326039
252	0xbe312e3b	-0.17302792
253	0x3e7fa832	0.24966505
254	0xbe882103	-0.26587686
255	0x3e3a88ba	0.1821622

actor.0.bias f4 [32]
0	0xbd23a288	-0.039949924
1	0xbdf43840	-0.11924791
2	0x3e090a68	0.13382876
3	0x3e99ce71	0.30040315
4	0x3d5eec58	0.054424614
5	0xbe1f68e8	-0.15567362
6	0xbd9efad0	-0.077626824
7	0xbe88136e	-0.26577324
8	0xbe3b2dde	-0.18279216
9	0xbe9f175a	-0.31072503
10	0xbe9cab82	-0.305996
11	0x3e7c7c02	0.2465668
12	0x3cb5a850	0.022174984
13	0x3e442d9a	0.1915802
14	0xbe229996	-0.15878901
15	0xbe116490	-0.14198518
16	0xbe774a1e	-0.24149367
17	0x3ea488b3	0.32135543
18	0xbe7296c3	-0.23690324
19	0x3d1c2aa0	0.038126588
20	0xbe026d56	-0.12737021
21	0xbea06f68	-0.31334996
22	0x3d5233f8	0.051319093
23	0xbcaca140	-0.021072984
24	0x3d966100	0.0734272
25	0xbde36310	-0.11102879
26	0xbda548e4	-0.080705434
27	0x3da004bc	0.07813403
28	0x3d242af8	0.04008004
29	0x3d388f28	0.0450584
30	0xbd3295e0	-0.043599963
31	0xbe0916e0	-0.13387632

actor.2.weight f4 [64, 32, 3, 3]
0	0xbcdb5a14	-0.026776351
1	0x3c9908ba	0.018680919
2	0x3c10cfcc	0.008838605
3	0x3d087509	0.03331474
4	0x3b723890	0.0036959983
5	0xbcd614ee	-0.026133027
6	0xbc838e70	-0.01605913
7	0xbc967be6	-0.018369626
8	0xbd14a1f0	-0.036287248
9	0xbc812324	-0.015763827
10	0x3ce0eec6	0.027457606
11	0xbc8afd74	-0.016966559
12	0xbc9f5bc6	-0.01945294
13	0x3c647eec	0.013946276
14	0x3c790164	0.015198085
15	0x3d5a4945	0.05329253
16	0x3d52ab9b	0.051433187
17	0xbd0b2e09	-0.03397945
18	0x3cdf1f3a	0.02723657
19	0x3d1774cd	0.036976624
20	0x3c855a2e	0.016278353
21	0x3d25cce3	0.0404786
22	0xbd6c1732	-0.05763931
23	0xbb120600	-0.0022281408
24	0x3c67a824	0.014139209
25	0x3ccd9066	0.025093269
26	0xbc16f4d4	-0.009213645
27	0x3d51da7b	0.05123375
28	0xbaf49280	-0.0018659383
29	0x3cee7eaa	0.029113133
30	0xbd573229	-0.05253807
31	0x3d3caa6b	0.04606096
32	0xbc31fb40	-0.010863125
33	0xbd4b42f5	-0.049624402
34	0x3c6d1874	0.014471162
35	0x3ce4ed76	0.027945261
36	0x3c486f9c	0.012233641
37	0xbce6c13c	-0.028168313
38	0xbd592928	-0.053017765
39	0x3d344595	0.04401167
40	0x3cc1510a	0.023598213
41	0x3a8cdc80	0.0010746866
42	0x3c5b058c	0.013368022
43	0x3c198a24	0.009371314
44	0x3d45d171	0.048295442
45	0xbcbf8086	-0.023376714
46	0x3c1b9b94	0.009497542
47	0x3c5a2ce4	0.013316367
48	0x3cca146e	0.024667945
49	0x3cc9092a	0.024540503
50	0xbd005fea	-0.03134147
51	0x3c56aae4	0.013102267
52	0x3b6d4bd0	0.0036208518
53	0xbc94c53a	-0.018160451
54	0x3d1f4697	0.03888568
55	0xbd4566b8	-0.048193663
56	0x3d11a72f	0.03555983
57	0xbce07ad6	-0.027402323
58	0x3d40fc9b	0.047115903
59	0xbb9745d0	-0.0046164766
60	0xbd5e2f6d	-0.054244447
61	0x3cc9bb66	0.024625491
62	0xbcab8d14	-0.020941295
63	0x3cda859e	0.026675042
64	0xbd63f30c	-0.05565171
65	0x3d194e1d	0.03742801
66	0xbd6c7b89	-0.057735
67	0x3c49f994	0.0123275705
68	0x3c9f9f4e	0.019485142
69	0xbce64107	-0.02810718
70	0x3d606605	0.054784793
71	0xbd2ed5f4	-0.04268451
72	0x3c86b16e	0.016442027
73	0x3c9d13ba	0.019174445
74	0xbd4b2659	-0.049597118
75	0x3d2dc615	0.042425234
76	0x3d1b9a7f	0.037989136
77	0x3d58d879	0.05294082
78	0x3cff1676	0.03113864
79	0x3d2b8d43	0.041882765
80	0x3c23b6e4	0.009992335
81	0x3d6b4ab9	0.057444308
82	0x3c993a92	0.018704686
83	0xbc844898	-0.016147897
84	0xbcc6b7a6	-0.024257492
85	0x3ce6a45a	0.02815454
86	0xbd011f54	-0.031524017
87	0xbceeedfd	-0.029166216
88	0x3d093a11	0.033502642
89	0x3c98f572	0.018671725
90	0xbca5544e	-0.020181801
91	0xbd54e2e8	-0.051974207
92	0x3c2f6db4	0.010707308
93	0xbadbb9e0	-0.0016763769
94	0xbc81f2de	-0.015862878
95	0xbca4597c	-0.0200622
96	0x3d194ed7	0.037428703
97	0x3c94b55a	0.018152881
98	0x3b839238	0.0040152334
99	0x3d11b875	0.035576303
100	0x3d14e0fb	0.03634737
101	0xbc1ecf9c	-0.009693053
102	0xbd14bf54	-0.036315277
103	0x3ccb6732	0.02482948
104	0x3b62af70	0.0034589432
105	0xbcb51a7a	-0.022107352
106	0x3d27019f	0.04077303
107	0x3d547973	0.051873636
108	0x3c9e3e42	0.019316796
109	0x3c546114	0.012962598
110	0x3c573d04	0.013137106
111	0xbc6480d4	-0.013946731
112	0xbbcb66b0	-0.0062073097
113	0xbd6ccaeb	-0.057810705
114	0xbd3c0fe7	-0.045913603
115	0x39101a00	0.00013742596
116	0x3d24f2cd	0.040270615
117	0xbc4ce268	-0.012505151
118	0xbcab7bdc	-0.020933084
119	0x38592400	5.177036e-05
120	0x3cd1dffa	0.025619496
121	0xbc9c40c0	-0.019073844
122	0x3c124acc	0.008928966
123	0xbc989bf6	-0.018629055
124	0x3d487293	0.04893739
125	0xbd0c41ab	-0.034242313
126	0x3caf5d0a	0.02140667
127	0x3d26e7e1	0.04074848
128	0xbc98fdf0	-0.018675774
129	0xbd633814	-0.055473402
130	0x3a6be4c0	0.0008998625
131	0xbcf0e85a	-0.029407669
132	0xbd03521a	-0.03206072
133	0xbd5cb7f8	-0.053886384
134	0x3c784df4	0.015155304
135	0xbc1a50bc	-0.009418663
136	0xbd5c4536	-0.053776942
137	0xbceaa2f4	-0.028642155
138	0xbd6f658d	-0.058446456
139	0x3d6f9b3d	0.058497656
140	0x3d308df5	0.04310413
141	0x3d49bd97	0.049253073
142	0x3bfd6268	0.007732678
143	0x3cea84ba	0.028627742
144	0x3c8ece6e	0.017432418
145	0x3c0fd994	0.008779902
146	0xbcae720a	-0.021294612
147	0x3d4f1a23	0.050562035
148	0xbd4869ca	-0.048929013
149	0xbd640cba	-0.0556762
150	0x3c797d3c	0.015227612
151	0xbcfba2b9	-0.03071724
152	0x3c259304	0.010105852
153	0x3c32d454	0.010914881
154	0x3d01571f	0.031577226
155	0x3d21e94f	0.03952914
156	0x3d589b15	0.052882273
157	0xbcd8bcf6	-0.026457291
158	0xbd55716b	-0.052110117
159	0x3d556945	0.052102346
160	0xbd457e1d	-0.048215974
161	0x3d41e889	0.047340903
162	0xbd25504e	-0.040359788
163	0x3d68c473	0.056827974
164	0x3cd929ca	0.026509184
165	0xbd32f59a	-0.043691255
166	0xbd548fe0	-0.051895022
167	0xbd4747f9	-0.048652623
168	0x3d314f7f	0.043288704
169	0x3c03d78c	0.008046996
170	0xbc1aad64	-0.009440754
171	0xbb53ebd0	-0.00323366
172	0x3d6e9dd9	0.058256004
173	0xbd647690	-0.055777133
174	0x3d633411	0.055469576
175	0xbd27e6cc	-0.04099159
176	0xbd246069	-0.040131006
177	0x3d54816d	0.051881243
178	0x3cb64b4e	0.022252705
179	0xbd420b24	-0.047373906
180	0x3c9a6cb6	0.018850666
181	0xbd6174c8	-0.055043012
182	0xbd1df8ac	-0.03856723
183	0x3d6fc6bd	0.05853914
184	0xbd25ee28	-0.040510327
185	0xbcb79bac	-0.022413097
186	0xbcc08742	-0.023501996
187	0x3d02296f	0.031777795
188	0x3d57b723	0.052664887
189	0x3c39c8bc	0.011339363
190	0x3d16e671	0.03684086
191	0xbb491030	-0.0030679815
192	0x3d0f6685	0.03500988
193	0x3d1db033	0.038498115
194	0x3c1cacd4	0.00956269
195	0x3d4885a7	0.048955586
196	0xbc3aae38	-0.011394076
197	0xbd052279	-0.03250358
198	0x3b6e3510	0.0036347546
199	0x3d645cab	0.055752438
200	0x3c8ad77e	0.016948458
201	0xbd66e822	-0.056373723
202	0x3d5ce265	0.053926844
203	0x3d348183	0.044068824
204	0x3a8bd320	0.0010667779
205	0x3d5054ab	0.050861996
206	0xbd5beac8	-0.0536907
207	0x3d39d217	0.045366373
208	0xbce74e3e	-0.028235551
209	0xbcdc5538	-0.026896104
210	0xbc15b0ec	-0.00913642
211	0xbd0222c5	-0.03177144
212	0x3c441ec4	0.011970226
213	0x3d6fc5f9	0.05853841
214	0x3c814c0a	0.015783329
215	0xbcbcce24	-0.023047514
216	0xbd573e21	-0.052549485
217	0xbd34761f	-0.04405796
218	0x3d517515	0.05113705
219	0xbcec5e66	-0.028853606
220	0xbc396e60	-0.011317819
221	0xbd147e78	-0.036253422
222	0xbd689db4	-0.056791022
223	0xbd2364aa	-0.039890923
224	0x3cdb786a	0.026790816
225	0xbc4b3db8	-0.012404852
226	0x3bfc5b58	0.0077013187
227	0x3d49b535	0.049245078
228	0xbd55b3ac	-0.0521733
229	0x3d5da467	0.054111864
230	0xbbca4030	-0.0061722025
231	0xbc6009f8	-0.013674252
232	0xbc0b1bf0	-0.008490548
233	0x3a1dc8c0	0.0006018989
234	0x3d1b81c1	0.03796554
235	0xbc55fbec	-0.013060551
236	0x3d1d0403	0.038333904
237	0xbd31b466	-0.043384932
238	0x3d2e4e0d	0.042554904
239	0x3d36b9e5	0.044610877
240	0x3d32b973	0.04363389
241	0xbc0e9cd8	-0.008704387
242	0x3d499ec9	0.049223695
243	0xbccddfb0	-0.025131077
244	0xbd2ab918	-0.041680425
245	0x3c8d73b6	0.01726709
246	0x3d310cdb	0.04322515
247	0xbcfe894e	-0.031071331
248	0x3ba8c9c8	0.0051510073
249	0x3d49f85b	0.049309116
250	0x3d4f5669	0.050619517
251	0x3d2b7aaf	0.041865047
252	0x3cadbb46	0.021207463
253	0xbc40c1b8	-0.011764936
254	0xbc3b4108	-0.011429079
255	0x3d1f3561	0.038869265

actor.2.bias f4 [64]
0	0xb9800a80	-0.00024421886
1	0x3c66df1c	0.014091279
2	0xbd1fe9e2	-0.039041407
3	0x3d2f130d	0.042742778
4	0xbd602d82	-0.0547309
5	0xbccea522	-0.025225226
6	0xbd271d1a	-0.040799238
7	0x3d63ddd3	0.05563147
8	0xbcfaef88	-0.030631796
9	0x3c312874	0.010812867
10	0xbd3dad50	-0.04630786
11	0x3bdbb9b8	0.006705489
12	0x3d0704f7	0.03296372
13	0x3c2cc474	0.010544885
14	0xbd36a9f6	-0.04459568
15	0x3d2dcdb3	0.0424325
16	0x3bc0aef8	0.005880233
17	0xbd61b386	-0.055102848
18	0xbd70dee3	-0.05880631
19	0xbd2e132a	-0.042498745
20	0xbae3d320	-0.0017381646
21	0xbd179fce	-0.037017636
22	0x3d126515	0.03574093
23	0xbc766a18	-0.015039943
24	0xbd3a78d1	-0.045525376
25	0xbcd0fcf8	-0.02551125
26	0x3d0936cb	0.03349952
27	0xbc8a85ba	-0.016909469
28	0x3d6c27ed	0.057655264
29	0xbc96fd3e	-0.018431302
30	0xbd6663bc	-0.056247458
31	0xbc846194	-0.01615981
32	0xbd40cb3a	-0.047068812
33	0x3c1205bc	0.0089125
34	0xbd03e9d6	-0.032205425
35	0xbca41d5e	-0.020033535
36	0x3cd92122	0.026505057
37	0xbd4f1dfd	-0.05056571
38	0x3d24328b	0.040087264
39	0x3cd3d8f6	0.025860291
40	0xbc5ffdac	-0.01367132
41	0x3cf42e7a	0.029807318
42	0xbd1aa214	-0.037752226
43	0x3d469e6f	0.048490938
44	0xbce849ed	-0.028355563
45	0x3d50b9d9	0.050958488
46	0xbc3d08f0	-0.011537775
47	0x3d39d649	0.045370374
48	0x3cd33b6e	0.025785174
49	0xbd019f6e	-0.031646185
50	0x3bc9fe28	0.006164331
51	0xbb2fb660	-0.0026811585
52	0xbd3ab298	-0.045580477
53	0xbd384c1c	-0.04499446
54	0xbc349680	-0.01102221
55	0x3c275d74	0.010215152
56	0x3bd1dae8	0.0064042695
57	0x3cea27da	0.028583456
58	0xbbd78950	-0.006577648
59	0xbc9e662c	-0.019335829
60	0x3a8b1fc0	0.0010614321
61	0x3d2f8431	0.042850677
62	0x3c8267c2	0.015918616
63	0x3d6de30b	0.058077853

actor.4.weight f4 [128, 64, 3, 3]
0	0xbcb253e8	-0.021768525
1	0x3c0cc57c	0.008592006
2	0xbc9ef328	-0.019403055
3	0x3d128b05	0.03577711
4	0x3d1b03a9	0.037845287
5	0xbcf7a3c0	-0.03022945
6	0x3c2235b4	0.009900499
7	0xbce07fc0	-0.027404666
8	0x3b5a43d0	0.003330458
9	0xbbd90b28	-0.0066236444
10	0xbd0ef3c3	-0.034900438
11	0x3c549684	0.012975339
12	0x3bb888e0	0.005631551
13	0x3cc76e46	0.024344575
14	0xbd114382	-0.03546477
15	0xbaeb0900	-0.0017931759
16	0x3c1956bc	0.009359058
17	0xbc84ad23	-0.01619584
18	0xbce7e5d3	-0.02830783
19	0x3c852ce2	0.016256753
20	0xbbc390f8	-0.0059682094
21	0x3c05b0dc	0.008159842
22	0xbc5151c0	-0.012775838
23	0x3cf7176e	0.03016254
24	0x3c876818	0.016529128
25	0xbb68ea70	-0.0035540126
26	0xbcb447fb	-0.02200698
27	0x3ce9b8c6	0.02853049
28	0x3c9d207e	0.019180533
29	0x3c0a8694	0.0084549375
30	0xbcc4b676	-0.024012785
31	0x3b83bb58	0.004020136
32	0x3c37b11c	0.01121166
33	0x3cd0353a	0.025416005
34	0xbd16a316	-0.036776625
35	0x3cd92582	0.026507143
36	0x3d214f43	0.03938223
37	0x3cd90a7e	0.02649426
38	0x3ce84282	0.028352026
39	0xbb918500	-0.0044409037
40	0x3b8a93a8	0.004229028
41	0x3d1218ed	0.035668302
42	0x3ca6c03e	0.02035534
43	0xbd0b3a8c	-0.03399138
44	0xbcf7e838	-0.030262098
45	0xbca4f076	-0.020134192
46	0xbcf235bb	-0.029566636
47	0x3cffcaaa	0.031224567
48	0x3d2013f1	0.039081518
49	0x3d2156a5	0.03938927
50	0xbcae8e43	-0.02130807
51	0x3c29296c	0.010324817
52	0x3cac91da	0.021065641
53	0x3b9149e0	0.0044338554
54	0x3b89f328	0.0042098947
55	0x3c67e204	0.014153007
56	0xbcf05943	-0.029339438
57	0xbbb7ab40	-0.0056051314
58	0xbd20b9fb	-0.039239865
59	0x3ca33682	0.019923452
60	0xbc041d2c	-0.008063596
61	0x3d0382f1	0.032107297
62	0x3d137023	0.035995614
63	0xbb93d808	-0.004511837
64	0xb91e1300	-0.00015075132
65	0x3b832258	0.004001897
66	0x3c879da6	0.016554665
67	0x3ca00208	0.019532219
68	0xbcfc6110	-0.030808002
69	0x3c1053a4	0.008809004
70	0xbc57b3f6	-0.013165465
71	0xbcf28b36	-0.029607397
72	0x3d07d933	0.03316612
73	0x3c6f2d90	0.014598265
74	0xbcc1bca3	-0.02364952
75	0x3cdc2e02	0.026877407
76	0x39b92c80	0.00035319105
77	0xbc38af3c	-0.011272248
78	0xbc10ec20	-0.008845359
79	0x3c5a85dc	0.013337579
80	0x3c0d3564	0.008618686
81	0x3d20a42d	0.03921907
82	0x3c476464	0.012169931
83	0xbcb17f2e	-0.02166709
84	0x3d0a8305	0.033816356
85	0xbd14af18	-0.036299795
86	0xbceec3f6	-0.029146176
87	0x3cf3e5da	0.029772688
88	0x3cc78ec2	0.024360064
89	0xbbfb1638	-0.007662561
90	0x3d0be251	0.03415138
91	0x3c1445e0	0.009049863
92	0xbd0682c7	-0.032839563
93	0x3b58ee50	0.003310103
94	0x3b293650	0.0025819726
95	0x3bf45e98	0.0074575655
96	0xbd251153	-0.040299725
97	0x3d1ef381	0.038806442
98	0x3cac71e6	0.021050405
99	0xbcbccbab	-0.023046335
100	0x3d22d621	0.03975499
101	0x3d1fa149	0.038972173
102	0x3d06d349	0.03291634
103	0xbbe70560	-0.0070502013
104	0xbb812108	-0.003940705
105	0x3c5242ec	0.012833338
106	0xbc0fd044	-0.008777682
107	0xbcc82f88	-0.024436727
108	0x3d05e4cf	0.032688912
109	0x3cf5617e	0.029953714
110	0x3ce28aca	0.02765407
111	0xbd1c8776	-0.038215123
112	0x3ce7a6fa	0.028277863
113	0x3c95d23a	0.01828872
114	0xbbab7560	-0.005232498
115	0x3c8514c8	0.01624526
116	0xbcb4dda8	-0.02207835
117	0xbd261aae	-0.040552787
118	0xbcf7b940	-0.030239701
119	0xbbcb98a8	-0.0062132664
120	0x3c91b9be	0.017788764
121	0x3b654280	0.0034982264
122	0x3d14aef9	0.03629968
123	0xbc01118c	-0.007877719
124	0xbb76acc0	-0.0037639588
125	0xbbd0f648	-0.0063770153
126	0xbd19e576	-0.037572347
127	0x3d2487c1	0.040168528
128	0xbd04081e	-0.032234304
129	0xbcb35d33	-0.021895027
130	0xbbfb7d58	-0.0076748542
131	0xbbcd1458	-0.0062585287
132	0x3cf4ca86	0.029881727
133	0xbc2533a4	-0.010083113
134	0xbc46d5d6	-0.012135943
135	0xbd075e00	-0.03304863
136	0xbd1cbfea	-0.03826896
137	0xbc8b18be	-0.016979571
138	0x3d03e54d	0.0322011
139	0xbca11d7e	-0.019667383
140	0x3cd9a012	0.026565585
141	0xbca8c608	-0.020602241
142	0xbc1f4dcc	-0.009723138
143	0x3c451a74	0.012030233
144	0x3d16142b	0.036640327
145	0x3b8f1b80	0.004367292
146	0x3c9c70b2	0.019096706
147	0x3d036853	0.032081913
148	0xbb855180	-0.0040685534
149	0x3cada862	0.021198455
150	0xbc4e75a6	-0.012601292
151	0x3cd8d722	0.02646977
152	0xbd1c6c44	-0.038189188
153	0xbd29dd72	-0.041470952
154	0x3cee89fe	0.029118534
155	0x3c616cfc	0.013758894
156	0xbc40271c	-0.011728074
157	0xbcb51173	-0.022103047
158	0x3ca7b88e	0.020473745
159	0x3c4d056c	0.0125135
160	0x3d0d94ad	0.034565616
161	0x3c82407e	0.015899893
162	0xbd144874	-0.03620191
163	0x3b0d9b90	0.0021607615
164	0xbd188298	-0.03723392
165	0x3cf1f1b2	0.029534195
166	0xbcb021bb	-0.021500459
167	0x3cd21aca	0.02564754
168	0x3a746540	0.0009322949
169	0x3c9f0b3a	0.019414533
170	0x3caf82ea	0.02142473
171	0xbc447bec	-0.011992436
172	0x3c311d6c	0.010810237
173	0xbcdcddb3	-0.026961183
174	0xbd1b4f40	-0.037917376
175	0x3cd72df2	0.026267026
176	0x3d159ba1	0.036525372
177	0x3c976d4e	0.018484738
178	0x3cce1512	0.025156531
179	0x3d295555	0.041341145
180	0xbd12c2e6	-0.0358304
181	0xbce1b67e	-0.02755284
182	0xbcab5150	-0.020912796
183	0x3b1d4e10	0.0024002828
184	0xbcc2cff6	-0.023780804
185	0xbc8daf6b	-0.01729556
186	0xbd21afec	-0.039474413
187	0xbb636d10	-0.0034702457
188	0xbbb9a500	-0.0056654215
189	0xbd26c896	-0.040718637
190	0x3d0e4265	0.034731288
191	0x3bef4b18	0.007302653
192	0x3d003dd3	0.03130896
193	0xbc4dbeb6	-0.012557676
194	0x3bb24d08	0.0054413117
195	0x3c2e6aa4	0.010645542
196	0x3d1e047b	0.03857849
197	0xbba1def8	-0.00493991
198	0xbc4e9f40	-0.01261121
199	0x3c8f8b32	0.017522428
200	0xbb110280	-0.0022126734
201	0xbd081328	-0.033221394
202	0x3c22411c	0.009903219
203	0x3b37d780	0.0028052032
204	0x3c879e30	0.016554922
205	0x3d29957f	0.041402336
206	0xbd08fb73	-0.033442926
207	0x3c743594	0.014905352
208	0x3c72ef64	0.014827583
209	0xbcef9f76	-0.029250842
210	0x3cef78fa	0.02923249
211	0x3b4fcfd0	0.003170956
212	0xbca97388	-0.020684972
213	0xbb23e430	-0.0025007837
214	0xbcfb0093	-0.030639922
215	0x3b583250	0.0032988973
216	0xbc0d6450	-0.008629873
217	0x3d1638c1	0.03667522
218	0x3b7818f0	0.003785666
219	0xbd27df0a	-0.04098419
220	0x3d24db19	0.04024801
221	0x3d1727b1	0.036903087
222	0xbd006922	-0.031350262
223	0x3b663a50	0.0035129972
224	0x3cb2c002	0.021820072
225	0xbd205726	-0.03914561
226	0x3d0a7975	0.033807237
227	0xbce9c926	-0.028538298
228	0x3ce0e66e	0.027453627
229	0x3cce0a7e	0.025151487
230	0xbcbc53db	-0.022989204
231	0xbd235fcc	-0.03988628
232	0xbce91988	-0.028454557
233	0xbd0707be	-0.032966368
234	0x39db6680	0.00041847304
235	0xbd188d27	-0.03724399
236	0xbbdad928	-0.006678719
237	0xbd25953c	-0.040425524
238	0x3cc685be	0.024233695
239	0x3cc4015a	0.023926426
240	0xbb922fe0	-0.0044612736
241	0x3cabe2b6	0.020982128
242	0xbc911696	-0.017710965
243	0x3cc57f9a	0.024108697
244	0x3d0efe35	0.0349104
245	0xba3fd6c0	-0.0007318072
246	0xbc139e54	-0.009009916
247	0x3cb0eb92	0.021596704
248	0x3d03b725	0.032157082
249	0xbd01e7ea	-0.03171531
250	0x3c9e9d3e	0.019362088
251	0x3d0a53a5	0.033771176
252	0xbc7bbab0	-0.015364334
253	0x3a6e1800	0.0009082556
254	0xbccf83a8	-0.025331333
255	0xbafe97e0	-0.0019423924

actor.4.bias f4 [128]
0	0xbc810253	-0.015748179
1	0xbcf6853e	-0.030092832
2	0x3d012f9d	0.03153955
3	0x3d28092d	0.041024376
4	0xbd143d1b	-0.036191087
5	0xbc976113	-0.018478906
6	0xbb54e900	-0.0032487512
7	0x3d2279cd	0.03966694
8	0xbbe19a08	-0.006884817
9	0xbd0481fa	-0.032350518
10	0xbc0bc3b4	-0.008530546
11	0xbba239e8	-0.0049507506
12	0xbc83f3f6	-0.01610754
13	0x3cc716ca	0.024302859
14	0x3ca7efe6	0.020500135
15	0xbc54a750	-0.0129793435
16	0x3c15af7c	0.009136077
17	0xbb83fac8	-0.004027698
18	0x3d028cfd	0.03187274
19	0xbc16a240	-0.009193957
20	0x3cc8bbaa	0.024503548
21	0xbd1ec1b2	-0.03875894
22	0xbd168ca0	-0.036755204
23	0x3ba12d80	0.004918754
24	0x3d278221	0.040895585
25	0xbcb268fb	-0.021778574
26	0x3d14f031	0.036361877
27	0x3d083507	0.033253696
28	0x3bf3de28	0.0074422546
29	0x3d1bfcc5	0.038082857
30	0xbc978c3b	-0.018499484
31	0xbb4b78c0	-0.0031047314
32	0xbc35d0cc	-0.011097144
33	0x3c0ee5c4	0.008721773
34	0x3cef9676	0.02924655
35	0x3b303270	0.0026885532
36	0x3b3d0b10	0.0028845705
37	0x3d14e8f9	0.036354993
38	0x3c34df24	0.011039529
39	0x3ae95920	0.001780305
40	0x3cb3b52a	0.021936972
41	0x3cfa3282	0.030541662
42	0xbc938618	-0.018008277
43	0x39b08380	0.0003366731
44	0xbb9a8ae8	-0.004716266
45	0xbcae4f3e	-0.02127802
46	0xbc55b000	-0.01304245
47	0x3d299083	0.041397583
48	0xbab19380	-0.0013547987
49	0xbc931750	-0.017955452
50	0xbd1b3f37	-0.037902083
51	0xbd18afa4	-0.03727688
52	0x3c27ef80	0.010249972
53	0xbbe20fd8	-0.0068988614
54	0x3cc9f0d6	0.024650972
55	0xbcb9abd8	-0.02266495
56	0x3bc14d98	0.0058991425
57	0xbd04974a	-0.032370843
58	0x3d1825a9	0.03714529
59	0x3c8a079e	0.016849335
60	0x3d163289	0.036669288
61	0xbc642840	-0.013925612
62	0x3b414b40	0.0029494315
63	0xbd25fde0	-0.040525317
64	0x3cd2b3fe	0.025720593
65	0xbd20c55e	-0.039250724
66	0x3cfafe36	0.030638795
67	0x3c1c58e0	0.009542674
68	0xbcfc36cb	-0.030787846
69	0x3c311904	0.010809187
70	0x3c7db61c	0.015485313
71	0x3b1d6c40	0.002402082
72	0x3d296569	0.041356478
73	0xbcd78760	-0.026309669
74	0xbc0ca030	-0.008583114
75	0xbcb7ce40	-0.022437215
76	0x3d059265	0.032610316
77	0x3d137889	0.036003623
78	0x3ca108fa	0.0196576
79	0xbbdad6f8	-0.0066784583
80	0xb9851580	-0.00025383756
81	0x3ccd3c6e	0.02505323
82	0x3bc7bf20	0.006095782
83	0x3d2144dd	0.039372314
84	0x3cd7cf62	0.026344005
85	0xbcef7cd8	-0.029234335
86	0xbc2e6e90	-0.010646477
87	0x3ca6ecbe	0.02037656
88	0x3bc544d8	0.0060201697
89	0x3c929f36	0.017898183
90	0xbb8163e8	-0.0039486773
91	0x3ca95588	0.020670667
92	0x3c8fa25a	0.01753347
93	0xbc7eb690	-0.015546456
94	0xbb9ef820	-0.004851356
95	0x3ca90b1e	0.020635184
96	0xbd087f7a	-0.033324696
97	0xbc800bd8	-0.015630648
98	0x3c82f2de	0.015984949
99	0x3c3e07f4	0.011598576
100	0xbca793db	-0.020456245
101	0xbc4007c0	-0.011720598
102	0x3cc293be	0.02375209
103	0x3d1eee77	0.038801637
104	0xbcabae10	-0.020957023
105	0x3d1e138b	0.038592856
106	0x3ca24fa2	0.019813363
107	0x3b563490	0.0032685138
108	0xbd11dd56	-0.035611473
109	0xbcba8b1b	-0.022771409
110	0x3c8ef496	0.017450612
111	0x3d149945	0.03627898
112	0x3c01d860	0.007925123
113	0xbcfe75c0	-0.031062007
114	0x3d005d33	0.03133888
115	0xbbb08c20	-0.005387798
116	0x3c40fd6c	0.0117791705
117	0xbd140c97	-0.03614482
118	0x3cb3d8aa	0.0219539
119	0xbc964f43	-0.018348342
120	0xbcb4af7b	-0.022056332
121	0x3d0afba5	0.033931393
122	0x3b776a50	0.0037752576
123	0x3d22d59b	0.03975449
124	0xbd24439b	-0.040103536
125	0x3c46bca4	0.012129936
126	0x3cb6d4e6	0.022318315
127	0xbcc9cf2e	-0.024634924

shit.0.weight f4 [256, 128]
0	0xbd1ae5e2	-0.03781689
1	0x3cb7d938	0.022442445
2	0x3b053140	0.0020323545
3	0x3d1a47c6	0.037666105
4	0xbd797e2c	-0.060911343
5	0xbc129050	-0.00894554
6	0x3d447446	0.04796245
7	0x3c9661e0	0.018357217
8	0x3ceaaa40	0.028645635
9	0x3cfff030	0.03124246
10	0xbdb32e7b	-0.087491
11	0xbd21e5c2	-0.039525755
12	0x3d90f2a5	0.07077531
13	0xbd015077	-0.031570878
14	0xbd7d39c5	-0.06182267
15	0xbccfaa4c	-0.025349759
16	0x3d2c5de6	0.042081736
17	0xbc76d740	-0.015065968
18	0x3cbc20b0	0.022964805
19	0xbb9a1c50	-0.004703082
20	0x3dafa57d	0.08576486
21	0xbd5b8462	-0.053593047
22	0x3c0d5d48	0.008628197
23	0x3c589528	0.013219155
24	0xbd8f2d0d	-0.06991015
25	0x3d791866	0.060814284
26	0xbda18677	-0.07886975
27	0x3cddc5e4	0.0270719
28	0x3d080b4e	0.033213906
29	0xbd1aeea5	-0.037825245
30	0x3ca84cd4	0.020544447
31	0x3d5c794a	0.053826608
32	0xbd97aef8	-0.074064195
33	0x3d063246	0.03276279
34	0x3db18bef	0.08669268
35	0xbd8b113e	-0.06790398
36	0xbd8cc2d3	-0.06873097
37	0xbba6e6f0	-0.005093448
38	0xbd46e6a6	-0.048559807
39	0x3d9b2d0f	0.075769536
40	0xbc6058b8	-0.013693027
41	0xbb754900	-0.0037427545
42	0xbcaed9f0	-0.021344155
43	0x3d9364af	0.07196938
44	0xbd8ce54a	-0.06879671
45	0xbd30eceb	-0.043194693
46	0xbd36b18b	-0.044602912
47	0x3d1838f2	0.037163682
48	0x3d8d8967	0.06910973
49	0x3d9049bd	0.070453145
50	0x3b599e40	0.0033205897
51	0xbb9fa210	-0.0048716143
52	0xbd4bc0bf	-0.049744364
53	0x3d2cbdc6	0.04217317
54	0xbba2a210	-0.004963167
55	0xbb1fd260	-0.0024386868
56	0x3d83f439	0.06443066
57	0x3d59b4b2	0.05315084
58	0x3d7b3546	0.061330102
59	0x3cf9b538	0.03048192
60	0xbc896180	-0.016770124
61	0x3d9a9425	0.075477876
62	0xbd16167b	-0.036642533
63	0xbcdc53a2	-0.026895348
64	0xbd84bb19	-0.064809985
65	0x3c234338	0.009964757
66	0x3d13e2b0	0.036104858
67	0x3d34df1a	0.04415808
68	0x3d98c785	0.0745993
69	0x3d8cb90d	0.06871233
70	0x3d92cab1	0.071675666
71	0x3ce598b4	0.028026916
72	0xbd820822	-0.063492075
73	0xbb8d0dc0	-0.0043046176
74	0x3db3f223	0.08786418
75	0xbd8421dc	-0.06451771
76	0xbd841b52	-0.064505234
77	0x3d350f3e	0.04420399
78	0x3c99692c	0.018726908
79	0xbd324608	-0.04352382
80	0xbd6bd1bd	-0.05757307
81	0x3d8ca313	0.068670414
82	0xbc8e7870	-0.017391413
83	0xbad36a40	-0.0016129687
84	0xbcc4680c	-0.023975395
85	0xbd198f20	-0.03749001
86	0x3cfdd010	0.030983001
87	0x3d45d262	0.04829634
88	0xbb135740	-0.0022482425
89	0xbc9a4bfc	-0.01883506
90	0x3d081990	0.033227503
91	0x3d5cf9e2	0.053949244
92	0x3b011dc0	0.001970157
93	0x3cee55e0	0.029093683
94	0xbd4615fc	-0.04836081
95	0x3d6cd272	0.057817884
96	0x3d945725	0.07243184
97	0xbb780760	-0.0037846193
98	0xbd1d3b78	-0.038386792
99	0xbc0d8d00	-0.008639574
100	0x3d7883ea	0.060672678
101	0x3b4b3ca0	0.0031011477
102	0x3bb20480	0.0054326653
103	0x3da3afc3	0.07992508
104	0xbd59f49d	-0.053211797
105	0x3c71fae0	0.014769286
106	0xbd86d0b2	-0.06582774
107	0xbc8cf9fc	-0.017209046
108	0x3d50fd4e	0.05102282
109	0x3d8b3365	0.06796912
110	0xbd8c3e2d	-0.068477966
111	0x3c892718	0.016742274
112	0x3a9bcc40	0.0011886433
113	0xbcc90604	-0.024539001
114	0x3d5d038a	0.053958453
115	0xbd9bc548	-0.07605988
116	0x3d48a1de	0.048982494
117	0xbd044f9c	-0.032302484
118	0xbd1d91f2	-0.038469262
119	0xbd2cf74b	-0.042228024
120	0x3c894100	0.016754627
121	0x3ceecdbc	0.029150836
122	0xbd9dbf66	-0.07702522
123	0x3d92ddd7	0.07171219
124	0x3ca8f038	0.020622358
125	0xbd802b7a	-0.062582925
126	0x3cf7b990	0.03023985
127	0x3bdb8be0	0.006700024
128	0xbb677640	-0.0035318285
129	0x3cfb9f1c	0.030715518
130	0xbc867b64	-0.01641626
131	0x3d8bf135	0.06833116
132	0xbc8e78b4	-0.01739154
133	0x3d726ea2	0.05918754
134	0xbdac78be	-0.08421467
135	0xbbecf3b0	-0.0072311983
136	0xbdafe19d	-0.08587954
137	0xb82f5000	-4.1797757e-05
138	0xbc9b1d20	-0.018934786
139	0xbca4b1f4	-0.020104386
140	0x3cd52dc0	0.026022792
141	0xbcee3ee6	-0.029082727
142	0x3c7529e0	0.014963597
143	0x3d9f4c0f	0.07778179
144	0x3d99db89	0.07512576
145	0x3c7af980	0.0153182745
146	0x3d6e7b16	0.058222853
147	0xbd48a1ed	-0.04898255
148	0xbcf843e8	-0.030305818
149	0xbd1c589c	-0.038170442
150	0xbd872db6	-0.066005155
151	0x3d6588d6	0.0560387
152	0xbc6c1b90	-0.014410868
153	0xbd2a1531	-0.041524116
154	0xbd9d9ae3	-0.07695558
155	0x3d8b7017	0.06808489
156	0x3a31fe80	0.00067899376
157	0x3d8cf335	0.068823256
158	0xbc94d0b8	-0.018165931
159	0xbd9b2058	-0.075745285
160	0xbd9b5aec	-0.07585701
161	0xbbd83a30	-0.0065987334
162	0xbcdc46d0	-0.026889235
163	0x3d24003a	0.04003928
164	0xbd873f0a	-0.066038206
165	0xbd3eb8c9	-0.046562944
166	0xbd3cb9d2	-0.04607565
167	0x3be4eb40	0.006986052
168	0x3ba50450	0.0050359145
169	0xbca16378	-0.01970075
170	0xbce71948	-0.028210297
171	0xbcd4fa98	-0.025998399
172	0xbbd436d0	-0.0064762607
173	0xbd2a3a21	-0.041559342
174	0xbcd7904a	-0.02631392
175	0x3d2a2656	0.041540466
176	0x3d26c456	0.040714584
177	0x39d27a00	0.00040145218
178	0x3d007602	0.03136254
179	0x3c093a70	0.008375749
180	0x3b278b80	0.0025565326
181	0x3bbf7260	0.005842492
182	0xbbbb3210	-0.005712755
183	0xbd061d6d	-0.032742906
184	0xbd04dd37	-0.03243753
185	0xbd824d58	-0.063624084
186	0x3d63d8e6	0.055626772
187	0x3d86fe6b	0.06591495
188	0x3c53e630	0.012933299
189	0x3d813d4d	0.0631052
190	0xbd854def	-0.06509005
191	0xbbf947f0	-0.0076074526
192	0xbd06e8e2	-0.032936938
193	0xbd303c10	-0.04302603
194	0xbd89c2da	-0.06726618
195	0x3d150026	0.036377095
196	0x3b3732e0	0.0027953908
197	0xbac495c0	-0.0014998242
198	0xbcf4a406	-0.029863369
199	0xbd99e934	-0.07515183
200	0x3c1f6f90	0.009731188
201	0x3cbe50d0	0.023231894
202	0xbd937a26	-0.07201032
203	0xbd0674a5	-0.032826085
204	0x3d2038ea	0.039116777
205	0xbc43c0c8	-0.011947818
206	0x3d7ea48e	0.06216865
207	0x3d8b8b6b	0.06813701
208	0xbd1f6955	-0.03891881
209	0x3cccff4c	0.025024079
210	0xbd9e40af	-0.07727181
211	0xbcd819de	-0.026379522
212	0xbdb2250d	-0.08698473
213	0xbc9c3668	-0.019068912
214	0xbdb39e7f	-0.08770465
215	0xbced0700	-0.028934002
216	0x3d959459	0.07303686
217	0x3d7cb3b6	0.061694823
218	0xbdb28c89	-0.08718211
219	0x3d3eab1a	0.046549894
220	0xbb87f6e0	-0.004149303
221	0xbb2033e0	-0.0024444982
222	0x3d1ccc76	0.038280927
223	0xbd63ffa4	-0.05566372
224	0x3d0fa62c	0.035070583
225	0xbd8e5885	-0.069504775
226	0x3c87821c	0.016541533
227	0x3c039a80	0.008032441
228	0xbd1ff321	-0.039050225
229	0x3ca4871c	0.020083956
230	0x3da07e35	0.07836572
231	0x3cd043c8	0.025422946
232	0xbd998bb3	-0.07497349
233	0xbd1e43f5	-0.038639028
234	0x3dac1773	0.0840291
235	0xbbaca800	-0.0052690506
236	0xbd826c3a	-0.06368299
237	0x3c6f89f0	0.014620289
238	0x3db142e1	0.08655334
239	0x3bc9b0e0	0.0061551183
240	0x3ccf5ea4	0.025313683
241	0x3cf0b728	0.02938421
242	0xbda33a04	-0.0797005
243	0xbcb8464c	-0.022494458
244	0xbcfe32dc	-0.031030111
245	0xbda799aa	-0.08183606
246	0x3c12b130	0.008953378
247	0x3dabb1af	0.083835
248	0xbd2d0446	-0.042240404
249	0x3c91bbb4	0.0177897
250	0x3d95a92d	0.07307658
251	0xbd4c1f8e	-0.04983478
252	0x3d82294b	0.06355532
253	0xbcf0939c	-0.02936726
254	0xbd07a0e3	-0.033112418
255	0x3bda2950	0.006657757

shit.0.bias f4 [256]
0	0x3d77e622	0.060522206
1	0x3cc1bb30	0.023648828
2	0xbd98f371	-0.07468308
3	0x3d30d3b6	0.043170653
4	0x3bbfbb50	0.005851187
5	0x3c18c200	0.009323597
6	0xbd5d0f09	-0.053969417
7	0xbad17100	-0.0015979111
8	0xbd91d63e	-0.071209416
9	0xbc81b8c8	-0.01583518
10	0xbdb1c301	-0.08679772
11	0xbd457a85	-0.048212547
12	0xbd7d1782	-0.061789997
13	0x3d15b72c	0.03655164
14	0xbd0d46cf	-0.034491356
15	0xbd0f94c2	-0.035053976
16	0xbd506a17	-0.050882425
17	0xbd4ae553	-0.049535107
18	0x3c000ef0	0.007816061
19	0x3b649820	0.0034880713
20	0x3d8ae459	0.06781835
21	0xbd617da2	-0.055051453
22	0xbc023e98	-0.007949494
23	0xba26a800	-0.00063574314
24	0xbce726f0	-0.028216809
25	0xbdb2097d	-0.08693216
26	0xbd190c25	-0.037365098
27	0x3d3a4256	0.04547342
28	0x3be47140	0.0069715083
29	0xbd8caba4	-0.06868675
30	0xbd28f42d	-0.04124849
31	0x3d959653	0.07304063
32	0x3d0c473e	0.03424763
33	0x3ca19a40	0.019726872
34	0x3d86fd85	0.06591324
35	0xbb112200	-0.002214551
36	0x3dab5ae9	0.08366949
37	0x3d57fbe2	0.05273045
38	0x3ce32f0c	0.027732395
39	0xbd835d18	-0.064142406
40	0x3d496586	0.049169086
41	0xbd34542c	-0.044025585
42	0xbcc384ec	-0.023867093
43	0xbd126418	-0.035739988
44	0x3c955614	0.018229522
45	0x3d3b1456	0.04567369
46	0xbd17e05b	-0.037079196
47	0xbd90548b	-0.07047375
48	0x3daf3441	0.085548885
49	0x3d69ca56	0.05707773
50	0x3d9aa9b9	0.07551903
51	0xbd942d32	-0.07235183
52	0x3d67bf42	0.056578882
53	0x3cbf7f08	0.023376003
54	0x3d6371b6	0.055528365
55	0xbd998877	-0.07496732
56	0xbd338c54	-0.043835
57	0x3d6ea672	0.058264203
58	0x3d58080a	0.05274204
59	0xbd87f630	-0.066387534
60	0x3d1dd02e	0.038528614
61	0xba64e180	-0.0008731112
62	0x3d58c79a	0.05292473
63	0xbd3bfd03	-0.045895588
64	0xbd8a681f	-0.06758141
65	0x3d53ea3e	0.051737063
66	0x3d7979ca	0.060907163
67	0x3d55b8e6	0.052178286
68	0xbd6a353e	-0.057179682
69	0x3b58ef40	0.0033101588
70	0x3a887580	0.0010410994
71	0x3d68a6a6	0.056799553
72	0x3cf4e248	0.029893056
73	0xbb482c40	-0.0030543953
74	0xbcdb3420	-0.026758254
75	0xbd360659	-0.044439647
76	0xbd56d3ed	-0.052448202
77	0x3cace2d4	0.021104254
78	0xbda5df0c	-0.080991834
79	0xbd959ec2	-0.07305671
80	0xbd013c71	-0.031551782
81	0x3d47a4ca	0.04874114
82	0x3d9db06d	0.07699666
83	0x3cef5f8c	0.029220365
84	0x3d914225	0.07092694
85	0xbc6448c0	-0.013933361
86	0x3c880b9c	0.016607098
87	0x3b39a780	0.0028328598
88	0xbd9b4bbf	-0.07582807
89	0xbd8bcae4	-0.06825808
90	0x3c7cefe0	0.01543805
91	0x3d50b986	0.05095818
92	0x3acff340	0.0015865341
93	0xbd385158	-0.04499945
94	0xbd39f996	-0.04540404
95	0x3cd2f110	0.025749713
96	0x3d8f380d	0.06993113
97	0xbd8db63f	-0.06919526
98	0xbd71adae	-0.059003524
99	0x3c84ea7c	0.016225092
100	0xbd7ff5e8	-0.062490374
101	0x3cb21e34	0.021742918
102	0x3d8cf569	0.06882746
103	0xbd1dc059	-0.038513515
104	0xbd1ee43d	-0.038791884
105	0x3d876395	0.06610791
106	0xbc543260	-0.012951463
107	0x3c83e214	0.016099013
108	0x3d29bec2	0.041441686
109	0xbcf29520	-0.029612124
110	0xbd3e264d	-0.046423245
111	0x3da3f475	0.08005611
112	0x3c334cc8	0.010943599
113	0x3d9b90a1	0.07595945
114	0x3ce09170	0.0274131
115	0xbbf8d4c0	-0.007593721
116	0xbcf2be78	-0.029631838
117	0xbcfea8e2	-0.031086389
118	0x3b85dce0	0.0040851682
119	0xbdb0eb8b	-0.08638676
120	0xbd42500e	-0.047439627
121	0x3c5681f8	0.01309251
122	0x3c524840	0.012834609
123	0xbce97488	-0.02849795
124	0xbda6f784	-0.081526786
125	0xbc89ffb8	-0.016845569
126	0xbd292f21	-0.04130471
127	0x3cfbd910	0.030743152
128	0xbb358700	-0.0027698874
129	0x3d290bfe	0.041271202
130	0xbd2ce7fa	-0.042213418
131	0xbd264b63	-0.040599238
132	0xbdb46c78	-0.08809751
133	0xbd73da78	-0.05953452
134	0xbcf03d0e	-0.029325988
135	0x3d81da6f	0.06340491
136	0x3c89dd40	0.016829133
137	0xbd177d89	-0.036984954
138	0x3cdabf64	0.02670259
139	0xbd15d8c6	-0.036583684
140	0xbbb4e450	-0.005520381
141	0x3d02a316	0.031893812
142	0xbd4387b4	-0.04773684
143	0x3d7d7e32	0.061887927
144	0x3d388a0e	0.045053534
145	0x3cfa8ac4	0.030583747
146	0xbd91e910	-0.07124531
147	0xbd84b23a	-0.064793065
148	0x3d5bcae2	0.05366028
149	0xbd49c939	-0.049264167
150	0xbccaa500	-0.024736881
151	0xbc8754b4	-0.016519882
152	0x3db0c27d	0.08630846
153	0x3cd17294	0.02556733
154	0xbd43683c	-0.047706828
155	0x3d1467de	0.036231868
156	0xbd38a967	-0.04508343
157	0xbcfb3986	-0.030667078
158	0xbd2dce5a	-0.04243312
159	0xbd8d51d3	-0.06900372
160	0xbcfbb440	-0.030725598
161	0xbd18aa63	-0.03727187
162	0x3d1ea7da	0.038734294
163	0xbd50af11	-0.050948206
164	0x3d4c5402	0.049884804
165	0xbcc2d09c	-0.023781113
166	0x3d1d3542	0.03838087
167	0xbd7ddf6c	-0.06198065
168	0x3d9ef071	0.07760704
169	0xbb0f1580	-0.0021832883
170	0xbd11b19b	-0.03556977
171	0x3cda1870	0.02662298
172	0xbc3d7728	-0.011564054
173	0xbd88c53a	-0.06678243
174	0x3d43400a	0.047668494
175	0x3d1c944a	0.038227357
176	0x3d6394a2	0.05556167
177	0xbdb4c57b	-0.08826729
178	0xbdad1eac	-0.08453116
179	0xbace0880	-0.0015719086
180	0xbce1a09c	-0.027542405
181	0x3d23b26e	0.039965086
182	0xbd283cbc	-0.041073546
183	0xbd0dbdfb	-0.034605008
184	0x3da32cf3	0.07967558
185	0xbc55a290	-0.013039246
186	0x3d440636	0.047857486
187	0xbbf12fe0	-0.0073604435
188	0xbda44223	-0.08020427
189	0x3b20dae0	0.0024544522
190	0x3d0f693c	0.03501247
191	0x3a3c3c80	0.0007180646
192	0xbcbe9478	-0.023264155
193	0xbd5942d5	-0.05304225
194	0x3d758ac2	0.059946783
195	0xbd9d324f	-0.07675611
196	0xbda9e307	-0.08295255
197	0xbd6808a6	-0.056648873
198	0x3c31c8d8	0.010851108
199	0x3d3e7b7a	0.046504475
200	0xbd4c0db6	-0.049817763
201	0xbcb485a4	-0.022036381
202	0x3d792a32	0.060831256
203	0xbd294723	-0.041327607
204	0x3c667008	0.014064796
205	0xbc63dcc8	-0.013907619
206	0xbd9313e6	-0.0718153
207	0xbd42c2a1	-0.047548894
208	0xbcd269fc	-0.025685303
209	0xbd604e32	-0.054762073
210	0x3d5e0fca	0.054214276
211	0x3d464b3a	0.048411585
212	0xbd5ce8aa	-0.053932823
213	0x3d8e853b	0.069590054
214	0x3d56c7ae	0.052436523
215	0x3d1d493a	0.038399912
216	0x3d6e20f6	0.058136903
217	0xbd7b9ce2	-0.061428912
218	0xbcd88264	-0.026429363
219	0x3d420506	0.047368072
220	0x3d97fcd7	0.07421272
221	0x3d54ca7e	0.051950924
222	0xbdb3b170	-0.08774078
223	0x3d0cb9ec	0.034356996
224	0x3d9ba591	0.07599939
225	0xbcad6a7c	-0.02116894
226	0xbd12b5a8	-0.035817772
227	0x3d4ad78a	0.04952196
228	0x3c98a194	0.018631734
229	0xbcd094fc	-0.025461666
230	0x3d6ed96a	0.05831281
231	0x3bb4bb40	0.005515486
232	0xbc321b68	-0.010870792
233	0x3d44c3b6	0.048038207
234	0x3d1f3e5e	0.038877837
235	0x3c115b60	0.008871883
236	0xbc9efd40	-0.019407868
237	0xbd79eb4c	-0.061015412
238	0x3d546d82	0.051862247
239	0xbd57ad2f	-0.052655395
240	0x3d967737	0.07346957
241	0x3d734782	0.059394367
242	0x3c394bb8	0.011309557
243	0xbd7f7bd7	-0.062373962
244	0x3d47018e	0.048585467
245	0x3a38ee00	0.0007054508
246	0xbcf1503a	-0.0294572
247	0x3d1a577a	0.03768108
248	0x3d71b37e	0.059009068
249	0x3da55a97	0.08073919
250	0xb9fa4f00	-0.00047742575
251	0xbd8af070	-0.06784141
252	0x3cbe2a40	0.023213506
253	0x3b8342e0	0.004005775
254	0xbc3b4bb8	-0.011431627
255	0x3d9f8bc9	0.07790334

shit.2.weight f4 [128, 256]
0	0x3c8a7868	0.016903117
1	0xbd340b18	-0.043955892
2	0xbca39128	-0.019966677
3	0x3d0a4f60	0.033767104
4	0x3c850358	0.016236946
5	0x3d43ade8	0.04777327
6	0xbc2d7d20	-0.010588914
7	0x3d3b0dec	0.045667574
8	0x3cdbd180	0.026833296
9	0x3cc2f800	0.023799896
10	0x3cee5964	0.02909536
11	0x3d00d2b8	0.031450957
12	0x3ce537f8	0.02798079
13	0xbd5a5610	-0.05330473
14	0xbcc4840c	-0.023988746
15	0xbd3df870	-0.046379507
16	0xbcba2468	-0.022722438
17	0x3cbba028	0.022903517
18	0xbcc51888	-0.024059549
19	0xba896400	-0.0010482073
20	0x3b500ea0	0.0031746998
21	0xbba32af0	-0.004979484
22	0x3d0a634c	0.033786103
23	0x3d1f8740	0.038947344
24	0x3d272d5c	0.040814742
25	0xbcd241f8	-0.025666222
26	0xbc862a1c	-0.016377501
27	0xbb0a0dc0	-0.0021065325
28	0x3c58a668	0.013223268
29	0xbd009aac	-0.031397507
30	0x3d12f3b4	0.035876945
31	0x3d3ba244	0.045809045
32	0xbc81f270	-0.015862674
33	0xbceaf26c	-0.028680049
34	0xbcfcd5e0	-0.030863702
35	0x3d269bca	0.040675916
36	0xbd3e21fa	-0.04641912
37	0xbd2a76b0	-0.041617095
38	0xbcef89c0	-0.029240489
39	0xbd7859ae	-0.0606324
40	0x3d1a416a	0.03766004
41	0x3c873a1c	0.0165072
42	0x3bf997c0	0.007616967
43	0x3d4da46c	0.050205633
44	0xbd694768	-0.056952864
45	0x3c458cc8	0.012057491
46	0x3d00713c	0.03135799
47	0xbc322510	-0.010873094
48	0xbae7f300	-0.0017696321
49	0x3cfdf9c8	0.031002894
50	0xbcca085c	-0.02466219
51	0xbd5198aa	-0.051170982
52	0xbd6932e0	-0.056933284
53	0x3ae4c740	0.0017454401
54	0x3d6f905c	0.05848728
55	0xbd09fcf6	-0.033688508
56	0x3bea1d20	0.0071445853
57	0x3cee7ee0	0.029113233
58	0xbbfe1870	-0.007754378
59	0xbd0ad094	-0.03389032
60	0xbd49ad5a	-0.049237587
61	0xbd3b5c0e	-0.045742087
62	0xbd1720d2	-0.036896534
63	0x3d1b508a	0.037918605
64	0x3d0cf64a	0.034414567
65	0x3cf30148	0.029663697
66	0xbd2b87d0	-0.041877568
67	0x3d7a3d34	0.061093524
68	0x3d1724f4	0.036900476
69	0x3d1e5c00	0.038661957
70	0x3c1d10c0	0.009586513
71	0x3d2eebf2	0.042705484
72	0xbc29ca48	-0.010363169
73	0xbcba007c	-0.02270531
74	0xb9cfc400	-0.00039628148
75	0x3d345f08	0.04403594
76	0x3d19c9bc	0.037545905
77	0x3cfedf70	0.031112403
78	0xbcb38118	-0.021912143
79	0xbca4feb8	-0.02014099
80	0xbd1e2c6e	-0.03861659
81	0xbd035cf2	-0.03207106
82	0xbd0af28a	-0.03392271
83	0xbd5f9e76	-0.05459448
84	0xba888040	-0.0010414198
85	0x3d2fae78	0.042890996
86	0xbca33b9c	-0.019925885
87	0xbd3010ee	-0.042984895
88	0xbb256840	-0.002523914
89	0xbd10ee58	-0.035383552
90	0x3cb7acd4	0.022421278
91	0xbcc40b0c	-0.023931049
92	0x3aa08580	0.0012246817
93	0x3cdb6a64	0.02678413
94	0xbcec5564	-0.028849311
95	0x3d76602c	0.06015031
96	0x3d4bf648	0.04979542
97	0xbd1efbd4	-0.03881438
98	0x3c0306f0	0.0079972595
99	0xba8db180	-0.0010810345
100	0xbd7c0a1e	-0.061533086
101	0x3d660054	0.056152657
102	0xbaabbec0	-0.0013103113
103	0x3d7a9cce	0.061184697
104	0xbcc6ad14	-0.024252452
105	0x3b8205c0	0.0039679706
106	0x3c701650	0.014653757
107	0xbd37338a	-0.044726886
108	0xbc023eb0	-0.007949516
109	0xbc99a5bc	-0.018755786
110	0x3d273ef6	0.04083153
111	0x3cbc2ad0	0.022969633
112	0xbd5f267e	-0.05448007
113	0x3d293880	0.04131365
114	0xb9930e00	-0.00028048456
115	0x3d78fcf4	0.06078811
116	0xbc624f90	-0.0138129145
117	0x3d025fec	0.03182976
118	0x3d777aaa	0.060419716
119	0x3d1e6ce6	0.038678072
120	0xbca65a48	-0.020306721
121	0x3c6c1ca8	0.014411129
122	0x3d0d66ac	0.034521744
123	0x3cee7fec	0.029113732
124	0x3d168764	0.036750212
125	0xbd6ce772	-0.05783791
126	0x3d76198a	0.06008295
127	0xbd48882c	-0.04895799
128	0xbd63d8c8	-0.05562666
129	0x3cfcd820	0.030864775
130	0x3ba88f00	0.005144
131	0x3d6f35bc	0.058400854
132	0xbcb75b8c	-0.02238252
133	0xbd02bf74	-0.031920865
134	0xbd21a72a	-0.03946606
135	0xbca87c8c	-0.020567201
136	0xbcfa5d78	-0.030562147
137	0x3d70a5f2	0.058752008
138	0xbca90020	-0.020629942
139	0x3cd4fafc	0.025998585
140	0xbc91a258	-0.017777607
141	0x3ccd75a8	0.025080517
142	0x3b03a4a0	0.0020087138
143	0xbd0fd542	-0.035115488
144	0xbd1f79e6	-0.03893461
145	0x3d474ffe	0.04866027
146	0x3b916290	0.0044367984
147	0x3d242118	0.040070623
148	0x3c2597f8	0.010107033
149	0x3d78c71a	0.060736753
150	0xbcbda284	-0.023148783
151	0xbd564d62	-0.05231989
152	0x3d5fbb34	0.05462189
153	0xbc9ca590	-0.019121915
154	0xbd35420e	-0.044252448
155	0xbcabc244	-0.020966657
156	0x3cc4678c	0.023975156
157	0xbd7bc79c	-0.06146966
158	0xbd25f1f2	-0.04051394
159	0x3c8aaad0	0.016927153
160	0xbd6e70ba	-0.058212973
161	0x3d2a3b04	0.041560188
162	0xbd6f00e2	-0.05835045
163	0xbd4d8bec	-0.050182268
164	0xbd6e1de8	-0.05813399
165	0xbca5e06c	-0.020248614
166	0xbba1b7e0	-0.0049352497
167	0xba1e1980	-0.00060310215
168	0xbcc20aa4	-0.023686714
169	0x3cfb1d24	0.030653544
170	0xbc206d68	-0.0097917095
171	0xbd5332fc	-0.051562294
172	0xbd2298ea	-0.03969661
173	0xbaf8ab80	-0.001897201
174	0x3d07382c	0.033012554
175	0xbd34b4e6	-0.04411783
176	0x3cf84890	0.030308038
177	0xbd1f4b9a	-0.03889046
178	0x3b56a6c0	0.00327532
179	0xbba94da0	-0.0051667243
180	0x3d234fc6	0.039871
181	0x3cd9652c	0.0265375
182	0x3d2597ec	0.040428087
183	0x3c0303e8	0.007996537
184	0xbd31a34c	-0.043368623
185	0x3d217cec	0.039425775
186	0x3d3dfcbc	0.046383604
187	0xbd3b12f2	-0.045672365
188	0x3d3d15b2	0.04616327
189	0x3d161974	0.036645368
190	0xbcc63e24	-0.024199553
191	0xbd0c5424	-0.03425993
192	0x3d4b1526	0.049580716
193	0x3c942bc8	0.018087283
194	0xb6af4000	-5.222857e-06
195	0x3d7e5b80	0.06209898
196	0x3d5e51ea	0.054277338
197	0x3c2ff3c8	0.010739274
198	0x3c55bfa0	0.013046175
199	0xbc0b5cb0	-0.008505985
200	0x3d1bfe0c	0.038084075
201	0xbbb8fe40	-0.0056455433
202	0xbcb694b8	-0.022287712
203	0x3bbfa9b0	0.0058490857
204	0xbc8bacb4	-0.017050125
205	0x3cb292f8	0.021798596
206	0x3d04dc04	0.032436386
207	0x3d54fa40	0.05199647
208	0xbd5b7916	-0.053582273
209	0xbc07f408	-0.008297928
210	0x3c658b00	0.014010191
211	0x3d2baa36	0.041910373
212	0xba6fdb00	-0.000914976
213	0x3d284610	0.04108244
214	0xbc72f208	-0.014828213
215	0x3aea0c40	0.0017856434
216	0x3cf58dd8	0.029974863
217	0xbc9f02b0	-0.019410461
218	0xbd63ac76	-0.055584393
219	0xbcc299cc	-0.023754977
220	0xbd7e2ce2	-0.062054522
221	0x3d30c0a0	0.04315245
222	0x3d3fc5c2	0.046819456
223	0xbced566c	-0.028971873
224	0x3cc60110	0.024170429
225	0x3c741738	0.014898114
226	0x3d567c32	0.052364536
227	0x3cb93d18	0.02261214
228	0xbd2f7bf6	-0.042842828
229	0xbc5433e0	-0.012951821
230	0x3d439c96	0.047756754
231	0xbc752348	-0.014962025
232	0x3d300772	0.04297585
233	0x3d0fb00c	0.03508
234	0xbcd58048	-0.026062146
235	0xbd70a100	-0.05874729
236	0x3d6bb910	0.057549536
237	0x3d34b77c	0.044120297
238	0x3d0a2c78	0.033733815
239	0x3d740c92	0.0595823
240	0x3a5e1080	0.00084710866
241	0x3b4b9900	0.0031066537
242	0x3bbbfd50	0.0057369843
243	0xbc9d4208	-0.019196525
244	0x3d6c56c0	0.05769992
245	0xbacb4880	-0.0015509278
246	0x3beac840	0.007164985
247	0xbb80ddb0	-0.003932677
248	0xbc98a11c	-0.01863151
249	0x3ccc3f74	0.0249326
250	0xbd797d94	-0.060910776
251	0x3d348c4e	0.044079117
252	0xbc1d5a38	-0.009604029
253	0xbccdcd48	-0.0251223
254	0x3c550aa0	0.0130030215
255	0x3d695be0	0.056972384
