src/temp/model/checkpoint_0_Interrupt.pth (torch, 923227 bytes, 17 tensors)

actor.0.weight f4 [32, 1, 3, 3]
000000 70 1f 9d 3d 5b c6 00 be 20 2b 55 bc 58 4f 72 bd
       0.07672012 -0.12575667 -0.01301077 -0.0591577
000010 9c 50 b5 bd 12 78 60 3e a5 99 87 3e 00 32 90 3d
       -0.08853266 0.21920803 0.2648441 0.07040787
000020 00 10 06 3c 56 71 2d 3e 90 f3 f3 3d e0 59 4c be
       0.008182526 0.16937765 0.1191169 -0.1995616
000030 ba fa 79 3e 12 af 2d 3e 1f 2b a3 be 28 bf 7c 3d
       0.24412051 0.16961315 -0.31868836 0.06170574
000040 c8 c9 49 3d 44 12 99 3d ba 58 4a 3e c8 0f 2f 3d
       0.0492647 0.07474187 0.19760409 0.04273966
000050 18 cb 3f 3d 82 eb 99 be 22 67 4b 3e 31 eb 81 3e
       0.046824545 -0.3006249 0.19863561 0.2537475
000060 58 6b 1d 3e fb 4e 64 be 50 24 a4 3c 00 2c 79 bb
       0.1537298 -0.22295754 0.020036846 -0.003802061
000070 25 c6 a7 3e 54 ce c2 3d 08 38 46 3d 80 37 f8 bc
       0.3276836 0.0951201 0.04839328 -0.030299902
000080 b8 78 63 bd 12 8d 08 3e e9 e8 9c 3e b4 a7 cb 3d
       -0.05553505 0.13335064 0.30646446 0.09944096
000090 7b 6a 63 be 99 e2 8b 3e 5d 96 a9 3e 37 95 a5 be
       -0.22208588 0.27321318 0.3312253 -0.32340404
0000a0 72 1e a0 be 00 e0 89 bd 66 d3 fd bd 84 6d 9e be
       -0.31273228 -0.06732178 -0.12393837 -0.3094293
0000b0 8f 48 8d be b5 0c 98 3e be 49 9b be 27 ba 9b be
       -0.2759442 0.29697195 -0.30329698 -0.3041546
0000c0 32 ae 51 3e c6 b9 27 be 4a 50 58 3e 03 ed 77 be
       0.20476606 -0.1637946 0.21124378 -0.24211507
0000d0 7e fb 74 3e e0 83 2a bc b8 33 15 be 02 5d 0c 3e
       0.23924062 -0.010407418 -0.1457051 0.13707355
0000e0 6e 3e 6a be ac da 91 3d 95 92 a9 3e 80 fb 9f bd
       -0.22875378 0.071217865 0.33119646 -0.07811642
0000f0 97 93 90 3e 32 80 3b 3e 40 f0 f2 3c 06 b8 47 3e
       0.28237602 0.18310621 0.029655576 0.19503793
000100 b6 65 53 be 31 d0 97 3e e3 7f 9b 3e 42 64 55 3e
       -0.20644268 0.29651025 0.30371007 0.20839027
000110 06 c1 3a be c0 1b a8 be e8 b8 5c 3d 76 cf 38 be
       -0.18237695 -0.32833672 0.053887278 -0.1804789
000120 14 a6 9e 3d 20 b4 5f 3c 2c d6 d3 3d e8 15 3b be
       0.07746521 0.013653785 0.103435844 -0.18270075
000130 10 5e b4 bc 00 80 1f 3d 06 6e cb bd c0 21 f9 bd
       -0.022017509 0.03894043 -0.09933095 -0.121646404
000140 80 43 53 3c 6a 47 17 3e a6 21 17 be 78 91 5e bd
       0.012894511 0.14773336 -0.1475893 -0.05433795
000150 f4 b6 b3 3d cb c7 27 be 86 41 99 be 3e a0 3e 3e
       0.0877513 -0.16384809 -0.29932803 0.18615815
000160 53 89 97 3e c3 5d 4f be 1a 4d 7a 3e 80 69 aa bd
       0.29596958 -0.20250611 0.24443474 -0.08320904
000170 85 8a 85 3e 5a bc 72 3e 6c 76 d3 3d 5b f6 93 3e
       0.26082245 0.23704663 0.103253216 0.28898892
000180 c1 d8 95 3e 20 06 66 bd 35 d2 83 3e 80 62 bf 3d
       0.29266933 -0.056158185 0.25746313 0.09344959
000190 f0 c5 e7 3c d8 cb 17 bd d0 89 94 3c 6c 71 a0 3d
       0.028292626 -0.037059635 0.01813212 0.078341335
0001a0 e4 8c b3 3d 8a 85 64 3e 9a 12 6a 3e 00 2f b5 bb
       0.08767107 0.22316566 0.22858658 -0.0055292845
0001b0 18 d3 29 be 20 1b ec bd 8b ea 52 be 09 27 8d 3e
       -0.16584432 -0.11528611 -0.20597284 0.27568844
0001c0 96 ca 1c be db c9 92 3e 3a d8 6e 3e 8f 5a a1 be
       -0.15311655 0.28669629 0.23324671 -0.31514403
0001d0 91 f9 83 3e 8e f0 45 3e 46 55 74 be 00 80 8c 38
       0.25776342 0.19330046 -0.23860654 6.699562e-05
0001e0 10 77 eb 3c 56 db 6a be f1 0f 9d 3e d6 4a a2 be
       0.028743297 -0.22935233 0.30676225 -0.3169772
0001f0 6e ca 6c 3e c0 fb b1 3b a0 c6 d5 bd a4 34 a9 bd
       0.23124096 0.0054316223 -0.10438275 -0.082619935
000200 28 2c 52 3d 80 c6 f4 bc 6d 08 85 3e d3 14 43 be
       0.051311642 -0.029879808 0.2598299 -0.19050913
000210 34 cb d9 3d b0 48 d4 bc ea 59 45 3e 0a 36 33 3e
       0.10634461 -0.025913566 0.1927258 0.17501083
000220 60 1c 1f 3d 87 23 94 3e 5b 3f 36 be fa 2a 03 3e
       0.03884542 0.28933355 -0.17797606 0.12809363
000230 eb 61 8a 3e 18 3b 6c bd 22 9a 4f 3e b6 aa 0d 3e
       0.2702783 -0.057673544 0.20273641 0.13834652
000240 89 9c 9d 3e 10 18 97 be ec 42 d1 bd 03 4e 01 be
       0.3078349 -0.29510546 -0.102178425 -0.12627415
000250 48 5b 55 be c0 ce c3 bb 61 b8 9c 3e 5e 70 75 3e
       -0.20835602 -0.0059755743 0.3060942 0.23968646
000260 1f f1 a9 3e 50 b2 8b 3c 3c c8 dc 3d d2 87 62 3e
       0.33191773 0.0170528 0.10780379 0.22122124
000270 20 12 07 3d cc de df bd 80 48 7b 3c 2a d1 6c 3e
       0.03297627 -0.10931167 0.01533711 0.23126665
000280 6e f2 53 be 33 5c 5c be e4 a7 86 3d 72 1e 49 3e
       -0.20697948 -0.21519546 0.06574991 0.1964052
000290 fe bf 02 3e db 8b 53 be f0 fd 8c 3c d1 67 8c 3e
       0.12768552 -0.2065882 0.01721093 0.27422956
0002a0 b8 63 0e bd e6 d9 34 be 20 eb 27 be 00 86 77 3a
       -0.034763068 -0.17661247 -0.16398287 0.000944227
0002b0 20 6c 98 bd ba 63 2b 3e bd c0 8a 3e b0 ba 8f be
       -0.07442498 0.16737261 0.27100173 -0.2807212
0002c0 42 a1 63 3e 7e 48 0d 3e 46 24 11 3e 7a 6b 35 3e
       0.22229484 0.13797185 0.14173993 0.1771678
0002d0 4b 20 22 be f7 64 97 be c4 60 e8 3d 72 a8 70 3e
       -0.15832631 -0.29569218 0.113465816 0.23501757
0002e0 da 60 53 3e ba 57 2c 3e 08 42 20 3d f5 3b 94 3e
       0.20642415 0.1683034 0.039125472 0.28951994
0002f0 57 69 8f be 30 13 dd 3d 34 d9 87 be 69 e8 a1 3e
       -0.28010055 0.10794675 -0.265329 0.31622627
000300 40 f9 e0 bc c0 26 b0 3d b8 5c 5e bd 70 bb 81 be
       -0.027462602 0.08601141 -0.054287642 -0.25338316
000310 0e 63 6d be 00 cb ca ba f6 68 50 3e 96 c7 04 be
       -0.23182318 -0.0015471876 0.2035254 -0.12966761
000320 02 09 68 3e e0 ea 09 bc 03 e4 13 be 8e 56 18 3e
       0.22659686 -0.008417815 -0.14442448 0.14876768
000330 8a aa 58 3e 6e 37 53 be 66 2a 62 be fe fd 78 be
       0.21158805 -0.20626613 -0.22086486 -0.2431564
000340 30 1e f4 3c b3 91 3e be e8 19 13 3e bc 2a bf 3d
       0.02979955 -0.18610267 0.14365351 0.09334323
000350 21 9c 95 3e 58 e4 85 be 44 8b 84 3d a2 8b 6c 3e
       0.2922068 -0.26150775 0.06471875 0.2310014
000360 31 75 a0 3e e2 47 7a 3e a0 a0 64 bd 16 37 1d 3e
       0.3133941 0.24441484 -0.055817246 0.15353045
000370 44 5b 99 be 22 76 4d 3e 86 ca ba bd 50 26 f7 3d
       -0.29952443 0.20064595 -0.091206595 0.120678544
000380 96 cc 55 be 6a aa 1d 3e d7 d4 9e 3e be e6 63 3e
       -0.20878825 0.15397039 0.3102176 0.2225599
000390 3b 17 08 be 58 27 67 bd 6e 0f 1d 3e f2 4d 4f 3e
       -0.13290112 -0.056434005 0.15337917 0.20244578
0003a0 3e 4c 60 3e a0 99 4a 3c b0 bc b6 3c bb ed 48 be
       0.21904084 0.012365729 0.02230677 -0.19621937
0003b0 53 89 1d be 13 4a 1b be 00 82 1f 3b 08 6b 6f bd
       -0.15384416 -0.15164976 0.002433896 -0.058451682
0003c0 f5 c5 94 3e de 93 39 3e 9e 97 5c 3e 80 bc 78 bb
       0.2905728 0.18122813 0.21542212 -0.0037954152
0003d0 53 7c 10 be ca b4 79 3e d0 f3 cf bc 60 fc 0d bc
       -0.14109926 0.24385372 -0.025384814 -0.008666128
0003e0 f0 fa 95 3c 78 e8 a8 be 6a 3c 32 3e 20 e0 58 3c
       0.018308133 -0.3298986 0.17405859 0.013237029
0003f0 82 b3 3c 3e 69 3d 85 3e 1a 69 7e 3e c2 da 35 3e
       0.18427852 0.26023415 0.2484478 0.1775923

actor.0.bias f4 [32]
000000 80 d1 ca 3d d4 26 8e 3d dc 35 92 be 9e d9 2e be
       0.0990324 0.069409996 -0.28556716 -0.17075202
000010 ed aa 96 3e 50 9f d1 3d a8 aa 18 3e 70 ee ac bc
       0.2942728 0.102354646 0.1490885 -0.02110979
000020 3e 11 95 be b0 6b 91 be 8f 4d 9b 3e fe cd 78 3e
       -0.29114717 -0.28402472 0.3033261 0.2429733
000030 a6 d5 f6 bd e0 f7 d2 3d ae 74 5d be b8 cf 55 bd
       -0.12052469 0.10301185 -0.21626541 -0.05220005
000040 b0 b8 ad bd 51 50 83 3e 7c 77 a0 bd 39 72 a3 3e
       -0.08482492 0.25647214 -0.0783529 0.31923082
000050 fa 57 65 3e 58 fd 53 bd 86 f5 24 3e 14 0c 85 bd
       0.22396842 -0.05175528 0.16109285 -0.06496444
000060 4e 12 6c be 76 c0 08 3e b6 66 da bd 96 0c c9 bd
       -0.23053858 0.13354668 -0.10664122 -0.09816854
000070 42 27 94 be 97 f3 80 3e 92 b0 42 3e f8 ae 9f be
       -0.289362 0.25185844 0.19012669 -0.31188178

actor.2.weight f4 [64, 32, 3, 3]
000000 a2 fa 17 bd 27 ce 43 3d d9 e1 55 3d f2 c9 d6 3c
       -0.037104256 0.047804024 0.05221734 0.026219342
000010 9c 1f 06 3c a7 d6 39 3d 43 14 28 3d 28 85 ba bb
       0.008186247 0.045370724 0.041034948 -0.005692143
000020 ac 8b 21 bc 6c 34 1f 3c 51 9b 60 bd 76 54 8b 3c
       -0.0098599605 0.009717088 -0.05483562 0.017008048
000030 a3 fc 04 3d f1 8d 61 bd 3a d9 ee 3c 58 6e 06 bd
       0.032467496 -0.055067006 0.029156316 -0.032820076
000040 6c ee 20 bc 73 08 17 3d 6e 0f b6 3c 85 5a 1b 3d
       -0.009822469 0.036873292 0.022224154 0.037928123
000050 4c eb 22 3c ed f9 48 3d f6 c9 0c bd 4c 76 10 bc
       0.009943794 0.049066473 -0.034372292 -0.008817267
000060 1a 52 ed 3c e7 bc 5d 3d 74 b4 54 3c b3 e6 13 3d
       0.028969813 0.05413523 0.0129824765 0.036108684
000070 5c 91 7c 3c 9c 8b 57 bd 1c 6e e0 bc 59 e2 10 3d
       0.015415516 -0.052623376 -0.027396254 0.035372112
000080 72 e6 e1 bc a0 89 4c bd 1a d3 62 bd 50 93 61 bb
       -0.027575705 -0.049935937 -0.055377103 -0.003442008
000090 e4 e2 60 bd 04 ce 51 3c 9f 80 39 bd ea 23 37 bd
       -0.05490388 0.012805466 -0.04528868 -0.044711985
0000a0 2e 0b a7 bc 90 7f 6b 3b ea ae c8 bc 69 23 25 3d
       -0.020391073 0.0035934187 -0.024497468 0.040316973
0000b0 a2 d8 d3 3c e5 e5 37 bd 54 1e 28 bd 78 59 91 3b
       0.025860135 -0.04489698 -0.04104455 0.0044357143
0000c0 63 89 4d 3d 55 cc 2b 3d b0 e1 16 3b 3e c2 f4 3c
       0.05017985 0.041942913 0.0023022704 0.029877778
0000d0 88 39 60 bd 49 a6 0f 3d 18 b4 fe bb 7e 21 82 bc
       -0.054742366 0.03507069 -0.0077729337 -0.015885111
0000e0 22 35 68 bd 33 0f 0b 3d c1 be 59 3d c2 49 02 bd
       -0.056691296 0.033950042 0.053160433 -0.031808622
0000f0 e4 40 24 bd 03 b1 35 bd 6c fd 05 bc bc 14 4a 3c
       -0.040100947 -0.044358265 -0.008178096 0.012334045
000100 be d3 f2 3c 76 55 09 bd 1a 6f ea 3c af 7f 19 bd
       0.029641982 -0.033528768 0.02861743 -0.037475284
000110 14 73 22 bc 60 00 a9 ba f5 39 5b 3d 15 16 28 3d
       -0.009915132 -0.0012893789 0.05352207 0.041036684
000120 9f 82 37 3d 7b 20 fa bc 96 a2 24 bd c1 24 1b 3d
       0.044802304 -0.030533066 -0.040194117 0.037876848
000130 6b ba 6b 3d 2c 29 4d 3c 3d c3 fc bc 90 c8 4b 3b
       0.05755083 0.012522023 -0.030854816 0.0031094886
000140 e3 e7 66 3d 2d 22 12 3d 60 5f ab bb d4 76 46 bc
       0.05637349 0.035677124 -0.0052298754 -0.012113292
000150 1c 15 24 bd a4 d4 39 bd 4e 06 db 3c 0d b0 5f 3d
       -0.040059194 -0.045368806 0.026736405 0.054611254
000160 1e 08 83 3c fc b7 23 3c aa e8 b4 3c 59 bf 1e 3d
       0.015995082 0.009992596 0.0220836 0.038756702
000170 e7 c4 0c 3d a0 66 31 bb 7c 2b 07 3c 00 40 8a bb
       0.03436747 -0.0027069226 0.008250114 -0.004219055
000180 90 c6 00 bc f3 d1 22 3d 43 72 18 bd 00 2c 5d bd
       -0.007859841 0.039751004 -0.037218343 -0.05399704
000190 06 a7 31 bd df 10 34 3d 3c 6c 58 bd 90 33 63 bb
       -0.043372177 0.043961402 -0.052837595 -0.0034668185
0001a0 76 e8 b1 3c 6c 3d c6 bc b6 67 17 bd 49 71 62 bd
       0.021717291 -0.02419921 -0.03696414 -0.05528382
0001b0 0c 1e 28 bc 4c 51 12 bd 92 b5 80 bc da ef 35 bd
       -0.01026107 -0.035722062 -0.01571158 -0.044418193
0001c0 c2 1a c1 3c 60 4c c7 ba eb 03 53 3d 49 50 3f 3d
       0.02357233 -0.0015205257 0.05151741 0.046707425
0001d0 58 6e c5 bc fc cd 73 bc a2 bb ba 3c 42 e5 e9 bc
       -0.024100468 -0.0148806535 0.022794548 -0.028551701
0001e0 3c 29 48 3c e3 a4 18 3d 77 76 f8 bc 13 58 23 3d
       0.012216862 0.037266623 -0.030329926 0.039878916
0001f0 04 3f 5f bd a3 0e 57 3d 35 46 01 3d b0 c3 9b bb
       -0.054503456 0.052504193 0.031561095 -0.0047535524
000200 00 64 4b b9 30 fc b8 bb c4 26 0a 3c 05 ae 69 3d
       -0.00019396842 -0.0056452975 0.008432094 0.057050724
000210 69 b0 60 3d 0c a7 60 3c 3f a7 6c 3d 84 3b 6b bc
       0.054855738 0.013711702 0.057776686 -0.014357451
000220 02 69 1e bd 82 1d c9 bc c0 a6 76 3a 4b 6a 65 bd
       -0.038674362 -0.024550203 0.0009409003 -0.056009572
000230 50 2a 71 bb e8 b1 1d bd 3a 87 96 3c 65 ee 0d bd
       -0.0036798902 -0.038499743 0.018375028 -0.03465118
000240 05 69 52 3d ec 98 7d 3c e8 e3 d1 3b e2 9f 1f bd
       0.051369686 0.015478354 0.0064053424 -0.038970836
000250 cf b4 5f 3d 4a 50 95 bc 1a e4 27 bd c0 b1 2d ba
       0.054615792 -0.018226761 -0.04098902 -0.0006625913
000260 e0 62 50 bb b7 99 04 bd a4 84 19 bc cc 28 73 bc
       -0.0031797215 -0.032373156 -0.009370003 -0.01484127
000270 a6 2b 8e 3c 42 cf b6 bc f8 5d 4a bc 9e 00 1e bd
       0.017354798 -0.022315625 -0.012351505 -0.038574807
000280 9c b4 8b bc 40 15 46 bb 50 94 b2 bc 99 f7 50 3d
       -0.017053895 -0.0030225068 -0.021799237 0.051017378
000290 12 96 93 3c 4c d6 0f bd fb 4d 2f 3d 49 6c 26 3d
       0.018015895 -0.03511648 0.042798977 0.040630613
0002a0 98 48 36 bd d9 de 6f 3d 62 67 d3 3c 80 b6 c2 bb
       -0.044502825 0.058562133 0.025806133 -0.005942166
0002b0 a0 47 9a ba b0 3e 58 3b 19 bb 24 bd 7a 8f 81 bc
       -0.0011770613 0.003299635 -0.040217493 -0.015815485
0002c0 9f 3c 44 bd 9e 2d 92 3c 5a 16 cb 3c 90 c8 14 bd
       -0.047909375 0.017844018 0.024790931 -0.036324084
0002d0 80 01 58 3b 37 c2 4f 3d 70 11 44 bd 60 0d 08 bc
       0.0032959878 0.050722327 -0.047868192 -0.00830397
0002e0 f4 8d 6e bd 74 f1 6c 3c d8 e3 be 3b e4 82 39 bd
       -0.058240846 0.014461864 0.005825501 -0.045290843
0002f0 98 91 17 bc 8e f4 50 bd ec ae d9 bc 22 39 e3 3c
       -0.009251021 -0.051014476 -0.026572667 0.027737204
000300 a4 2f 00 3c b4 6e 66 3c 0d 42 48 3d 36 b4 ce 3c
       0.007823858 0.01406448 0.048891116 0.025232416
000310 5b 05 19 3d 75 df 0b 3d 83 b1 49 3d a2 bf fd bc
       0.037358623 0.034148652 0.049241554 -0.030975167
000320 80 69 f6 39 06 1e d0 3c 12 29 d8 bc 2a 6b dc 3c
       0.0004699938 0.025404941 -0.026386771 0.026906569
000330 20 90 24 bb 25 e0 60 3d 38 08 df bb e0 f5 07 bd
       -0.002511032 0.05490126 -0.0068063997 -0.03319347
000340 70 a7 73 3b 83 3f 1b 3d 3f 4f 18 3d d4 19 33 3c
       0.0037178658 0.037902366 0.03718495 0.010931451
000350 68 62 2f bd 46 1f c2 3c d6 0e 43 bd c0 2b 74 3a
       -0.042818457 0.023696553 -0.04762157 0.00093143806
000360 ef 3b 71 3d f6 dd 9e 3c bc e9 5f 3c 7c 10 5f 3c
       0.058895048 0.019392949 0.013666566 0.01361477
000370 b7 a8 f9 bc a8 b4 d2 bc e8 b2 c0 bb 0b 8d 63 3d
       -0.030475957 -0.02572091 -0.0058807023 0.05555443
000380 33 d7 10 3d 86 9d ec bc 95 60 5b 3d 00 d3 3b bb
       0.03536148 -0.028883707 0.053558905 -0.0028659701
000390 26 7d d1 3c 29 47 45 3d 52 8a aa 3c 81 24 5a bd
       0.02557237 0.048163567 0.02081791 -0.05325747
0003a0 7e 66 d3 bc 50 83 0b bc a9 51 15 3d 31 a1 2f 3d
       -0.025805708 -0.008515194 0.03645483 0.042878333
0003b0 f4 83 2f bc a0 b5 f4 3a 20 d6 d5 ba 7e 1a bb 3c
       -0.010712612 0.0018669851 -0.0016314425 0.02283978
0003c0 f6 8d e0 3c e0 97 a5 bb f6 3c 4b bd 00 80 88 35
       0.027411442 -0.0050535053 -0.049618684 1.0170043e-06
0003d0 8c a0 42 bd e6 69 96 bc bf 19 14 3d d7 f5 47 3d
       -0.04751639 -0.018361043 0.036157366 0.048818436
0003e0 0c e7 78 3c 9a bd 98 3c 97 b7 5e bd 14 f1 03 bd
       0.015191805 0.018645097 -0.054374304 -0.032212332
0003f0 a8 de 14 bd d0 1b 7b bc 5a 25 db 3c 02 1e 6f bd
       -0.036345154 -0.015326455 0.026751209 -0.058378227

actor.2.bias f4 [64]
000000 cc 6d 03 bc 80 7b 9d ba 53 29 6e 3d f3 39 52 bd
       -0.008021783 -0.0012014955 0.05814488 -0.051324796
000010 54 32 60 3c d0 c7 04 bb 5e 30 29 bd e2 cf 0c bd
       0.013683874 -0.00202607 -0.041305892 -0.03437794
000020 2c df 08 3c a0 18 6a 3b 9e e8 f4 3c 34 3e 78 3c
       0.00835399 0.0035720244 0.029896077 0.015151549
000030 52 50 e6 3c 53 5b 2a 3d 9b 26 38 3d 62 ea 1c bd
       0.028114472 0.041591 0.044958692 -0.038309462
000040 62 5d 23 bd 82 33 86 bc f2 5e ea 3c f0 1e b4 bc
       -0.03988398 -0.016381983 0.028609727 -0.021987408
000050 2e 6c 39 bd 84 59 cf bc 80 c3 24 3b a4 ac 26 3c
       -0.045269184 -0.025311239 0.002514094 0.010172997
000060 8c 43 12 bc 88 6a e2 3b 74 4d 4b bd 00 f1 6a bd
       -0.008927237 0.006909672 -0.049634412 -0.05735874
000070 0d 19 17 3d f9 a7 62 3d b4 38 37 3c db 37 20 3d
       0.036889125 0.055335972 0.011182953 0.039115768
000080 08 d6 9b bb 9f 4b 6d 3d 75 7e 15 3d 78 e0 b9 bb
       -0.004755739 0.057933446 0.036497552 -0.0056725107
000090 c0 9f fe ba 3e a1 c9 3c 28 b9 f9 3b fc bc 4a bc
       -0.0019426271 0.02461302 0.0076209493 -0.012374159
0000a0 54 6f 59 bd 30 07 6b 3b e2 3c 45 bd 60 34 e7 3a
       -0.053084686 0.0035862438 -0.048153765 0.001763951
0000b0 c0 fc be bc 24 b6 32 bc a8 23 c4 3b a8 eb 04 bd
       -0.02331388 -0.0109076835 0.005985696 -0.0324513
0000c0 5c df 16 3c 35 21 63 3d 2c 33 68 3c 46 2f b1 3c
       0.009208526 0.05545159 0.014172357 0.021628987
0000d0 7c fd 77 3c bf b3 2c 3d fd f2 03 3d ce ca 8a bc
       0.015136119 0.042163607 0.032214154 -0.016942408
0000e0 88 04 5d bc 7a 3a 16 bd e9 55 e4 bc 80 ae ff 39
       -0.01348985 -0.03667686 -0.027872996 0.00048767403
0000f0 45 12 3a bd 0f 85 70 3d 58 ba 34 bd 31 65 29 3d
       -0.04542758 0.058720645 -0.044123024 0.04135627

actor.4.weight f4 [128, 64, 3, 3]
000000 40 db 44 3a 3b bb 9b bc 83 b4 d6 bc 30 7d 08 bb
       0.00075094774 -0.019010177 -0.026209122 -0.002082657
000010 86 e8 f0 3c 93 4e 16 bd a2 bd e6 3c fa 84 aa 3c
       0.02940775 -0.036696028 0.028166596 0.020815361
000020 5e b7 d6 3c 40 c4 23 3a 8b e7 94 bc 38 6a 9f 3c
       0.026210483 0.00062472 -0.018176815 0.019459829
000030 a4 9f 15 bd a9 40 04 3d 3f 08 16 bd 9e 07 88 bc
       -0.0365292 0.032288227 -0.036628958 -0.016605195
000040 e8 c8 fd bb ae d7 eb bc 91 09 17 3d 7e 05 18 bd
       -0.007744897 -0.028789368 0.036874358 -0.037114613
000050 00 ce db bb 2e 44 d7 bc 2f da 0a 3d 14 2a 14 bc
       -0.0067079067 -0.026277628 0.033899482 -0.009043235
000060 57 5f 17 bd ea 6a ad 3c 50 5b 3f bc 7d 2f 24 3d
       -0.036956158 0.021169145 -0.011679485 0.04008435
000070 2c 9c 3c 3c 68 db 97 bc 0c 0c 5b 3c 00 2a 3f bb
       0.011511844 -0.018537238 0.013369571 -0.002916932
000080 d8 66 e5 bb 96 ac 09 bd 00 c6 42 3b aa bf d5 3c
       -0.0070007853 -0.033611856 0.0029720068 0.02609237
000090 a9 07 12 3d 32 5d 91 3c 23 c0 8f bc f3 56 b2 bc
       0.035651837 0.017744634 -0.017547673 -0.021769976
0000a0 10 27 23 bc af 0a 0b bd 0c 54 3d 3c 40 86 7d bc
       -0.009958044 -0.033945736 0.011555683 -0.015473902
0000b0 ad 0c 10 3d 00 f1 22 3c 00 db 09 b9 40 36 70 bb
       0.03516834 0.009945154 -0.00013146922 -0.003665343
0000c0 c0 57 f7 bc f5 e5 28 3d 1b 14 a8 bc 9f c7 24 3d
       -0.03019321 0.04123493 -0.0205174 0.040229436
0000d0 fb 60 f5 bc aa fc 29 bd 62 75 04 bd 8e bb 14 bd
       -0.02995347 -0.041500725 -0.032338507 -0.03631168
0000e0 de 9e 97 3c b2 9a c3 3c 6f 14 16 3d fa 26 cf 3c
       0.018508371 0.023877475 0.03664058 0.02528714
0000f0 49 dc 20 3d 4c fc 43 bc 7a ba e1 3c 60 37 38 bc
       0.03927258 -0.011962008 0.02755474 -0.011243671
000100 5a 45 93 3c 0e c9 85 3c de 75 a4 3c 13 9c e9 bc
       0.017977405 0.016331222 0.020075735 -0.028516805
000110 d0 cb 0e bd cc 45 01 bc c0 43 00 3a f0 86 91 3c
       -0.03486234 -0.007890176 0.0004892908 0.017764539
000120 80 85 ce ba f2 87 b9 3c 98 ce 83 bc d7 8b 00 3d
       -0.0015756339 0.022647832 -0.016089723 0.03138336
000130 33 08 22 3d 3e bd b9 bc bb 8c 08 bd f4 ca 0e bd
       0.0395586 -0.022673246 -0.033337336 -0.03486152
000140 98 3e ca bb 10 0e fe bc 70 ff 25 bc e2 a4 04 bd
       -0.0061720125 -0.031012565 -0.010131702 -0.032383807
000150 aa 73 02 bd 00 1f d6 3a 68 f4 80 3c da d2 a1 3c
       -0.031848587 0.0016336143 0.015741542 0.019753862
000160 50 b6 b3 bc 80 8d 9f 39 40 1e b8 bc 92 00 f7 3c
       -0.02193752 0.0003043227 -0.022475362 0.03015164
000170 88 a8 8e bc c0 33 4a ba ac da 33 bc d1 6a 17 3d
       -0.017414346 -0.00077134 -0.010977428 0.036967102
000180 6b 5a 1c bd f3 0c 9d bc 4c b0 19 3c c3 e3 f0 bc
       -0.038172167 -0.019171214 0.009380411 -0.02940548
000190 be 28 84 3c 85 1c 08 3d ec 31 18 bd 0c b5 10 bd
       0.016132709 0.033230323 -0.037156984 -0.03532891
0001a0 b0 b1 09 bc 27 d1 09 3d 18 37 b6 bc de cd 28 bd
       -0.00840418 0.03364673 -0.022243068 -0.041211955
0001b0 88 4d c9 3b 86 4c a6 3c 53 1f d2 bc fa 95 ca 3c
       0.0061432756 0.020300161 -0.025649702 0.024729718
0001c0 d8 0f fc bb 80 65 b2 3a 34 bd 51 3c 29 78 08 3d
       -0.0076923184 0.0013610572 0.012801457 0.03331772
0001d0 50 b1 4b 3b c8 3b 29 bd 2f d9 1d bd 68 1e d5 bb
       0.0031081028 -0.041316777 -0.0385372 -0.006503869
0001e0 d3 20 1c 3d bb 5c 84 bc b6 ae 4a bc 8e 77 e4 bc
       0.03811724 -0.016157499 -0.012370756 -0.02788904
0001f0 6e c2 8b bc 6a 5c a3 3c 6c 6c 06 3c 66 e2 70 bc
       -0.017060485 0.019941527 0.008204561 -0.014702415
000200 a6 72 e7 bc 20 2b 03 bc b4 b9 0a bd 10 b5 72 bc
       -0.02825291 -0.008005887 -0.033868507 -0.0148136765
000210 b9 14 0d 3d 90 3e 80 bc f1 9f 09 3d 70 e7 1e bd
       0.03444359 -0.015654832 0.033599798 -0.038794935
000220 c8 b9 c8 3b a0 df d7 bc 66 30 fd 3c 40 98 fd 3b
       0.0061256625 -0.02635175 0.030906867 0.007739097
000230 30 97 27 3b 31 02 24 3d 6b 81 a1 bc d2 2a a0 3c
       0.0025572293 0.040041152 -0.019715032 0.019551668
000240 58 aa 82 bc 59 a0 0b 3d b0 dd 23 bd 40 ea 62 3b
       -0.015950367 0.034088466 -0.04000634 0.0034624487
000250 6b 7f e0 bc 0e 8f c7 bc 24 22 65 3c a0 1f bd bc
       -0.027404508 -0.024360206 0.013985191 -0.023086369
000260 d2 1d fc 3c 38 37 f0 bc ac e1 23 3c 68 ae e5 3b
       0.030775938 -0.029323205 0.010002535 0.0070093162
000270 8a eb b7 3c 28 ee ea 3b 94 93 02 bd 90 e6 0c bb
       0.022451181 0.0071695037 -0.031879023 -0.002149973
000280 01 99 20 3d 8b f4 28 3d 6a 62 d0 3c 1b 29 b4 bc
       0.039208416 0.04124884 0.025437552 -0.021992257
000290 6c 2a 54 bc 6b f9 80 bc 11 f3 11 3d 5c 28 20 bd
       -0.012949567 -0.015743932 0.035632197 -0.03910099
0002a0 fe 29 d6 3c 50 e6 68 3c a0 9e cf 3a 20 77 0f bc
       0.02614307 0.014215067 0.0015840121 -0.008756429
0002b0 c8 22 c1 bc a6 9b 4d bc f0 4c 86 bc 88 03 fa bc
       -0.023576155 -0.0125493165 -0.016394109 -0.030519262
0002c0 04 5d 4a 3c da 70 c1 3c e8 21 87 bb 58 22 d5 bc
       0.012351278 0.023613382 -0.004123915 -0.026017353
0002d0 20 9a b9 ba 50 0d a3 3c 88 76 ba 3b 7d e4 00 3d
       -0.0014160313 0.019903809 0.0056903996 0.031467903
0002e0 76 7d d2 bc 10 7e 8e bc 90 c8 40 bb a8 56 e8 bc
       -0.02569459 -0.017394096 -0.002941642 -0.028361633
0002f0 58 ba ca bc 97 d9 1f 3d 54 ed 45 3c 10 ea 1d bd
       -0.024747059 0.03902587 0.012080509 -0.038553298
000300 dc 94 29 bc da 1c b8 3c e2 dd 82 3c 90 c0 1b bc
       -0.010350432 0.022474695 0.015974943 -0.00950636
000310 32 0e b9 3c 35 19 02 3d e0 21 27 bd 53 91 af bc
       0.022589777 0.03176232 -0.04080379 -0.0214316
000320 f0 a6 7b bc eb b7 1d 3d ac 65 3c bc 08 c8 a0 bb
       -0.015359625 0.038505476 -0.01149885 -0.004906658
000330 e8 d1 f2 bb 7f 95 1f 3d c0 cb b0 3b 48 eb fb bc
       -0.0074102767 0.03896093 0.0053953826 -0.03075184
000340 1e a7 86 3c 1c 7f 7d 3c e0 08 ee ba 3e 8c 99 3c
       0.01643711 0.0154722 -0.0018160604 0.01874363
000350 c2 6a 8d 3c 85 30 1b 3d 56 72 c4 bc 0d ab 1c 3d
       0.01726282 0.03788807 -0.0239803 0.038249064
000360 80 17 49 bb f8 7d dc 3b 0b 0b de bc 60 d9 96 bc
       -0.0030684173 0.006728884 -0.027104875 -0.0184142
000370 20 6d 9b bc c6 c6 66 bc d8 cf f0 bb 37 e5 04 3d
       -0.018972933 -0.014085477 -0.0073489957 0.03244516
000380 38 29 81 3c 16 f8 bb 3c 95 49 24 3d 82 8e e1 3c
       0.015766725 0.022945445 0.040109236 0.027533773
000390 c0 50 6d 3b 88 36 95 3b 70 3c 4d 3b 58 8e 91 bb
       0.003621146 0.00455362 0.003131654 -0.0044420175
0003a0 64 6f 45 3c 30 d6 1e bc cf 36 13 3d e0 bc 93 bc
       0.012050483 -0.009694621 0.03594094 -0.018034399
0003b0 92 a9 11 bd 63 b6 1d bd 20 0c cf 3a 16 33 ea 3c
       -0.035562105 -0.038504016 0.001579646 0.028588813
0003c0 13 b6 ef bc f9 b8 1c 3d 40 2e 66 3c e8 46 82 3c
       -0.029261624 0.03826234 0.014049113 0.015902951
0003d0 c0 fe 4e 3b 8a e8 de 3c c0 9a 05 ba 4f 72 08 bd
       0.0031584948 0.027210493 -0.0005096607 -0.03331214
0003e0 bc d3 36 3c 13 85 2a bd f0 f1 9d 3c 54 87 11 bc
       0.01115888 -0.041630816 0.019280404 -0.008882362
0003f0 d8 58 f5 bc 16 47 db bc 70 be ea bc 8c 8f 7a bc
       -0.02994959 -0.026767295 -0.02865526 -0.015293013

actor.4.bias f4 [128]
000000 70 70 37 bb f0 66 e8 bc 1c f4 1c 3c 70 da b0 bc
       -0.0027990602 -0.028369397 0.009579685 -0.021588534
000010 fe 84 1c bd e8 2b bf 3b cc 45 57 3c eb d1 92 bc
       -0.03821277 0.0058340915 0.013139199 -0.017922362
000020 10 34 f0 bc 20 f8 f5 3a 3d 4a 27 3d 08 05 a4 3c
       -0.0293217 0.0018765964 0.040842284 0.02002193
000030 7c 8c 75 bc 78 af d1 3b 8e fe fa bc d8 bf 8c 3c
       -0.014987107 0.0063990913 -0.03063896 0.017181322
000040 4c 48 23 3c c0 3d 1b 3a 3c af 7d bc 14 30 0a bd
       0.009965967 0.0005921982 -0.015483674 -0.033737257
000050 20 17 e5 bb 8c 09 0c bc 10 c7 51 bc 20 0d aa 3a
       -0.006991282 -0.008547198 -0.012803808 0.0012973882
000060 40 84 ec bc 9e ff f7 bc c0 28 85 bc 46 00 bb bc
       -0.028871655 -0.030273255 -0.016254783 -0.022827279
000070 80 02 de b9 1c 54 13 3c 15 ee 12 3d f2 8a f8 3c
       -0.00042345002 0.008992221 0.035871584 0.030339692
000080 a6 ee c2 bc 77 4a 00 bd b8 3c c9 bb de b9 b9 bc
       -0.023795437 -0.031321015 -0.0061412714 -0.022671636
000090 30 32 46 bb 17 72 0a bd e3 a6 13 3d 3a 86 00 bd
       -0.0030242316 -0.03380021 0.036047827 -0.03137801
0000a0 12 71 0c bd 4a 0b 99 3c 01 a6 20 3d fb 13 c7 bc
       -0.03428752 0.01868214 0.039220814 -0.02430152
0000b0 ab 88 1c 3d 6a 0a b4 3c ad 48 18 3d d8 64 fd 3b
       0.038216274 0.021977622 0.037178684 0.007732969
0000c0 08 82 e5 bc d6 99 6c bc d0 be 52 bc 6f fb 15 bd
       -0.028016105 -0.014440974 -0.012862876 -0.03661674
0000d0 14 cd 2c 3c 0f 6a 02 3d 6e 5f a5 bc 41 51 06 3d
       0.010546941 0.031839427 -0.020187106 0.032792334
0000e0 d3 ca 07 bd c7 c7 1a bd dc b8 2b bc fc ae 6d bc
       -0.033152413 -0.03778818 -0.010481086 -0.014507052
0000f0 4c e1 67 bc 90 db 07 bb 6d 7b 16 3d e3 c3 da bc
       -0.014152836 -0.0020730235 0.0367388 -0.026704734
000100 26 70 ef 3c cc 19 51 3c 56 85 f4 bc 60 49 61 bc
       0.029228281 0.012762498 -0.029848736 -0.013750404
000110 09 3e 27 3d 40 03 8e 3c 48 f4 f7 3b d4 4e 46 3c
       0.040830646 0.017335534 0.0075669624 0.012103755
000120 b9 3b 1c 3d 7b 74 04 3d 36 23 c1 bc 4b 22 8d bc
       0.038142893 0.032337647 -0.02357636 -0.017228266
000130 ac 1c 26 bc 80 cb 71 bc 10 ae 87 3c c0 56 63 3a
       -0.010138672 -0.014757991 0.016562492 0.00086722896
000140 06 01 ad 3c 36 ee 65 bc 70 01 47 3b 53 5e fa bc
       0.021118652 -0.014033845 0.0030365847 -0.030562555
000150 10 64 40 bb ae f2 a7 bc a0 9c f6 bb 40 20 67 3c
       -0.0029356517 -0.02050146 -0.0075259954 0.01410681
000160 c8 3a 9d 3b b7 8f 07 3d 60 d2 d2 bb a5 dd 00 3d
       0.004798267 0.03309604 -0.00643377 0.031461377
000170 40 64 4f 3c dc e3 13 bd 68 2b cb bc db 13 c5 bc
       0.012658179 -0.036105976 -0.024800971 -0.02405732
000180 bb 35 a4 bc 16 17 9e 3c a2 08 94 3c 90 04 5f bb
       -0.020045152 0.019298118 0.018070523 -0.003402982
000190 00 59 3b 3a 4a 5d 9c 3c 7e 27 d4 3c 30 57 e4 bc
       0.0007146746 0.019087452 0.025897738 -0.027873605
0001a0 e6 a9 4a bc 40 17 b5 3b d0 79 b1 bc b8 bc b6 3b
       -0.0123696085 0.0055264533 -0.02166453 0.0055766962
0001b0 85 3c 02 3d 96 a9 fd 3c 46 b8 fc 3c f6 60 36 bc
       0.031795997 0.030964654 0.030849587 -0.011131516
0001c0 12 f1 d8 3c d6 d7 2f bc 48 0c 22 bd 70 04 b0 bc
       0.026482139 -0.010732612 -0.039562494 -0.021486491
0001d0 de 41 fa 3c bb 26 1c 3d 00 53 66 3c 36 0d f5 3c
       0.030548986 0.038122874 0.014057875 0.029913526
0001e0 e0 62 04 bc 63 8f 2a bd 50 5e 03 bb 4c 3f 6f bc
       -0.008080214 -0.04164065 -0.0020045228 -0.0146024935
0001f0 a8 9f 18 bd 64 dc 30 3c 32 75 dc 3c c1 c6 01 3d
       -0.037261635 0.010794733 0.026911352 0.031683687

shit.0.weight f4 [256, 128]
000000 8c fc 89 bd b5 2f 26 bd 80 9a 6a 3c 37 0e 88 3d
       -0.067376226 -0.04057284 0.014319062 0.06643336
000010 00 80 0a bc fe 16 5b 3d e6 06 0a bd 27 2e 91 3d
       -0.008453369 0.053488724 -0.033697985 0.07088881
000020 77 4c a5 3d ee 28 4f bd 7e 6a 5f 3d b4 a6 a9 3c
       0.08071225 -0.050576143 0.05454492 0.020709373
000030 98 a3 35 bd d9 0c 94 3d 37 fa b1 bd 80 d7 79 bc
       -0.04434547 0.07229013 -0.08690303 -0.015249133
000040 01 4c 8e bd f4 4c 7f bd b8 d0 a3 bd 36 94 22 3d
       -0.0694809 -0.062329248 -0.07998794 0.039692126
000050 e7 b4 87 3d 00 08 22 bd 76 6a 7e 3d 78 e0 3d bc
       0.06626301 -0.03955841 0.062113248 -0.011589162
000060 90 ed a4 3c c8 fc 9c 3c c8 a2 f6 3c 44 21 80 bc
       0.02013281 0.019163504 0.030106917 -0.015640862
000070 23 12 ac 3d 95 2c 81 3d f4 b5 34 bd 96 ff 2b 3d
       0.08401897 0.063073315 -0.044118837 0.041991793
000080 96 ce 4d 3d 43 3a 19 bd 4e d1 78 bd a8 dc b3 bc
       0.050245844 -0.03740908 -0.060746484 -0.021955803
000090 de 25 48 3d f7 36 b0 bd 72 38 9e bd 32 1c 5b bd
       0.048864238 -0.08604234 -0.0772561 -0.053493686
0000a0 99 e0 19 bd 1a 95 42 3d 16 8d 78 3d ad 2a b3 bd
       -0.03756771 0.047505476 0.060681425 -0.08748374
0000b0 74 89 c5 3c 14 bd d4 bc 02 e9 22 3d 16 ad 9b bd
       0.024113394 -0.025969066 0.039772995 -0.07601373
0000c0 c8 de b1 bc a0 02 c0 3b 70 c7 8a bc 40 39 d7 bb
       -0.021712676 0.005859688 -0.016940802 -0.006568104
0000d0 a2 9e 78 3d 5c 9c ec bc 6b 60 87 3d dc 21 c9 3c
       0.06069816 -0.028883152 0.06610187 0.024552278
0000e0 e0 2a 33 bc c1 91 4c bd dc d0 ac bd 0c d1 84 3c
       -0.010935515 -0.04994369 -0.08438274 0.016212963
0000f0 e1 00 8a 3d bd f6 89 3d 62 b4 31 3d 69 8c 51 bd
       0.06738449 0.06736515 0.043384917 -0.051159296
000100 b1 2b ab 3d f2 fd 28 3d c9 45 9d 3d de b8 f7 bc
       0.08357943 0.041257806 0.07679326 -0.030239519
000110 a0 d2 6b bc 00 23 1e bc 8a 9c 7f 3d 2e 93 7c 3d
       -0.014393479 -0.009651899 0.062405147 0.0616638
000120 e5 65 a5 bd 56 0b 8f bd 9a fb 2f 3d e6 80 36 bd
       -0.080760755 -0.06984584 0.042964555 -0.04455652
000130 d1 3a 81 3d cc 8b b7 bc 8a 0e 45 3d 88 1b 9b bd
       0.063100465 -0.022405528 0.04810957 -0.075736105
000140 60 19 70 bb bc 4a 94 bc 2e 8f 86 bd 34 6b 8f bd
       -0.0036636218 -0.018102042 -0.06570278 -0.07002869
000150 e0 61 9a bd b0 c1 e9 3c cf f5 8f 3d f2 66 2a 3d
       -0.075381994 0.02853474 0.07029306 0.041602083
000160 e6 28 5f 3d e1 af 95 3d 30 13 d5 3b 1f dd ac 3d
       0.054482363 0.07308937 0.0065025315 0.08440613
000170 70 f1 a3 3c c0 30 17 3b 30 6d 05 3c 20 8f 17 bd
       0.020012587 0.0023069829 0.008143708 -0.03700173
000180 07 9c 5b bd e4 d8 ce 3c d2 fe 99 bd f0 ad 95 bc
       -0.053615596 0.025249906 -0.07519306 -0.018271416
000190 e6 12 78 3d a4 18 a5 bc f0 fe e7 3b 39 12 a5 3d
       0.060564898 -0.020153351 0.0070799515 0.08060116
0001a0 c0 3f d8 3b ba 9a 42 3d 73 47 b1 3d 2d 75 77 bd
       0.0065993965 0.04751084 0.08656206 -0.060414482
0001b0 6c 91 5d bd b4 b2 83 3c 84 8b a6 bd 92 64 37 3d
       -0.054093763 0.016076423 -0.08132079 0.044773646
0001c0 aa d0 7d 3d 38 c5 cf bc fe d3 83 bd 74 0f ef 3c
       0.061966576 -0.025362596 -0.06436919 0.029182173
0001d0 a8 3a 7c bd fb ab 59 bd 68 7c df 3c e2 1a 6a 3d
       -0.061579376 -0.05314253 0.027281001 0.057154544
0001e0 34 6d af bd 08 30 0a bd 7e 01 29 3d 52 64 57 bd
       -0.08565751 -0.033737212 0.04126119 -0.052585907
0001f0 2b 72 ad 3d 58 78 32 3c 98 a1 d8 3c 80 f0 27 3b
       0.084690414 0.01089295 0.026444241 0.0025625527
000200 c2 12 32 3d ac 92 04 bd 70 2b 01 3c 48 da c0 bc
       0.04347492 -0.03236644 0.007883891 -0.023541585
000210 1f 02 b0 3d 2c 55 e9 bc 4a 8c 38 3d b0 06 88 bb
       0.085941546 -0.028482996 0.045055665 -0.004151188
000220 92 aa 27 3d 02 b7 6e 3d 3b fe 91 3d 44 ab a3 bd
       0.040934153 0.05828 0.07128569 -0.07991651
000230 b0 6e b8 bc d1 b6 94 3d a2 a4 1d 3d 39 bf ab 3d
       -0.022513717 0.07261432 0.038487084 0.08386082
000240 18 f9 40 3c 4c 1c a6 bd 40 eb 28 3b 6e 76 6d 3d
       0.011778139 -0.08110866 0.0025774986 0.05797427
000250 80 a3 96 ba 62 90 52 bd 68 27 32 3c f0 93 09 3d
       -0.0011492819 -0.051407225 0.010873653 0.03358835
000260 46 d7 7b 3d b4 2f e5 3c c0 d2 80 3a d8 70 89 3c
       0.061484598 0.027976848 0.0009828433 0.01677744
000270 40 42 cd bc 1d 61 79 bd 78 3f 96 3c 18 1e cf bc
       -0.025056005 -0.06088363 0.018340811 -0.025282905
000280 50 a4 24 bd 8c b1 66 bd ad 56 8e 3d 3a 4e 06 bd
       -0.040195763 -0.056321666 0.06950126 -0.032789446
000290 80 ab 68 3b e6 0b f6 bc a0 23 8b 3c 8e 67 6e 3d
       0.0035502613 -0.03003497 0.01698476 0.058204226
0002a0 9c ac 84 bc 05 84 a2 bd 97 bd 1a bd cb 4d 91 bd
       -0.016195588 -0.07935337 -0.037778463 -0.07094916
0002b0 2d 45 b3 bd aa fa a2 bd c6 bb 3b 3d ad 09 9f 3d
       -0.087534286 -0.079579666 0.04583337 0.077655174
0002c0 ef cc b2 bd 20 00 e9 3c 09 d5 9d bd 1c 35 97 bc
       -0.08730494 0.028442442 -0.07706649 -0.018457942
0002d0 00 11 1b ba 36 96 6e 3d ea 9d 75 3d 3e ce 54 3d
       -0.0005915314 0.05824872 0.05996505 0.0519545
0002e0 97 33 b3 bd 60 be 17 3b 6b fd aa 3d 6c c0 96 bd
       -0.08750074 0.0023154244 0.08349117 -0.0736092
0002f0 05 7e 63 bd de 3f 76 3d c4 d8 ad bd 40 e3 e5 3b
       -0.055540103 0.060119502 -0.084886104 0.0070156157
000300 d6 85 08 bd 20 64 3a 3c 76 5f 3c 3d be 7e 16 3d
       -0.03333076 0.011376411 0.045989476 0.036741965
000310 04 89 8d 3c 27 5e 10 bd 21 d8 94 3d 63 dc b3 3d
       0.017277248 -0.03524604 0.07267786 0.0878227
000320 37 71 9e 3d 51 1f a2 bd 36 42 7a 3d 1a 80 88 bd
       0.07736438 -0.079161294 0.0610983 -0.066650584
000330 a4 e1 b5 bc b4 58 eb 3c 80 ff d4 3a 4d 9f 89 3d
       -0.02220232 0.02872882 0.0016250461 0.06719837
000340 87 8a 8e bd 96 0c 06 bd 20 32 fa 3c 92 10 a1 bd
       -0.06960016 -0.032726847 0.03054148 -0.07864489
000350 24 b5 fb bc b3 da 5e bd 28 3d dd bc 92 40 a8 bd
       -0.030726023 -0.054407787 -0.0270067 -0.08215441
000360 20 0b 05 3c cb 31 b2 3d e6 44 8d bd 58 5e 31 3c
       0.008120328 0.087009035 -0.06897907 0.010825716
000370 ce 1a 85 bd 5c d5 98 bd 24 21 bd 3c 9e 87 2b 3d
       -0.06499253 -0.0746257 0.023087092 0.04187738
000380 c0 a3 f2 ba 20 4a 89 3c 3c 33 fa 3c 80 a5 69 3c
       -0.0018511936 0.016758978 0.030542009 0.01426065
000390 fe 4e 0a bd 4a 1d 30 3d 70 b7 37 bd 8b d0 84 bd
       -0.03376674 0.042996682 -0.044852674 -0.06485089
0003a0 4a 0a 1b bd b9 d5 39 bd 06 8d 4b 3d 20 fd 47 bb
       -0.03785161 -0.045369837 0.049695037 -0.0030515864
0003b0 9b 80 b2 3d 80 91 fa 3c 86 cd 8c bd e8 19 1d 3c
       0.08715936 0.030586958 -0.06875138 0.009588696
0003c0 a0 ed d3 bc fd 21 2a bd 50 41 d0 3c 8c aa 07 3d
       -0.025870144 -0.04153632 0.025421768 0.03312163
0003d0 82 11 4d 3d 00 3b f4 3c 96 25 78 bd 9a ec 42 bd
       0.050065525 0.02981329 -0.06058272 -0.047588922
0003e0 68 00 33 bc 69 39 95 3d 42 e3 66 3d 00 40 20 3c
       -0.01092539 0.07286341 0.056369074 0.009780884
0003f0 4b d7 9e 3d 5b 53 81 3d d0 bc 86 bd 00 bb b9 39
       0.077559076 0.06314727 -0.06578982 0.00035425276

shit.0.bias f4 [256]
000000 b8 38 a8 bd 2a 5b 73 3d b8 f0 9e bd d8 09 fe bc
       -0.08213943 0.059413113 -0.07760757 -0.031010553
000010 2d 37 3b bd 33 69 62 bd c9 b4 93 3d 97 38 9d bd
       -0.045706917 -0.055276107 0.072122164 -0.07676809
000020 4b 90 a2 3d a5 fe 1e bd 2c 62 d8 bc 48 16 b8 bc
       0.07937678 -0.038817067 -0.026414 -0.022471562
000030 00 db 1c ba 20 52 45 3c 22 c0 36 3d 70 ab f0 bb
       -0.0005983561 0.012043506 0.044616826 -0.0073446557
000040 83 6d a1 3d 5a d1 4f 3d 80 8f 9a ba 68 57 c7 bc
       0.07882216 0.050736763 -0.0011792034 -0.02433367
000050 b0 ac 90 3c a4 b9 8e bc de c4 36 bd 58 21 df bc
       0.017660469 -0.017422505 -0.04462134 -0.02723758
000060 a6 8e 40 3d 0f a1 06 bd 40 ed 93 bb 8d 76 ad 3d
       0.04701104 -0.03286844 -0.0045143664 0.084698774
000070 ce 8c f4 bc 80 89 04 3c a0 4c 73 bd a6 35 3b 3d
       -0.029852297 0.008089423 -0.059399247 0.04570546
000080 9a b9 6e 3d 7e e3 a7 bd d0 e3 52 3c 2c 38 8b 3c
       0.058282472 -0.081976876 0.012871698 0.016994558
000090 96 ed 48 bd 57 c2 b0 3d 9a cf 19 3d 9e 0f 2f 3d
       -0.049054705 0.086308174 0.0375515 0.042739503
0000a0 76 52 35 3d 20 87 de 3c b0 79 f8 bc fa ea 91 bd
       0.044268094 0.027164042 -0.030331463 -0.07124896
0000b0 c0 6c f0 3a 48 96 82 bd f1 0f a6 3d da 61 7c 3d
       0.0018342957 -0.0637632 0.08108509 0.061616756
0000c0 ae e9 1e 3d 06 c5 93 bd 90 a5 bc 3b 65 9d ac bd
       0.038797073 -0.072153136 0.0057570413 -0.08428458
0000d0 ba b2 38 bd d5 0f 4a bd 2d cb a7 3d ce c0 01 bd
       -0.045092322 -0.049331505 0.081930496 -0.031678014
0000e0 a1 f2 54 bd 5c 33 d0 bc aa 0b 68 bd 02 0e 5c 3d
       -0.0519892 -0.025415115 -0.05665175 0.053724296
0000f0 3e 6c 5f 3d 46 c6 2a 3d 4e 4f 55 bd d8 e6 c2 3c
       0.054546587 0.041692995 -0.052077584 0.023791716
000100 d0 16 5b bc ea e6 0d bd 9c e3 37 bd 36 19 4e 3d
       -0.013372138 -0.034644045 -0.0448948 0.05031701
000110 de 8d 55 3d 46 f7 e2 bc 81 fd 93 3d 29 93 b3 3d
       0.05213725 -0.0277058 0.072260864 0.08768303
000120 00 00 68 b9 00 fd 2d bc 70 a5 3e bd 28 fd 41 bc
       -0.00022125244 -0.010619402 -0.046544492 -0.011840142
000130 c1 a7 b2 3d d2 13 92 bd ae d1 6f 3d fe fd b3 bd
       0.08723403 -0.07132687 0.058549576 -0.087886795
000140 00 ef 33 3c 30 a4 b3 bd 00 c2 36 39 ee 7f 15 3d
       0.010982275 -0.08771551 0.00017429143 0.036498956
000150 e1 f4 a1 3d 8b ad ac 3d 38 a7 03 bc 65 42 1b bd
       0.07908035 0.08431538 -0.0080354735 -0.037905116
000160 07 99 32 bd 01 71 87 bd cd 11 8d 3d fc 31 3f bd
       -0.04360297 -0.06613351 0.06888161 -0.04667853
000170 9c 4c 9d bd 60 71 1e bb 1e 3d 3c 3d f6 bd 67 3d
       -0.07680628 -0.0024176463 0.045956723 0.056577645
000180 c0 4d 77 bc b0 24 cb bb 6c 39 db 3c 40 7e 05 3c
       -0.015094221 -0.006199442 0.02676078 0.008147776
000190 02 06 2c 3d 87 19 96 3d 40 16 f4 3a 1f a8 aa bd
       0.041997917 0.07329088 0.0018622354 -0.08332848
0001a0 d7 01 b1 3d 70 07 34 bc 54 b6 d5 3c 80 5e 75 bc
       0.08642929 -0.010988101 0.026087917 -0.014976144
0001b0 8a 9b 0f 3d 40 fa 37 bc a0 1a 5d bd bc 84 2f bd
       0.035060443 -0.011229098 -0.05398047 -0.042851195
0001c0 fe 6a 0b 3d f2 98 37 3d 82 58 93 bd 13 ee b0 3d
       0.034037583 0.044823594 -0.07194616 0.08639159
0001d0 cc 67 5e bd ed b5 a5 bd 00 30 80 b7 4c f9 90 bc
       -0.054298207 -0.0809134 -1.528114e-05 -0.017696999
0001e0 30 0c df bb 9b 27 8c 3d 62 77 4d 3d c4 52 9e 3c
       -0.006806873 0.06843492 0.05016268 0.019326575
0001f0 1c 56 a9 3c 7f 51 95 3d c8 24 4d bc d0 0b 98 bb
       0.020670943 0.07290935 -0.012520976 -0.00464008
000200 29 63 96 3d 4e 1e 91 bd db 70 87 3d 3f a6 6e bd
       0.07343132 -0.07085858 0.06613322 -0.058264013
000210 6a 08 83 bd b0 4b 10 bc 7d 4a 09 bd 19 06 a9 3d
       -0.06398089 -0.008807108 -0.033518303 0.08253116
000220 3e 96 9d bd cc ad 82 3c 49 fe ae bd 9a ca 02 3d
       -0.07694672 0.015952013 -0.08544595 0.031931497
000230 14 3b c4 bc 04 80 07 bd ae 3a fa bc fa ca 42 3d
       -0.023953952 -0.03308107 -0.030545559 0.047556855
000240 42 21 65 3d 9c 9b fc 3c 88 32 0e 3c 32 1b 7a 3d
       0.05593992 0.03083592 0.00867904 0.06106109
000250 27 d9 9e bd 00 62 63 3c f3 a8 84 3d 6c 6c 00 3d
       -0.07756262 0.0138783455 0.06477537 0.0313534
000260 d5 3a 5b bd 5f b6 a4 3d 86 4a 28 bd 00 b9 82 3a
       -0.053522903 0.08042597 -0.041086696 0.0009973347
000270 ac bf a0 bc 50 46 6d 3c b6 69 83 bd c0 1e 4e bb
       -0.019622646 0.014482096 -0.06416647 -0.0031451434
000280 ca 23 56 bd d8 2d 24 bc 9f da 19 bd bc 7c 81 bd
       -0.052280225 -0.010020696 -0.03756201 -0.06322619
000290 5d 15 68 bd 0f bc 39 bd 2d c2 18 bd 7e 0c ff bc
       -0.056661 -0.045345362 -0.037294555 -0.031133886
0002a0 1f e3 a9 bd 27 15 a7 bd ca c8 1e 3d d8 bb 2f bc
       -0.08295273 -0.08158331 0.038765706 -0.010725938
0002b0 d6 0f 2d 3d 16 1e 36 3d 48 56 6f bc 42 93 95 bd
       0.04225143 0.044462286 -0.014607973 -0.07303478
0002c0 6e 1b 19 3d 90 de 0b bd 8e 3e 96 bd 74 d8 e2 3c
       0.037379675 -0.0341478 -0.0733615 0.027691104
0002d0 67 1f ae 3d c0 59 ca 3b e0 e8 66 bb e0 63 11 bc
       0.08502083 0.00617525 -0.003523402 -0.00887391
0002e0 1d 65 9f 3d 20 f3 90 bc 20 5e 88 bb aa b8 71 3d
       0.07782958 -0.017694056 -0.004161611 0.059014
0002f0 90 45 04 3c 97 2a ab 3d 48 d4 96 bd 43 e1 8d bd
       0.008073226 0.08357733 -0.07364708 -0.06927731
000300 48 84 33 3c 48 67 25 3c 96 72 78 bd 0f 18 ae 3d
       0.010956831 0.010095425 -0.060656153 0.085006826
000310 3a 72 67 3d a8 b0 f6 bc ab f0 16 bd 54 8b bd bc
       0.05650542 -0.030113533 -0.036850613 -0.023137726
000320 20 d9 6d 3b 0a 8e 6d 3d bc bd b3 bd 6e 9b 9d bd
       0.0036292747 0.057996787 -0.08776423 -0.076956615
000330 0c e6 8f bc ed a3 89 bd 71 03 9f bd 29 23 95 3d
       -0.01756575 -0.067207195 -0.07764328 0.07282097
000340 ec bc e1 bc 0e 0a 1c 3d f0 a4 fe bb 06 3d 1d 3d
       -0.027555905 0.038095526 -0.007771127 0.038388275
000350 46 f9 5f 3d cc ea d5 3c 85 8a 80 3d a8 28 38 bc
       0.054681085 0.026112936 0.062764205 -0.011240162
000360 48 4f 8a bd fd 62 04 bd 40 dc c3 3c ea d4 55 bd
       -0.06753403 -0.032320965 0.023908734 -0.052205004
000370 a3 79 8d 3d 1d c9 09 bd 98 72 7a 3c 2f dc 93 3d
       0.06907966 -0.033639062 0.01528611 0.07219731
000380 e6 e9 5c 3d 91 8a 12 bd 11 1f 7d bd 1d b0 87 3d
       0.053934 -0.03577668 -0.061797205 0.06625388
000390 a6 96 76 3d e0 35 1b 3c 34 31 81 3c 00 84 9b bd
       0.060202263 0.009473294 0.015770532 -0.075935364
0003a0 60 3b a0 3b 00 b3 74 3b 98 0b 1d bd cb c0 ab 3d
       0.0048898906 0.0037338138 -0.038341135 0.08386382
0003b0 28 58 30 bc 1e 36 43 bd f0 0b 7d 3c a0 ff 34 3b
       -0.010763206 -0.047659032 0.015444741 0.0027618185
0003c0 da 84 f4 bc 08 85 4a 3c 40 a7 04 3c 10 6a f9 bc
       -0.029848505 0.012360819 0.008096516 -0.030446082
0003d0 a3 89 a3 3d 40 c4 6e bc c4 59 a8 bd e4 88 78 bd
       0.079852365 -0.014573157 -0.082202464 -0.060677424
0003e0 f8 e9 06 3c f8 d6 97 bc 80 a7 14 3c 80 f4 f0 bc
       0.008234493 -0.018535122 0.009073138 -0.029413462
0003f0 5d d0 5b bd 78 0b d1 bc 9f 1b b4 bd 88 67 ca bc
       -0.053665508 -0.025518164 -0.08794331 -0.02470757

shit.2.weight f4 [128, 256]
000000 40 6d 0a bb 8c 9d 01 bd f0 5e 66 3d 00 3f f8 bc
       -0.0021122247 -0.03164439 0.056242883 -0.030303478
000010 d4 6b 0a bd f6 2e 63 3d 54 33 5d bd 1c 90 2d bd
       -0.03379424 0.055464707 -0.05400403 -0.04237376
000020 74 60 53 3d 30 45 51 3c 70 64 45 bc 1e 19 17 bd
       0.051605657 0.012772843 -0.012047872 -0.036889188
000030 12 39 02 3d 90 26 e4 3b 3e c1 7f bd c8 bf 0f 3c
       0.031792708 0.006962605 -0.06244015 0.008773752
000040 d8 6c b0 bc 68 48 12 3d a8 31 66 3c 42 4c 5b bd
       -0.021536276 0.035713583 0.014049925 -0.053539522
000050 b2 e6 05 3d 84 e3 51 bd 74 2f 9a 3c 20 07 61 3b
       0.03269071 -0.051242366 0.018821456 0.0034336522
000060 20 af 5f bd b8 c3 66 bc 88 a7 18 3c 38 18 6c bc
       -0.05461037 -0.014084749 0.009317286 -0.014410071
000070 e8 8c 5f 3c 08 3c 71 3c 32 b1 6f 3d 7a 7f 04 bd
       0.0136444345 0.014723785 0.058518596 -0.032348134
000080 58 69 7f bc 4c b7 79 bd 98 fe 95 3c f0 bf 30 bc
       -0.015589081 -0.06096582 0.018309876 -0.010787949
000090 14 2f 00 bd 62 c4 3a 3d b6 36 06 3d 08 29 20 bc
       -0.031294897 0.04559744 0.03276702 -0.009775408
0000a0 78 1f 1c 3c f8 01 7a bd 88 b9 97 bc f0 d0 ec bc
       0.009528987 -0.061037034 -0.018521085 -0.028908223
0000b0 3a c7 6f bd 40 bf c0 bb 32 49 10 3d 0c a9 d1 bc
       -0.058539607 -0.005882174 0.035226054 -0.025593303
0000c0 40 6f d3 ba c4 43 36 3d a0 47 01 3d 50 8b c9 bc
       -0.0016131178 0.04449822 0.031562448 -0.024602562
0000d0 96 74 10 3d 2e 5a 51 3d d4 b5 c1 3c c0 0b 3e bb
       0.035267435 0.051111393 0.023646273 -0.0028998703
0000e0 0c 6f 75 3d 72 c1 17 3d 40 ac de bb 7a 28 73 3d
       0.059920356 0.03704972 -0.006795436 0.059364773
0000f0 00 20 35 b8 d8 19 e1 3c 3e 1c 1e bd 16 35 20 bd
       -4.3183565e-05 0.027478144 -0.038601153 -0.039113127
000100 00 1e e2 3a 02 4f 62 bd 38 a9 08 3c e6 b7 5e bd
       0.0017251372 -0.05525113 0.008341126 -0.054374598
000110 c4 0d 06 3d 10 98 3b 3c 14 b1 77 bd 46 ff 28 3d
       0.03272797 0.011449829 -0.06047161 0.041259073
000120 5c f3 ef 3c 70 3d 70 3d 5e cb 10 3d e0 50 f6 bb
       0.029290847 0.05865234 0.035350196 -0.0075169653
000130 70 99 45 3d f6 d4 4c 3d 44 87 ec bc 30 11 aa 3c
       0.048242033 0.050007783 -0.028873093 0.020760149
000140 b0 48 17 bc 20 8e 4b 3d 38 e8 1e bd 62 3d 38 bd
       -0.009233639 0.049696088 -0.03879568 -0.044980414
000150 80 1c ae 3b 60 e2 7f bd 80 2d 13 bd e4 dd 88 3c
       0.005313456 -0.062471747 -0.035932064 0.016707368
000160 68 ba 6b 3d 00 9e 2f ba e6 b4 1c bd cc d1 dd 3c
       0.057550818 -0.0006699264 -0.038258456 0.027077578
000170 88 f4 e6 bc 50 3b e0 3c 5a 06 7d 3d 2c 88 3d bd
       -0.028192773 0.027372032 0.061773635 -0.04627244
000180 40 ec 99 3b 5a 20 47 3d ea 14 29 bd b0 66 a4 3c
       0.0046973526 0.048614837 -0.04127971 0.020068496
000190 a4 51 3c 3d f0 6e 91 3b f0 8b 21 bc ec 2b be 3c
       0.045976296 0.0044382736 -0.009860024 0.023214303
0001a0 60 c5 2b bb 48 b8 6e bc 14 d4 be 3c 20 52 6a bc
       -0.0026210174 -0.014570303 0.023294486 -0.014301807
0001b0 e8 89 3e 3c 24 b2 d1 3c a0 f2 97 3b 14 e0 35 bd
       0.011629559 0.02559764 0.0046370775 -0.04440315
0001c0 82 24 43 bd 10 89 0c 3d 4e 19 2c 3d 48 66 10 3c
       -0.04764224 0.0343104 0.04201632 0.008813448
0001d0 a8 9c 9b 3c 80 50 7e 3a 50 df bb 3c 94 ab 2a 3d
       0.018995598 0.00097013265 0.022933632 0.041667536
0001e0 58 f1 6e 3d dc 8f e2 bc 08 bf 31 bd a8 28 07 bd
       0.058335632 -0.027656488 -0.043395072 -0.032997757
0001f0 a8 1e 8a 3c 14 64 ea 3c 38 a1 5f bc f6 7a 7d bd
       0.016860321 0.028612174 -0.013649277 -0.061884843
000200 d4 68 99 bc 90 30 6d bd 1c c4 49 3d 22 a8 49 3d
       -0.018726744 -0.05790764 0.04925929 0.04923261
000210 90 64 cf 3c bc ee e2 bc 40 f0 7c 3d 62 45 16 bd
       0.025316507 -0.027701728 0.061752558 -0.036687262
000220 70 a1 d1 3c 60 81 92 bb ee 5d 24 bd 00 a0 5f ba
       0.025589675 -0.004470989 -0.04012864 -0.0008530617
000230 ea 3a 3b 3d 8e 43 30 bd c6 84 02 bd 58 b4 b7 bc
       0.04571048 -0.043033175 -0.031864904 -0.022424862
000240 20 cb 09 3b c8 ac 0a 3d 0c d3 2e bd 2c 3c ad 3c
       0.0021025613 0.033856183 -0.04268174 0.021146856
000250 f4 64 35 bd d4 b8 3b bd 20 59 ee bc 40 f8 fe bb
       -0.04428573 -0.045830563 -0.029095232 -0.0077810585
000260 3c 23 a2 3c 28 06 66 bd 90 69 30 3c a6 9a 51 bd
       0.019792192 -0.056158215 0.010767356 -0.051172875
000270 68 ef 3c bd 10 a1 0b bd b2 ce 15 3d 80 fb c5 3b
       -0.046126753 -0.034089148 0.036574073 0.006041944
000280 f8 85 49 3d 4c 75 64 bd a6 9b 6c 3d 70 6d 49 3d
       0.04920003 -0.055775926 0.057765625 0.049176633
000290 44 39 2b bd e0 66 7a bb ee 20 78 3d 38 9a 28 3c
       -0.04180266 -0.003820829 0.06057828 0.010290675
0002a0 a8 ad 9b 3c b0 2d 3c 3c 52 27 5e 3d e0 2e 57 3b
       0.019003704 0.011485502 0.054236718 0.0032834336
0002b0 a2 fc 4a 3d 58 16 85 3c a8 b7 fb bc 54 03 1f bd
       0.049557336 0.016246006 -0.030727223 -0.038821533
0002c0 8c 74 ed bc 54 10 3e 3d e4 3d 7f bd fc c7 6f bd
       -0.028986238 0.04640229 -0.062314883 -0.05854033
0002d0 24 b6 82 3c 70 ba 3c bc 76 ea 17 3d e8 e1 87 bc
       0.015955992 -0.01151906 0.037088834 -0.016587213
0002e0 a8 88 03 bd a0 78 6b 3c 9a 01 40 bd ba 46 0e bd
       -0.032112747 0.014372021 -0.046876527 -0.03473542
0002f0 36 a6 32 3d 70 e3 1b bd d8 ec 5d 3c 30 cb f1 bc
       0.043615542 -0.0380587 0.0135452375 -0.029515833
000300 f4 36 56 bd 84 55 b4 3c b4 31 d7 3c fa 0c 38 bd
       -0.0522985 0.022013433 0.026268817 -0.04493425
000310 10 21 58 bc b0 8e 95 bc 2c 8c 37 3d 6c 82 bf bc
       -0.013191476 -0.018256515 0.044811413 -0.02337762
000320 5c 47 b2 3c 26 42 70 3d 34 f9 3f 3d 3e b4 1f 3d
       0.021762542 0.058656834 0.046868518 0.03899025
000330 66 66 35 bd ce c3 63 bd 24 aa c9 3c b4 11 75 bd
       -0.044287108 -0.055606656 0.024617262 -0.059831336
000340 c0 f9 5a bd e4 7d 62 3d a8 2d a3 3c d8 51 2b bc
       -0.053460836 0.05529584 0.019919232 -0.010456525
000350 0c 7e 25 3d 04 e2 27 bd 20 19 3e 3c 44 60 a0 3c
       0.04040341 -0.04098703 0.01160267 0.019577153
000360 00 4b 08 3d ca bf 45 3d 1e 9c 65 3d 78 f8 19 3d
       0.03327465 0.048278607 0.056057088 0.037590474
000370 20 7c 9c bb 82 ea 79 bd 16 4a 50 3d 1c 12 ea bc
       -0.004775539 -0.06101466 0.050851904 -0.028573088
000380 48 db 09 3c d6 0a 73 bd 80 54 37 ba dc b8 a4 3c
       0.008414097 -0.059336506 -0.00069934875 0.02010768
000390 94 e4 00 bd 96 93 1e 3d 62 4d 4a bd 80 96 f7 3b
       -0.03146799 0.038714968 -0.049390204 0.007555783
0003a0 0c e1 b3 3c 1a 6e 49 3d 76 c6 3c 3d 30 e4 5e bd
       0.021957897 0.049177267 0.046087705 -0.054416835
0003b0 90 22 9a bb d0 51 b0 bc 24 34 d1 bc 58 7d 70 bd
       -0.004703827 -0.021523386 -0.025537558 -0.058713287
0003c0 80 bb a6 ba 24 8a de 3c 58 1e 38 bc a8 09 56 bd
       -0.0012720674 0.02716548 -0.011237703 -0.052255303
0003d0 8c b1 93 bc 14 51 8e bc 86 c4 02 3d 00 f3 8f 3b
       -0.018028997 -0.017372645 0.0319257 0.0043929815
0003e0 26 79 7a 3d 7c 48 1b bd 3c f5 12 bd 36 a3 46 bd
       0.061150692 -0.037910923 -0.035878405 -0.048495494
0003f0 42 55 22 bd 8e f2 36 bd 3c 62 c1 bc 80 3a d1 3a
       -0.03963209 -0.044664912 -0.023606412 0.0015962869
