src/temp/model/checkpoint_1000.pth (torch, 922959 bytes, 17 tensors)

actor.0.weight f4 [32, 1, 3, 3]
000000 91 32 8c 3e 00 ad a9 3b cb ec 20 be ce 79 45 3e
       0.2738233 0.005178094 -0.1571533 0.19284746
000010 d4 67 a8 3d 0c 6b b1 bd 96 20 f4 bd d6 1d 33 3e
       0.08222929 -0.08662996 -0.11920278 0.1749185
000020 cc 67 94 bd fc 43 8a 3d 99 ea 89 3e a0 93 94 3d
       -0.0724636 0.06751248 0.26936796 0.0725472
000030 5b 93 a6 be b2 ef 4e 3e 10 a8 89 bc 52 4a 3e 3e
       -0.32534298 0.20208624 -0.016803771 0.18583038
000040 7c 7c fe 3d f4 31 b5 3d 8e 5a 22 be d0 3b a1 bc
       0.12426087 0.088474184 -0.15854856 -0.019681841
000050 57 20 a4 be 00 9d be 3a a0 6b 32 3c 5c 74 ba 3d
       -0.32055923 0.0014542639 0.010889918 0.09104225
000060 e8 3f 16 be e2 e5 78 3e 85 b7 95 3e 80 b1 c4 3d
       -0.14672816 0.24306443 0.29241577 0.09604168
000070 ea b2 4b 3e a6 a4 52 be fc e3 81 bd e0 cc 13 bc
       0.19892469 -0.20570621 -0.06342313 -0.009021014
000080 bb 01 1f be 30 e5 ac bd 72 e1 47 3e f2 b1 17 3e
       -0.15528004 -0.084421515 0.19519594 0.14813974
000090 dd 45 9a 3e df 48 a7 3e c8 d8 57 3d cc 07 98 bd
       0.30131426 0.32672784 0.052696973 -0.07423362
0000a0 37 85 81 3e d0 ff e4 bd 10 19 06 be 20 ee b9 bd
       0.25296947 -0.11181605 -0.13095498 -0.09078622
0000b0 1b 22 a5 3e 1c 39 a8 bd b8 e3 58 bd a1 7b aa 3e
       0.32252583 -0.08214018 -0.052951545 0.33297446
0000c0 a0 c8 2d 3c a0 e6 0c 3c b6 e1 a7 be 00 d4 fb ba
       0.010606915 0.008599907 -0.3278939 -0.0019212961
0000d0 10 51 ea 3c ce e9 92 be 80 df 1d 3b 79 5c 8a 3e
       0.028603107 -0.28694004 0.0024089515 0.27023676
0000e0 22 1f 30 3e e8 d7 0b 3d fa 30 a8 be 8a 97 60 3e
       0.17199376 0.03414145 -0.32849866 0.21932808
0000f0 cd 05 9c 3e c0 dd c2 3d c8 54 55 bd 9e 75 a6 be
       0.30473176 0.09514952 -0.052082807 -0.3251161
000100 dc e0 a8 be da 4f a1 be d0 fb 1a 3e 0e e6 45 3e
       -0.32984054 -0.31506234 0.15135121 0.1932604
000110 e5 53 9e 3e 2d 33 9a 3e 8a da 63 3e eb 34 a6 3e
       0.3092338 0.3011717 0.22251335 0.32462248
000120 38 e5 5f be 09 82 9d 3e 8f 5a 9a be 70 f9 cd 3c
       -0.21864784 0.3076327 -0.30147216 0.025143355
000130 28 2b 3d bd b0 c0 20 be 88 21 1c 3e 23 b3 7c be
       -0.046183735 -0.15698504 0.15247166 -0.2467771
000140 0f 2e 92 3e 38 66 62 3d ea a7 3a 3e 40 e4 f6 3c
       0.28550765 0.055273265 0.18228117 0.030138135
000150 0e d4 4c be 30 4c 20 be be 88 07 be 00 5a 2e bc
       -0.20002767 -0.15654063 -0.13235757 -0.010641575
000160 e8 ae 2f be 51 d7 8f 3e c0 0d 0b be 29 df 8b 3e
       -0.17156565 0.2809396 -0.13579464 0.27318695
000170 70 f0 04 3e 92 a8 68 3e 58 c1 68 be 37 6e 97 3e
       0.12982345 0.22720554 -0.22730005 0.29576275
000180 26 0c b2 bd d1 86 a3 3e 0a 58 91 be 88 ac 9b be
       -0.086937234 0.31938794 -0.2838748 -0.30405068
000190 5e 48 6c be 13 39 94 3e 78 73 6e be c0 8c d1 bc
       -0.23074481 0.28949794 -0.23286235 -0.02557981
0001a0 b0 78 e3 bd b3 dc 3f be 95 b9 90 3e 85 eb 8b 3e
       -0.11107004 -0.18736534 0.28266588 0.27328125
0001b0 3e 7b 4c be 80 e1 ed bd a0 cb 0f 3d a0 c5 33 bc
       -0.19968888 -0.11615276 0.0351063 -0.01097241
0001c0 ae 52 66 be 84 de 9a 3d b6 b7 34 be e6 80 06 be
       -0.22492477 0.07561973 -0.17648205 -0.13135108
0001d0 fb eb 5d be c8 39 9e be 56 e2 f6 bd d0 1b b9 3d
       -0.2167205 -0.3090346 -0.12054889 0.09038508
0001e0 a5 44 98 3e b0 3b 98 be f9 90 a9 3e d0 19 c9 3d
       0.29739872 -0.29733038 0.33118418 0.098193765
0001f0 34 4c 83 bd 4c 82 e9 3d c5 56 99 3e da 1b 3f 3e
       -0.06411019 0.11401805 0.29949012 0.18662968
000200 b8 6d 21 bd 90 a1 e7 bd a6 89 d6 bd bd 62 a3 3e
       -0.039411277 -0.113101125 -0.10475473 0.3191127
000210 4c 33 d9 bd 3e bf 90 be ec 57 95 be 32 8a 9f be
       -0.10605487 -0.28270906 -0.29168642 -0.31160122
000220 a0 8a 75 3c 20 82 0f 3c e6 f9 34 be 27 38 91 3e
       0.014986664 0.008759052 -0.17673454 0.28363153
000230 54 1e bb 3d f0 d2 11 3e 52 a9 6f 3e 42 fa 27 3e
       0.09136644 0.14240623 0.23404434 0.1640406
000240 65 72 a7 3e 8e 3a 28 be 68 0f 0f be 00 22 d8 bd
       0.32704464 -0.16428587 -0.13970721 -0.1055336
000250 ce 33 a7 be 00 10 32 3c 78 1e 01 3e da 3f 40 3e
       -0.3265671 0.0108680725 0.12609279 0.18774357
000260 e0 b2 01 3c 94 bd ce 3d 80 60 45 bc 93 0f 18 be
       0.007916182 0.10094753 -0.012046933 -0.14849691
000270 a4 d5 c3 3d e8 9b 5d be 5b 83 a7 3e fb ad 6c be
       0.09562233 -0.21641505 0.32717404 -0.23113243
000280 bc 3c a6 be e0 0c 1d bd 67 7d 95 3e 00 30 fd 3a
       -0.32468212 -0.038342357 0.29197237 0.0019316673
000290 b0 af 8b bc 7c bf a8 bd 90 f4 a3 3d 2c d1 82 3d
       -0.017051548 -0.08239648 0.08005631 0.063875526
0002a0 ae 4f 6a 3e 2b d6 43 be c0 bd d6 3c c0 d6 21 be
       0.22881958 -0.19124667 0.026213527 -0.15804577
0002b0 39 a0 9e 3e 76 b2 88 be e6 a7 1b be 1e 4d 1e 3e
       0.30981615 -0.26698655 -0.15200767 0.15459105
0002c0 a2 7e 88 be 60 94 31 bd 01 be 9c 3e 4c a7 ce bd
       -0.26659113 -0.043354392 0.3061371 -0.10090503
0002d0 2f a8 8d 3e 6b e5 23 be 00 bc 99 bc a2 cd 23 3e
       0.27667376 -0.16005485 -0.018766403 0.15996411
0002e0 6e 29 3c 3e 43 4d 3b be 02 d2 66 3e 46 87 7d be
       0.18375179 -0.18291192 0.22541049 -0.24758634
0002f0 20 db 35 3c b8 c0 62 3d 7c bc 86 bd 05 dc 83 3e
       0.011099607 0.055359572 -0.06578919 0.257538
000300 a0 12 15 3e 00 d8 af 3b 2a 5c 39 3e d8 aa 6d bd
       0.14557886 0.0053663254 0.18101564 -0.058024257
000310 60 5f 8f be c4 6f ca 3d 11 1f 9f 3e 6c ec e9 3d
       -0.28002453 0.09884599 0.3107839 0.11422047
000320 d3 1a 99 3e 50 63 87 bd 63 9e 8e be 72 64 59 3e
       0.29903278 -0.06610739 -0.27855214 0.21229723
000330 a0 48 76 3c 1b e1 59 be 40 7f a0 bc 50 6e 03 be
       0.015031964 -0.21277277 -0.019591928 -0.1283505
000340 04 71 e5 3d a7 2c a9 be 96 e5 55 be 8a 3f 5d 3e
       0.11203197 -0.3304188 -0.20888361 0.2160627
000350 96 3c 98 be de 1f 35 3e 36 74 29 3e 4a 8f 70 3e
       -0.29733723 0.17687938 0.16548237 0.2349216
000360 20 ac 19 3c 97 25 9d 3e 13 73 2f be 4a 84 6a 3e
       0.009379417 0.3069274 -0.17133741 0.22902027
000370 a2 3d 46 3e c8 20 61 bd 8e 1d a1 be f0 48 00 3e
       0.19359449 -0.054962903 -0.3146786 0.12527823
000380 d9 32 8e 3e 43 19 63 be bb 9e 06 be 9e 98 7d 3e
       0.2777317 -0.22177605 -0.13146488 0.2476525
000390 70 c2 65 be e4 65 a2 bd 26 1c 46 be ce 57 6b 3e
       -0.22437453 -0.0792959 -0.19346675 0.22982714
0003a0 cd 4d 96 3e 24 db 90 be 60 64 6c 3d ea df 16 3e
       0.29356232 -0.2829219 0.057712913 0.14733854
0003b0 32 6b 6d 3e 70 79 15 3e 80 03 a8 be c1 22 86 3e
       0.23185423 0.14597106 -0.3281517 0.2619839
0003c0 ec 83 ed 3d 9c 63 ee bd 90 8e 40 be 08 4a 7d be
       0.11597428 -0.11640093 -0.18804383 -0.24735272
0003d0 53 72 97 3e 1b 79 34 be 76 ff 5f be f3 d9 89 3e
       0.2957941 -0.17624323 -0.21874794 0.26924095
0003e0 60 c8 77 3d dc 0a ee 3d 9f 9a 9e be 4e e3 66 3e
       0.060493827 0.11623165 -0.30977342 0.22547647
0003f0 f4 3f 81 be 93 e5 58 be 03 4d 1e be c0 80 25 be
       -0.25244105 -0.21181326 -0.15459065 -0.16162395

actor.0.bias f4 [32]
000000 c0 d9 72 3d ac d9 97 bd e6 bf 72 3e a4 2e a7 bd
       0.059289694 -0.074145645 0.23706016 -0.08163193
000010 a2 6b 07 3e 0c 18 a3 bd af e2 97 3e ab b9 83 3e
       0.13224652 -0.07963571 0.29665133 0.2572759
000020 40 9f 6d bd 70 fc 26 3e 7b cc 9b be 35 2c 97 3e
       -0.0580132 0.16307235 -0.30429444 0.29525915
000030 36 c8 1d be bb 8a 23 be 84 11 81 bd aa 58 4b 3e
       -0.15408406 -0.1597089 -0.06302169 0.19858041
000040 0e 1d 31 be fb bd 31 be 00 df 93 ba a4 a2 93 bd
       -0.1729624 -0.17357628 -0.0011281669 -0.072087556
000050 86 c2 30 be 2a bf 09 3e 4d db a9 3e f6 5b 4a 3e
       -0.17261705 0.1345183 0.33175126 0.19761643
000060 a0 32 00 3c 70 37 f8 3d 76 e8 94 be d0 0e d2 3d
       0.00782457 0.12119949 -0.29083604 0.102567315
000070 a1 7a 85 3e 0a b5 6f 3e 60 2c fb 3d 20 18 9d bd
       0.2607012 0.23408905 0.12264323 -0.07670617

actor.2.weight f4 [64, 32, 3, 3]
000000 3e 1f 9f bc ac d7 d2 bc b8 b8 1e bc 02 e1 fc 3c
       -0.019424077 -0.025737606 -0.009687595 0.03086901
000010 49 0f 5d 3d d0 bc 1d bc 40 9e ef 3a 78 7a 78 bc
       0.053969655 -0.009627536 0.0018281415 -0.015165918
000020 a3 d2 43 bd 16 b7 d3 3c 4c 47 30 3c c2 8a 8e 3c
       -0.0478083 0.025844138 0.010759186 0.01740015
000030 4a 4e 58 bd 8e d6 fa 3c a9 46 3c 3d ed a5 3a 3d
       -0.052809037 0.030619886 0.045965824 0.045568395
000040 3f 1e 6e 3d 36 8c 84 bc 00 76 09 bb 88 a6 e4 3b
       0.058134314 -0.016180139 -0.0020974874 0.00697786
000050 6e ee a2 bc 4a 42 2f bd d1 6f 40 3d 52 81 44 bd
       -0.019889083 -0.042787828 0.046981636 -0.047974892
000060 df a1 6a bd 8f 03 02 3d ee 38 2a bd 63 5f 30 3d
       -0.05728328 0.031741675 -0.0415582 0.043059718
000070 b4 6f 10 bd 7b fd 14 bd 42 a9 e2 3c 52 d3 8e 3c
       -0.03526278 -0.03637455 0.027668599 0.01743475
000080 8b 1f 02 bd c0 02 f4 bb a9 67 1d 3d 99 64 3b 3d
       -0.031768363 -0.007446617 0.038428936 0.045750234
000090 4c b4 66 3c 72 c8 c5 3c fb c6 5d 3d 3c 3a 61 3c
       0.014081072 0.024143431 0.05414484 0.013746794
0000a0 34 2f cd bc 9c a7 db bc 79 1b 63 3d 61 b7 04 3d
       -0.025046922 -0.02681332 0.05544612 0.032401446
0000b0 e0 0c 1a bc dc af 38 3c 9e 7a ec 3c 1d 21 08 3d
       -0.009402484 0.011272397 0.028867062 0.033234704
0000c0 b0 f4 22 3b 20 58 e1 3a 5e b3 c8 bc 1e 21 8f 3c
       0.0024865083 0.0017192401 -0.024499591 0.017471846
0000d0 3f 0b 69 bd 97 ef 44 3d 6c 96 68 bc d2 63 2e bd
       -0.05689549 0.048080053 -0.01419602 -0.042575665
0000e0 ba 88 c6 bc 00 4a 48 bd a1 e6 1a bd 08 48 85 bb
       -0.024235118 -0.048898697 -0.0378176 -0.0040674247
0000f0 33 e9 52 bd 9a 17 5f bd 10 b4 fa bb 03 51 6a bd
       -0.051491927 -0.054465868 -0.0076508597 -0.057206165
000100 9b 27 65 bd e0 74 a7 3a e2 55 03 bd 20 e7 45 bd
       -0.055945974 0.001277592 -0.032064326 -0.04831612
000110 ce 99 aa bc 50 aa 52 bb 0b 76 2a 3d 9a 72 f8 3c
       -0.020825293 -0.0032144971 0.04161648 0.030328084
000120 50 7d 3f bd 58 dd 57 bd 78 d0 84 bb 08 d6 04 bc
       -0.046750367 -0.052701324 -0.0040531717 -0.00810767
000130 b6 8a f7 3c ca 73 ce 3c c8 f8 09 bd 1a c1 21 bd
       0.03021751 0.025201697 -0.033684522 -0.039490797
000140 ce c0 f3 bc 50 92 56 bb b4 3b 81 bc 53 57 50 3d
       -0.029755022 -0.0032741018 -0.015775539 0.05086453
000150 78 74 f0 bb fb 01 50 3d 63 c6 38 3d 11 c9 27 3d
       -0.007338103 0.05078314 0.04511107 0.040963236
000160 dc ca 1b bc fb fa 4b bd 88 23 eb bb a3 db 4e 3d
       -0.009508815 -0.0497999 -0.0071758665 0.05050243
000170 e0 1f 7c bb 5c 08 b1 bc 90 e3 50 bc 2c f8 a3 bc
       -0.0038471147 -0.021610431 -0.012749568 -0.020015799
000180 b2 ac ae bc a4 cf 62 bd c7 e8 01 3d 54 9e 7b 3c
       -0.021322582 -0.055373803 0.031716134 0.015357573
000190 7e 4f d3 bc 00 ab 84 39 9c 5e 38 3c 8f 21 3d 3d
       -0.02579474 0.00025304407 0.011253025 0.046174582
0001a0 61 f3 61 3d 88 b4 3f bd de 1a 94 3c 48 3f 93 3b
       0.055163745 -0.046803027 0.018079218 0.0044936277
0001b0 fd c8 4e 3d ae ca e5 3c 5f 11 39 bd 14 d1 38 3c
       0.050484646 0.028050747 -0.045182582 0.011280317
0001c0 f5 44 43 bd b6 c2 5e bd 4d 4f 60 3d f4 15 4f bc
       -0.047673184 -0.05438491 0.054763127 -0.012639511
0001d0 70 da 04 3b 44 da 30 3c be f1 cf 3c ae 9b a8 3c
       0.00202718 0.010794226 0.025383826 0.020582046
0001e0 40 bd e5 bb 40 65 b2 ba 80 5a 9e bb 38 c6 ff bb
       -0.0070110857 -0.0013610497 -0.004832566 -0.007805612
0001f0 f8 b4 96 bc fd 83 2b 3d c4 2f 56 bc 80 7e f0 bb
       -0.01839684 0.04187392 -0.013072912 -0.0073392987
000200 7c c8 18 bc ca b5 9b bc 30 3b 80 bb 18 87 d5 3b
       -0.009325143 -0.019007582 -0.0039133057 0.0065163486
000210 56 0b a9 bc 72 a1 b0 3c d0 92 9a bc a5 a8 0a 3d
       -0.020635288 0.021561358 -0.018868834 0.03385224
000220 7e 4c e4 3c a6 99 c5 3c 0b d0 1c bd b9 71 09 3d
       0.027868506 0.024121117 -0.038284343 0.03355572
000230 da f2 f5 bc 7e 1c ad bc 45 ef 47 bd 26 ba cc bc
       -0.030023027 -0.02113175 -0.04881217 -0.024991106
000240 e0 0a 93 3a bc 7c 33 bd 48 05 d5 bc a5 55 71 3d
       0.0011218451 -0.043820128 -0.026003495 0.058919568
000250 3b ce 47 3d 5c 64 b1 bc 19 b3 02 3d ee de 5a bd
       0.04878066 -0.0216543 0.031909082 -0.05343526
000260 20 06 9e bc 7e 2b 88 bc 18 61 2f bc 64 6b 2b bd
       -0.01929003 -0.016622301 -0.010704301 -0.041850463
000270 72 84 b0 3c b6 bb e0 3c 48 c3 be bc 24 09 48 bc
       0.02154753 0.027433258 -0.023286477 -0.012209211
000280 54 6b 56 bd da f0 05 bd 6d 4c 22 3d b1 f2 53 3d
       -0.05234845 -0.032700397 0.039623667 0.05174512
000290 a8 98 83 3b 15 8c 15 3d 3e ad 43 bd 14 2c 36 bc
       0.004016001 0.036510546 -0.04777264 -0.0111189075
0002a0 97 d7 49 3d 5f 40 6a 3d 64 c8 75 bc 78 78 24 bd
       0.049277868 0.057190295 -0.01500139 -0.04015395
0002b0 65 20 2c 3d 64 11 2c bc 48 db 92 3b 84 3e 5f 3c
       0.04202308 -0.010502193 0.004481707 0.013625745
0002c0 b2 51 cd bc 4b b1 22 3d 08 d1 f0 3b 98 6e f5 bc
       -0.02506337 0.03971986 0.007349137 -0.029959962
0002d0 0a 05 63 bd 00 3a 9a b9 d2 0c 83 3c fa d4 ca 3c
       -0.055424727 -0.00029416382 0.015997324 0.024759758
0002e0 60 0e 82 3a 08 6c a9 3b 6f 97 3c 3d 23 af 0d 3d
       0.0009922497 0.005170349 0.046042856 0.03459085
0002f0 06 c3 66 bd b8 ad d7 3b de 0a 35 bd 80 68 f2 bc
       -0.056338333 0.006581988 -0.044199817 -0.029590845
000300 c7 d1 43 3d 25 db 35 3d b1 ad 1c 3d dc 1b 0a bd
       0.04780748 0.044398446 0.038251583 -0.033717975
000310 d3 b5 0b 3d 8b 06 09 3d 5c 49 26 bc f2 25 d0 3c
       0.034108948 0.033453505 -0.010149326 0.025408719
000320 b0 62 17 bd cc 5d 4f 3c 3e 7a 1d bd 55 e3 59 bd
       -0.03695935 0.01265664 -0.038446657 -0.053195316
000330 e8 c0 1f bd f7 f9 25 bd ec 55 70 bc a8 af d9 3b
       -0.03900233 -0.04052159 -0.014668923 0.0066432543
000340 60 2d aa bb e2 4f a3 3c ac cf 94 bc f2 61 cc 3c
       -0.0051933974 0.019935552 -0.018165432 0.024949048
000350 79 53 6d 3d 0e 3a eb 3c 41 2e 23 3d 5c 5f 20 bc
       0.057940934 0.028714206 0.039839033 -0.00978836
000360 b0 9f 57 bd 9e 23 a0 3c 08 44 f2 3b 74 62 31 3c
       -0.052642524 0.019548234 0.007393364 0.010826696
000370 04 06 2d bc 5c 52 3a bc 60 f1 41 3b 39 cc 16 3d
       -0.010560516 -0.011372175 0.0029593334 0.036815856
000380 54 28 dd bc b8 13 a1 3b fa 21 23 bd fa 05 82 bc
       -0.026996769 0.0049156807 -0.039827324 -0.01587199
000390 d3 9c 22 3d c0 b4 68 3a 40 05 de ba 9e 46 03 bd
       0.03970034 0.00088770315 -0.001693882 -0.032049768
0003a0 88 d7 3d bc ce 3c b2 3c 8c 84 05 bc b4 56 f0 bc
       -0.011587031 0.02175751 -0.008149277 -0.029338218
0003b0 e4 3c 10 3c 8b dc 65 3d 34 c8 cc bc 80 b7 2a bd
       0.00880358 0.05611853 -0.024997808 -0.041678905
0003c0 f2 b2 ed 3c d8 3e 29 bc 72 0b dc 3c bb af 4d 3d
       0.029015992 -0.0103299245 0.026860926 0.050216418
0003d0 7a 35 8a bc c4 93 7a 3c b4 0c 5a 3c 10 28 6f 3b
       -0.016871203 0.015294019 0.013308693 0.0036492385
0003e0 23 d4 ef bc e4 b8 3d bd 96 0a b3 3c 08 68 31 bd
       -0.02927596 -0.046318904 0.021855634 -0.043312103
0003f0 60 d9 27 bc ec 8b 4a 3c b4 26 1d 3c 06 b5 23 bd
       -0.010244697 0.012362462 0.009591747 -0.03996756

actor.2.bias f4 [64]
000000 3c 7d 52 3c 50 a0 03 bd c8 3a 47 bc c7 5c 34 3d
       0.012847241 -0.032135308 -0.012160011 0.044033792
000010 6e 55 ec 3c 80 19 0d bb e1 92 3c 3d 6d de 19 3d
       0.02884933 -0.0021530092 0.046038512 0.037565637
000020 f6 a4 ad bc 1f 84 02 bd 2c 7b a7 bc d9 76 6d 3d
       -0.021196824 -0.03186428 -0.020444475 0.05797467
000030 cd d6 69 3d aa 91 d9 3c f3 91 5a 3d 9d aa 41 3d
       0.057089616 0.026558716 0.053361844 0.04728185
000040 d2 48 d5 3c 48 ae b1 3b eb be 25 3d 53 8e 4a 3d
       0.0260357 0.0054223873 0.040465277 0.049452137
000050 8f a9 0f bd 4d c8 65 3d 94 46 18 bd f1 cf 0f 3d
       -0.035073813 0.056099225 -0.037176684 0.035110418
000060 b8 bb bc 3b 48 d2 a9 bb ec 67 4b 3c 2a ea d8 3c
       0.0057596825 -0.005182538 0.012414914 0.026478846
000070 cb 6d 30 3d f5 fe 3c bd 03 13 5c 3d 3f b3 26 3d
       0.043073457 -0.046141583 0.05372907 0.040698286
000080 d0 c9 40 bb aa d0 9e bc 87 1b 32 3d 74 46 26 bd
       -0.0029417165 -0.019386608 0.043483283 -0.040594533
000090 6b 5e 5d 3d d2 15 b6 bc b8 94 4a bc 80 4e 42 bb
       0.054045122 -0.022227202 -0.012364559 -0.002964884
0000a0 2a ab ec 3c 6d 11 26 bd a9 2a 4a 3d 80 79 a8 b9
       0.028890211 -0.040543962 0.04935709 -0.00032133982
0000b0 b1 4b 4b bd a7 94 6a 3d 69 f1 2a 3d 2c b6 41 bc
       -0.04963273 0.057270672 0.041734133 -0.011823218
0000c0 1c e8 3c bd d0 d7 c7 bb 14 b4 6e 3c b8 d7 a4 bb
       -0.046119794 -0.006098725 0.014569301 -0.0050305985
0000d0 0e 2e 60 bd 00 fa eb ba 6f 63 61 3d 86 b1 6a bd
       -0.05473142 -0.0018003583 0.055026468 -0.057298206
0000e0 d9 10 29 3d f9 05 1b 3d 2f 05 62 3d 1a 4e ec 3c
       0.041275833 0.037847493 0.055180725 0.028845835
0000f0 5d cf 1a 3d f0 fc 7c bc 48 63 3e bc 68 ee 2d bd
       0.037795413 -0.015441164 -0.01162035 -0.04246369

actor.4.weight f4 [128, 64, 3, 3]
000000 10 ff 9d 3c b7 52 21 3d d2 f3 dd 3c 72 fd e8 3c
       0.019286662 0.039385524 0.027093802 0.028441165
000010 36 7d ee 3c 08 33 21 bd e7 3f 27 bd 66 56 c4 bc
       0.02911244 -0.039355308 -0.040832426 -0.02396698
000020 06 47 64 bc bb 1a ab bc 68 34 9d bc fb 22 21 bd
       -0.013932949 -0.02088677 -0.019190028 -0.03934
000030 d0 fd 4f 3c 50 fe a6 bc 40 33 30 bc 38 eb de 3b
       0.012694791 -0.020384938 -0.010754406 0.0068029426
000040 18 b1 9a bb b0 65 1a 3c 48 04 8d 3b b6 30 09 bd
       -0.0047208183 0.009423658 0.004303489 -0.03349372
000050 20 74 b7 3a 70 50 41 3c 2a a9 a5 3c d0 ef 23 3c
       0.00139964 0.011798963 0.020222265 0.010005906
000060 88 20 1b bd 40 ee 74 bc 66 c4 af bc 6b 85 06 3d
       -0.03787282 -0.014949381 -0.021455955 0.03284208
000070 47 09 2a 3d 70 6c 15 bc 38 84 8b bc 18 97 d7 bb
       0.041512754 -0.009120092 -0.01703082 -0.006579291
000080 ee 48 ca bc 99 90 23 3d bc d6 40 3c 6e 8f 09 bd
       -0.024692979 0.03993282 0.011769947 -0.03358405
000090 5e 6f 82 3c 38 92 e0 bc 68 80 b0 3b 88 1c a3 3c
       0.015922245 -0.027413473 0.005386401 0.019911066
0000a0 56 3c 2c bc 5c 6d 70 3c 64 18 52 3c 00 dc a1 bb
       -0.010512432 0.014674511 0.012823198 -0.004939556
0000b0 6b d0 21 bd 80 51 8b 3a 08 25 b8 3b 8c 93 49 3c
       -0.039505403 0.0010629147 0.005619649 0.012303244
0000c0 df f4 29 3d e2 3d b0 3c 80 01 b0 ba 0e e5 f0 bc
       0.041493293 0.021513883 -0.0013428181 -0.029406097
0000d0 5c b6 15 bd a0 34 c3 3a 30 2b 7e bb 0c de 6e bc
       -0.036550865 0.0014893003 -0.0038783066 -0.014579307
0000e0 a0 af a8 bb 20 8d cb bc 90 7a 47 3c 1e 11 c3 bc
       -0.0051478893 -0.024847567 0.012175217 -0.023811873
0000f0 1c 3d 31 bc 23 5f f8 bc ef f5 13 3d 9f 3e 12 bd
       -0.010817792 -0.030318802 0.036123212 -0.03570425
000100 3a 17 d4 3c 9c 39 65 bc 96 42 34 bc 53 ac e5 bc
       0.025889982 -0.013990786 -0.011002203 -0.028036272
000110 c8 ff 88 bb 0c 03 71 bc 3f 2e 26 3d 70 85 4a bb
       -0.004180882 -0.014710199 0.040571447 -0.003090229
000120 86 1f 4d bc 4e 0d 01 bd 94 32 70 3c db d6 19 bd
       -0.012519723 -0.03150683 0.014660496 -0.037558418
000130 9b 73 23 bd 8a 55 ed 3c f9 90 10 3d a2 8d da 3c
       -0.03990517 0.028971452 0.035294507 0.026678864
000140 49 69 05 3d 00 5e 47 3a 40 5b 9d bc 46 ab 8f 3c
       0.03257111 0.00076052547 -0.01920855 0.017537724
000150 58 03 ea bb ae c8 e8 bc 3b 3c 04 3d 8c a3 55 3c
       -0.007141512 -0.028416004 0.032284003 0.013039481
000160 ee 71 28 bd 68 1d d3 bc 08 00 f9 bc b0 88 1c bc
       -0.041124277 -0.025770858 -0.030395523 -0.009554073
000170 68 50 d9 bc 32 95 15 bd 43 f7 a2 bc 80 f9 97 3c
       -0.026527599 -0.036519237 -0.019893294 0.018551588
000180 90 de 6d 3b 7a 6b b4 3c 20 61 1c bc 14 98 09 bd
       0.0036295988 0.022023905 -0.009544641 -0.0335923
000190 98 c0 8c bc 78 aa 95 bc 8a 14 d2 3c 70 54 8f 3c
       -0.01718168 -0.018269762 0.02564456 0.017496318
0001a0 18 db 98 3c 22 d7 93 3c d0 ee 18 3c 43 6c 0f bd
       0.01865916 0.01804692 0.009334281 -0.035015356
0001b0 6e 6e ba bc 88 0a bb 3b da eb 04 bd d0 d5 fe bc
       -0.022757735 0.0057080425 -0.032451488 -0.031107813
0001c0 80 53 98 3c d8 82 a7 bb c4 8a 00 bc 16 f6 b6 bc
       0.018594503 -0.0051120333 -0.007845584 -0.02233414
0001d0 34 91 11 bc 6e ad ee 3c 23 33 23 3d 70 e2 6d bb
       -0.008884717 0.029135432 0.03984369 -0.0036298297
0001e0 52 f6 ed 3c c0 b2 ce bb aa 89 8b 3c f6 ec 97 bc
       0.029048119 -0.0063079298 0.017033417 -0.018545609
0001f0 0b 14 ff bc 5b 4c f2 bc 30 6d 29 3c 35 9e 16 3d
       -0.031137487 -0.029577425 0.010340974 0.03677197
000200 8f 0f 17 bd 46 94 91 bc cb 80 e0 bc 0e 48 81 bc
       -0.036880072 -0.017770898 -0.027405163 -0.015781429
000210 f6 8b a9 bc c7 33 23 3d e0 74 c6 bc e4 5b 2e 3c
       -0.020696621 0.0398443 -0.024225652 0.010642026
000220 7a ef e7 3c 40 56 bf 3b 72 db da 3c 04 7d 26 3c
       0.028312434 0.005839139 0.026715968 0.010161642
000230 de 13 f7 bc 70 fc 80 3c 96 50 e4 bc 7d 8d 1c 3d
       -0.03016084 0.015745372 -0.027870458 0.03822087
000240 60 e3 4d 3c 42 9d d2 3c ed 18 13 3d 8c 57 07 bc
       0.012566417 0.025709752 0.035912443 -0.008260619
000250 49 b6 04 3d fe 3a 86 3c 70 0f 57 3c 90 29 fd bc
       0.032400403 0.016385552 0.013126239 -0.030903608
000260 c0 6b 6a bb c6 9b b9 bc 3e 29 d0 bc 4e d1 16 bd
       -0.003576979 -0.022657286 -0.02541029 -0.036820702
000270 08 00 10 bd ee 31 e5 3c 48 f0 86 bc 29 c6 26 3d
       -0.03515628 0.02797791 -0.016471997 0.040716324
000280 c0 ee 39 bc 82 5a 92 3c 18 91 db bb 16 4c 35 bc
       -0.011348426 0.017865423 -0.006700646 -0.011065504
000290 cc 3c 13 3c 84 e9 3f 3c bc 5f 25 bc c8 51 fb 3b
       0.008986663 0.011713389 -0.010093626 0.007669661
0002a0 2c 45 4b 3c b6 91 25 bd 0b 23 0f 3d 10 61 1b 3c
       0.012406629 -0.040422164 0.03494553 0.009483591
0002b0 30 39 75 3b a0 cb 3c bc 5a bf a0 3c 5e 69 87 bc
       0.003741812 -0.011523157 0.019622494 -0.016529735
0002c0 3e 0b e2 3c 2e 45 14 bd e0 d3 cf 3b 6e a0 95 bc
       0.027593251 -0.036198787 0.006342396 -0.018264975
0002d0 9a 60 9a 3c 50 3e c3 bc 90 b7 15 3b 9b 14 a6 bc
       0.018844891 -0.023833424 0.0022845007 -0.020273497
0002e0 f0 89 40 3c 8e d5 8d bc d0 03 6d bb ee 06 cc 3c
       0.011751637 -0.017313745 -0.0036165603 0.024905648
0002f0 a8 75 93 3c c4 05 5d 3c d2 75 ab 3c 74 26 3e 3c
       0.018000439 0.013490144 0.020930205 0.011605848
000300 5f 5c 02 3d 2a 64 b6 3c e0 f9 f4 bc be 95 80 3c
       0.031826373 0.022264559 -0.029904306 0.015696403
000310 6b 69 8e bc dc 72 01 3c 90 42 2b bb 93 a9 f2 bc
       -0.017384252 0.00790092 -0.0026132204 -0.029621875
000320 d2 b0 ad 3c 19 c0 0d 3d 8a b9 f6 3c 20 74 ff ba
       0.021202479 0.034607027 0.030117769 -0.0019489564
000330 c0 a4 0b ba 70 dd 39 3c c0 8a ee 3b 46 87 19 bd
       -0.0005326979 0.011344299 0.007279724 -0.037482522
000340 80 82 20 bc d6 da ba bc fc 54 5e bc 64 11 15 3c
       -0.009796739 -0.022809427 -0.013570067 0.0090983845
000350 18 1d f8 3b 52 c2 9d 3c 00 50 9c 3c 9e 9b 80 3c
       0.0075718276 0.019257698 0.019081116 0.015699204
000360 2e e4 cf 3c 54 e0 0e 3c 78 f1 fb bb 1c 07 2b 3c
       0.02537736 0.008720476 -0.0076886974 0.010438707
000370 81 a5 1f 3d aa 79 9f 3c a0 56 9b bb 00 11 17 bd
       0.038976196 0.019467194 -0.004740551 -0.036881447
000380 93 a0 d7 bc 00 38 df bc e1 5f 22 3d b3 6c 8a bc
       -0.026321685 -0.027248383 0.03964222 -0.016897535
000390 5e b2 01 bd 1b ad 28 3d ec d7 75 3c d2 94 d1 3c
       -0.031664245 0.04118071 0.015005093 0.025583658
0003a0 72 08 f6 3c 6a 5f e3 3c 50 76 4f 3c f8 f4 8e 3b
       0.030033324 0.027755458 0.012662485 0.0043626986
0003b0 c8 66 aa bc ee d0 f1 3c 22 3d c9 3c 60 b7 51 bc
       -0.020800963 0.02951857 0.024565283 -0.012800068
0003c0 e8 69 81 bc ba 28 9c 3c fc 48 36 3c 09 75 02 3d
       -0.01579757 0.019062389 0.011125799 0.031849895
0003d0 2c 43 41 3c a2 70 f0 3c 6b 3e da bc e8 a9 83 bc
       0.0117958 0.029350583 -0.026641091 -0.016072229
0003e0 f0 7f f1 bc 79 99 02 3d ef d8 28 3d 5c cc 63 3c
       -0.02947995 0.031884644 0.04122251 0.013903704
0003f0 7b e5 c7 bc 50 e6 68 bc fe 40 80 3c ec d3 17 bc
       -0.024401417 -0.014215067 0.01565599 -0.009266835

actor.4.bias f4 [128]
000000 be 25 ea 3c 7c d0 30 bc 72 96 ed 3c 50 19 17 3c
       0.02858245 -0.010791894 0.029002402 0.009222344
000010 ce f9 d1 bc 00 24 26 b8 8d 1d 03 3d be b4 d7 bc
       -0.025631811 -3.961101e-05 0.032010604 -0.026331302
000020 68 8a 11 bd 35 54 00 3d e0 de 90 bb f0 52 54 bb
       -0.035532385 0.031330306 -0.0044211 -0.0032398067
000030 28 0f 1b bd ac 51 44 3c fb 45 22 3d 50 e1 a9 bc
       -0.03785625 0.011982363 0.03961752 -0.02073732
000040 00 41 d2 3b 40 96 ba 3b 8b 1d 16 3d 4b 9d 9f bc
       0.00641644 0.0056941807 0.036649268 -0.019484183
000050 bb 01 08 3d 50 b2 0d bd 4a f0 88 3c a0 b0 20 bd
       0.033204775 -0.03459388 0.016716141 -0.039230943
000060 aa 9b 03 bd 1c 7b 60 3c 60 70 17 3c b0 d1 7b bc
       -0.032130875 0.013701227 0.009243101 -0.015369818
000070 90 06 89 3c 4a 89 c9 3c 56 83 ab bc 40 14 77 bb
       0.016726762 0.024601597 -0.02093665 -0.003770128
000080 f1 75 16 3d 32 44 9b 3c 16 d4 3c bc 36 43 3a bc
       0.03673357 0.018953416 -0.011525175 -0.011368563
000090 4d dd 09 3d b6 7a a7 bc 56 df 91 bc 27 f8 11 3d
       0.033658314 -0.020444255 -0.01780669 0.035637047
0000a0 bf 39 02 bd f0 22 01 bd 76 34 39 bc c0 53 51 3c
       -0.031793352 -0.03152746 -0.011304012 0.012776315
0000b0 40 2c 89 3c 40 41 20 bc 7b fc 1e bd 20 95 e2 bc
       0.016744733 -0.009781182 -0.038815003 -0.027658999
0000c0 3e 5f c9 3c a0 2a 04 3c 06 1b ac bc a0 e0 95 ba
       0.024581548 0.008066803 -0.02100898 -0.0011434741
0000d0 90 41 0e 3b 66 88 25 bd 66 45 30 bc 5a 7c b5 3c
       0.0021706559 -0.040413283 -0.010758733 0.022154022
0000e0 f0 a8 d3 bc e2 99 29 bd 20 a7 54 3c 95 ba 02 3d
       -0.025837392 -0.04140652 0.012979299 0.03191622
0000f0 c0 3f 26 bc 83 aa b6 bc 50 cc 14 3c 8a 39 f2 3c
       -0.010147035 -0.022298103 0.009081915 0.029568452
000100 88 6a 89 3b 01 e5 14 3d 00 05 3a ba 60 05 c5 bc
       0.0041936077 0.036351208 -0.0007096082 -0.024050415
000110 80 64 4e bb 7c 8d 3e bc 78 0e 00 bd fb e2 04 3d
       -0.0031493008 -0.011630412 -0.0312638 0.032443028
000120 c6 ae 91 3c a4 81 40 3c 00 75 79 39 35 1a 01 3d
       0.017783534 0.011749659 0.00023790076 0.031519134
000130 9b d8 f5 bc 9e 0b b4 3c b8 e5 fb bb d5 50 1f 3d
       -0.030010512 0.021978196 -0.0076872967 0.038895447
000140 14 32 74 3c 35 f7 0e 3d dd 29 29 3d 70 06 52 3b
       0.014904518 0.034903724 0.04129969 0.0032047294
000150 20 56 b7 ba fe 33 cd bc 66 26 3e bc d2 b1 af 3c
       -0.0013987459 -0.025049206 -0.011605835 0.021447096
000160 9a b8 ad 3c a4 8e 23 bd 66 c4 86 3c 00 e8 7a bc
       0.021206189 -0.039930955 0.016451072 -0.015314102
000170 92 12 bb 3c 60 46 a0 bb a0 f2 17 bc c7 14 05 bd
       0.022836003 -0.004891202 -0.009274155 -0.032490518
000180 88 38 e8 bc d0 f0 2b bc 72 6d ae 3c b0 33 06 3c
       -0.028347269 -0.010494426 0.021292422 0.008191034
000190 9d 8b 10 3d 20 90 8e bc e0 25 68 bc 10 73 23 3b
       0.035289396 -0.017402709 -0.014169186 0.0024940409
0001a0 20 0f c9 3b 5a f5 ef 3c b0 14 70 bb 75 b6 11 3d
       0.0061358362 0.029291797 -0.0036633424 0.035574395
0001b0 3e f5 e5 3c 5e 14 a1 3c 8f 32 22 3d 30 3c d3 bc
       0.028071042 0.019663032 0.039598998 -0.025785536
0001c0 3e 61 06 bd 81 2d 03 3d 28 20 9e bc f8 70 e7 bb
       -0.03280758 0.032025818 -0.019302443 -0.0070630275
0001d0 98 9d ac bb 8a 71 b2 3c 00 16 67 3c 78 fe f3 bc
       -0.00526781 0.021782655 0.014104366 -0.029784426
0001e0 c0 5e 74 3c e6 fc fa 3c ab ad a1 bc aa 3a 88 3c
       0.014915168 0.03063817 -0.019736132 0.016629536
0001f0 00 0b 94 bb 42 25 b1 3c 98 dd cb 3b 09 96 1c 3d
       -0.004517913 0.021624211 0.0062214844 0.038229022

shit.0.weight f4 [256, 128]
000000 5e 09 1d 3d e4 d2 fd 3c 28 dc b4 bc dd 5d 8f bd
       0.03833901 0.03098435 -0.022077635 -0.07000325
000010 84 a5 a0 bd bc 17 f9 3c 81 9a 83 bd d0 69 d1 3b
       -0.078440696 0.030406825 -0.06425954 0.0063907877
000020 8f 1e 9f 3d 2a 4c 68 bd 4b d0 8a 3d 82 f4 97 bd
       0.077695005 -0.05671326 0.0677801 -0.07419683
000030 c9 a6 7d bd 80 ba df bc 51 77 97 bd 4f 50 ab bd
       -0.061926637 -0.02731061 -0.07395805 -0.08364927
000040 54 6d ad bc 3c 8b 7a bd 5c 58 ab bd 90 21 80 bd
       -0.021170296 -0.06116794 -0.083664626 -0.062564015
000050 bc 42 9b bc 80 9c 2b bd 44 b4 b0 3c 76 36 4f 3d
       -0.01895272 -0.041897297 0.021570332 0.050589047
000060 2b 0d 5d bd 7d e9 8e 3d c6 5b 26 3d 6f 56 74 bd
       -0.053967636 0.06978128 0.040614866 -0.059652742
000070 54 9c d4 3c d9 a5 a4 3d ee be 8e bd ad 0a 45 bd
       0.02595345 0.080394454 -0.06970011 -0.048105884
000080 f3 34 8b bd 18 13 b8 bc 40 0c d5 3a c3 07 8c bd
       -0.06797209 -0.022470042 0.0016254261 -0.06837418
000090 60 ac 2b 3c 65 04 80 bd 32 89 18 3d e8 29 57 bc
       0.010478109 -0.06250838 0.037240215 -0.01313255
0000a0 18 6d d7 bc 69 bc 99 3d 8c df d4 3c 86 d2 31 3d
       -0.026297137 0.075066395 0.025985502 0.04341366
0000b0 37 37 90 bd 54 c2 b3 bc 6f 23 0b bd 40 5d 2b 3c
       -0.070417814 -0.021943249 -0.03396934 0.010459244
0000c0 1c 82 ef bc 30 28 0a bc d8 be 67 3c ca e9 f4 bc
       -0.029236846 -0.008432433 0.014144622 -0.029896636
0000d0 2f b9 a3 bd 73 0f 86 bd 99 45 81 bd df 7c 8b bd
       -0.07994305 -0.065459155 -0.06312103 -0.06810927
0000e0 55 a9 a5 bd 5d 31 a0 3d b6 08 38 bd ac d1 cc bc
       -0.08088938 0.07821915 -0.044930182 -0.025002323
0000f0 d4 db eb 3c a0 41 87 bb 62 c8 51 3d ff a1 89 3d
       0.028791346 -0.004127696 0.05121649 0.067203514
000100 8d c2 aa bd 0b 99 ac bd b1 ea 88 bd b7 15 83 3d
       -0.08337889 -0.08427628 -0.06685389 0.06400626
000110 be 3e a0 bd a0 da 94 bd 96 d4 13 bd bb 61 a2 bd
       -0.07824467 -0.07268262 -0.03609141 -0.07928797
000120 04 50 85 bd 23 58 85 bd c2 19 e0 bc b2 b4 05 3d
       -0.065094024 -0.06510951 -0.027356032 0.032643028
000130 a0 cb a3 bb de 57 86 bd 8f 4a b0 bd 66 c0 4a 3d
       -0.004998639 -0.06559728 -0.08607971 0.04949989
000140 da 79 f7 bc bc 38 46 bd 5c ff e6 bc 2c 04 fe 3c
       -0.03020947 -0.04839395 -0.028197937 0.031007849
000150 42 f5 71 3d fa b1 31 3d 65 39 84 3d 1c 10 52 bd
       0.059071787 0.043382622 0.0645626 -0.051284894
000160 cf 0d 83 bd e8 ce c5 bc ae 4a 52 bd 80 66 90 bc
       -0.06399118 -0.024146512 -0.05134075 -0.017627
000170 2a 41 1c bd 60 ac 4b bc b6 f1 d9 bc 32 fe 4b 3d
       -0.038148083 -0.012431234 -0.026604515 0.049802966
000180 27 80 39 bd c0 55 61 3b 2e f5 49 3d e2 c8 36 3d
       -0.04528823 0.0034383386 0.049306087 0.04462517
000190 b2 4f 23 3d 09 65 9a 3d 20 67 2f bd b8 96 41 bc
       0.039870925 0.07538802 -0.042822957 -0.011815719
0001a0 a0 d0 ee bb d3 2b b1 3d 6b dc 8b 3d f4 04 f3 3c
       -0.0072880536 0.08650937 0.06829151 0.029665448
0001b0 e2 5f f4 bc 39 bf 80 3d ea 99 34 3d c3 6e 5d bd
       -0.029830877 0.06286473 0.044092096 -0.05406071
0001c0 38 bf 15 3c ec 9a 0d 3d 00 01 9f bc 98 00 8a 3c
       0.009139828 0.034571573 -0.019409657 0.016845986
0001d0 12 20 16 bd ce 1d ac bd 8a 11 61 3d 66 53 19 3d
       -0.03665168 -0.08404122 0.054948367 0.03743305
0001e0 a8 68 33 3c 69 ef 8e bd bd 30 9d bd c8 af 01 bc
       0.010950245 -0.069792576 -0.07675312 -0.007915445
0001f0 fa 6f ea bc 26 c3 23 3d 7e f9 fe bc e4 c5 6a bd
       -0.028617848 0.03998103 -0.031124827 -0.05731763
000200 5e c6 a7 bd 08 a8 53 3c 30 9e cd 3b f9 cb a6 bd
       -0.081921324 0.01291848 0.006274961 -0.081443734
000210 78 c4 54 3c 45 cc 89 bd 90 e6 f3 bc 30 b8 d5 bc
       0.012986295 -0.067284144 -0.029773027 -0.026088804
000220 4b ee 1a bd 7f 28 a6 3d 70 e6 58 bc a3 ac 7e bd
       -0.03782491 0.08113193 -0.013238534 -0.062176358
000230 37 e4 ad bd f1 40 a5 3d e1 29 64 bd 0c 28 cd 3c
       -0.08490794 0.08069027 -0.055704 0.02504351
000240 8e 87 0f 3d 62 ce 4f 3d 66 a6 71 bd 18 38 2a bd
       0.035041384 0.05073393 -0.05899658 -0.0415574
000250 67 9b ae bd f0 74 82 3b af c1 04 bd 68 20 26 3c
       -0.085257344 0.003981225 -0.032411274 0.010139562
000260 ac 7f f8 3c f6 27 aa bd 38 bf dc 3c 90 a0 ea bb
       0.030334316 -0.08308403 0.026946649 -0.007160254
000270 28 8e 21 bc 7c 05 c2 bc 84 96 8e bd 60 92 0d 3b
       -0.009860553 -0.023684256 -0.06962302 0.002160214
000280 2b df 4a bd 26 18 39 3d 12 d1 36 3d f0 67 b6 bb
       -0.049529236 0.045189045 0.04463298 -0.0055665895
000290 0d fa 84 3d 90 1a d9 bb f2 2b 20 3d b2 54 5f 3d
       0.06493006 -0.006625481 0.03910441 0.05452413
0002a0 f0 2c 79 bc 60 36 88 3c 37 9f b4 bd b4 0c 8c 3c
       -0.015208468 0.01662749 -0.0881943 0.017095901
0002b0 d3 54 a2 3d f3 3c b3 bd 5c 87 87 3c ac 39 8c bc
       0.07926335 -0.087518595 0.016544037 -0.017117344
0002c0 27 cd 99 3d ee 46 38 3d d0 3e ad 3b c1 7d b4 3d
       0.07509833 0.04498952 0.005287029 0.08813048
0002d0 fe 35 93 bd 8c fe 8b bd 16 37 85 bd 16 59 1a 3d
       -0.071880326 -0.0683566 -0.065046474 0.037682615
0002e0 34 f5 9d 3c 39 b1 83 3d 48 90 87 bd 68 25 2f 3c
       0.019281961 0.06430287 -0.06619316 0.010690071
0002f0 6b 26 69 bd b8 93 54 3c f6 af 1e 3d 18 bf 94 bd
       -0.056921404 0.012974672 0.03874203 -0.07263011
000300 f2 03 ac bd 05 f4 b1 3d 08 81 e5 3c e3 7d ae 3d
       -0.0839919 0.08689121 0.028015628 0.08520105
000310 10 e7 9a 3c 61 71 87 3d 45 96 84 bd e8 35 1b 3c
       0.018909007 0.06613422 -0.06473974 0.0094733015
000320 a9 2e a5 bd 80 e4 98 3b ae 9f 74 3d da 70 54 3d
       -0.0806554 0.004665911 0.059722595 0.051865436
000330 10 8b c8 3c 00 ce 07 3c 93 5f 9c bd fc 6b 8c bd
       0.024480373 0.00828886 -0.07635417 -0.06856534
000340 a2 fa 97 bd de 44 ee bc cc be bc bc a9 e5 3c bd
       -0.07420851 -0.029085573 -0.023040198 -0.04611746
000350 c5 55 b1 3d 63 9f 87 3d 4d 6b b2 3d 09 f9 5d bd
       0.08658937 0.066221975 0.08711872 -0.054192577
000360 db cb 59 bd 46 e9 25 3d 45 46 54 bd 51 05 b0 bd
       -0.053172927 0.04050567 -0.051824827 -0.08594764
000370 4a 00 25 3d 0e 6b 77 bd 62 a8 4e 3d d8 ca 7a bd
       0.04028348 -0.06040483 0.05045355 -0.061228603
000380 86 aa 3b bd 08 19 c1 bc 8f 66 ad 3d f2 2c 26 bd
       -0.04581692 -0.023571506 0.08466827 -0.040570207
000390 00 fa ce 3b cf 58 4e bd c8 51 7e 3c fa bb f9 bc
       0.0063164234 -0.050377663 0.015522428 -0.030485142
0003a0 48 75 5f 3c f6 71 73 bd 89 46 92 bd ba ba ac bd
       0.013638802 -0.059434853 -0.0714236 -0.08434053
0003b0 e4 1f 08 bd 80 eb 2e bb 1b 80 95 3d 9a 4c 46 3d
       -0.03323354 -0.0026690662 0.07299825 0.048412897
0003c0 38 b1 aa bd 40 00 8f bb 9f de ad bd 80 d1 8e 3b
       -0.08334583 -0.0043640435 -0.08489727 0.0043584704
0003d0 4a f4 46 3d b0 74 af bd f8 72 1e 3c fa 50 87 bd
       0.048572816 -0.08567178 0.009670965 -0.06607242
0003e0 f0 22 58 bd ae 29 00 3d 18 fc 9f bd 56 84 5e 3d
       -0.052767694 0.03128975 -0.07811755 0.054325424
0003f0 f8 a5 aa bd 62 e6 a5 bd 76 74 45 3d 34 bd 85 3c
       -0.08332437 -0.08100583 0.04820677 0.01632557

shit.0.bias f4 [256]
000000 c4 60 b3 bc 60 1d 6c bb c7 57 4d bd 9c 7e e8 bc
       -0.021896727 -0.003602825 -0.05013254 -0.028380685
000010 7d 3d a0 bd c6 a5 1b 3d 74 30 c7 bc 40 b7 39 3b
       -0.07824228 0.03799989 -0.024315096 0.0028337985
000020 0d b1 46 bd 00 62 92 bb 64 65 f3 3c 0c 99 9c bd
       -0.048508693 -0.004467249 0.029711433 -0.07646379
000030 f0 dd 0e 3c 10 18 e7 3b 5b c3 98 3d a1 bf 2a bd
       0.008719906 0.007052429 0.07459136 -0.041686658
000040 b4 cb ff bc 4e cc 02 3d f2 8a 24 bd d0 76 73 bc
       -0.031225063 0.03193312 -0.04017157 -0.01485987
000050 1a f3 6f 3d 98 fa 74 bc f0 94 9f 3c 92 40 30 bd
       0.05858145 -0.014952324 0.019480199 -0.04303033
000060 85 92 a6 bd f8 92 f8 3c 04 07 4c bd d1 b6 b2 3d
       -0.08133415 0.030343518 -0.049811378 0.08726276
000070 7c af cc 3c da 2d 79 3d b0 a9 a9 3b a6 63 d8 bc
       0.024986021 0.060834743 0.005177699 -0.026414704
000080 a5 93 8b 3d 59 3a a0 3d 9f 39 3f bd 09 1d 0b bd
       0.0681527 0.07823629 -0.04668581 -0.033963237
000090 e6 00 5c 3d 18 89 eb 3c 11 52 a8 3d 18 4d 2f bd
       0.053711794 0.028751895 0.08218778 -0.04279813
0000a0 b0 aa 10 3c 60 48 0b 3d 40 b3 7d 3b 9e b2 78 3d
       0.008829758 0.03400457 0.0038711578 0.060717218
0000b0 83 15 4e bd ca f2 05 3d 99 36 83 bd a8 09 f9 3c
       -0.050313484 0.032702245 -0.06406898 0.030400112
0000c0 6f 88 23 bd 5c 5a c8 bc 94 b0 cf bc fa 95 3e 3d
       -0.039925035 -0.02445715 -0.025352754 0.046529748
0000d0 81 ed a6 3d 64 c6 95 bd 46 9f 66 bd 60 ed 96 bc
       0.08150769 -0.07313231 -0.05630424 -0.018423736
0000e0 50 32 ba 3b 98 ba a8 bd 98 38 1a 3c ba 6c 54 3d
       0.0056822672 -0.08238715 0.009412907 0.051861502
0000f0 74 51 85 3c ff ad 9d 3d 05 68 ac 3d 76 a4 44 3d
       0.016274191 0.07699203 0.08418278 0.048008405
000100 25 0b 81 3d d2 fb 2c bd e8 a3 89 bc 3c 59 80 bd
       0.06300954 -0.042232342 -0.01680179 -0.0626702
000110 81 fe a0 bd 30 8e 96 bb ae a3 61 3d 64 04 cb bc
       -0.07861043 -0.004594587 0.055087738 -0.024782367
000120 60 1a 08 bd 36 69 7c 3d c3 3c 98 3d 1a 36 f7 bc
       -0.03322828 0.061623774 0.074334644 -0.030177165
000130 6d 7b 99 3d f2 bd 52 3d 20 c6 5e 3b b9 e2 27 bd
       0.07494245 0.051450677 0.0033992603 -0.040987704
000140 80 2a 52 3a 1c 57 b4 3c 03 5e 9a 3d c0 ed a3 ba
       0.0008017197 0.022014193 0.075374626 -0.0012506768
000150 e0 ab b7 3b 40 7f f9 3b 00 32 b6 b9 30 d0 6e bc
       0.005605206 0.0076140463 -0.00034750998 -0.014576003
000160 4a e7 7f 3d f5 d0 a0 3d 60 3b d1 3c 5e 71 2d bd
       0.062476434 0.078523554 0.025541008 -0.042344444
000170 02 f5 3c 3d ef 26 a6 3d 08 89 c5 bc 40 d5 65 3b
       0.046132095 0.08112895 -0.024113193 0.0035069734
000180 b4 49 9a bd ba e8 6a 3d 6f f4 53 bd 00 70 e5 37
       -0.07533589 0.05735085 -0.051746782 2.7351081e-05
000190 17 0c 87 bd 1a f9 81 bd 00 fd ff b9 7b 17 8e 3d
       -0.06594103 -0.063463405 -0.0004882589 0.06938072
0001a0 f0 1b 20 3c 78 50 b1 3c 14 97 8d bd d5 cc 96 3d
       0.009772286 0.021644816 -0.069135815 0.07363287
0001b0 48 58 4c bc ad c6 a9 bd b7 cf 1d bd dc 68 b6 bc
       -0.01247222 -0.082898475 -0.03852817 -0.022266798
0001c0 9a e8 86 bd fc 49 8e 3c 27 5a 79 bd a0 3a 43 3b
       -0.06587334 0.017369263 -0.06087699 0.0029789582
0001d0 d9 8a b2 3d df a9 84 3d f0 3b 09 bd c8 ae f1 bc
       0.08717889 0.06477713 -0.033504426 -0.029502288
0001e0 ec da 2b bd d7 cc 80 3d c5 29 60 bd 10 e1 8b bb
       -0.041956827 0.0628907 -0.054727335 -0.004268773
0001f0 5c b0 67 bd a4 41 8c 3c f0 25 1a 3c 40 d7 c0 bb
       -0.056564674 0.017121144 0.009408459 -0.005885035
000200 e4 21 23 bd eb a0 a0 3d ea 23 10 bd 42 51 72 3d
       -0.039827242 0.07843193 -0.0351905 0.059159525
000210 1c 76 e7 3c a6 9e 95 bd d8 81 c6 3c 48 53 bf 3c
       0.028254561 -0.073056504 0.024231836 0.023355141
000220 ab 40 82 bd c0 55 76 3b 90 fe d2 3c 6e 97 39 3d
       -0.06359991 0.0037587732 0.02575615 0.04531043
000230 0d a7 10 bd d0 7d 94 bb 28 86 23 bd ab e8 93 bd
       -0.035315562 -0.0045315996 -0.039922863 -0.07222112
000240 f0 e3 dd 3b df ff 90 3d 5e 81 39 3d 52 af 2e 3d
       0.006771557 0.070800535 0.04528939 0.042647667
000250 6a a4 0b bd 67 4d aa 3d 6e 0f 2c 3d 85 22 ae 3d
       -0.034092344 0.083155446 0.042006902 0.08502678
000260 85 b8 96 3d 40 7e 0c 3c ce 81 1f 3d 47 d6 90 bd
       0.07359413 0.008575022 0.03894215 -0.0707212
000270 06 65 03 bd 9f b1 99 3d f0 8f 73 bd c0 1b 6b 3c
       -0.032078765 0.07504582 -0.05946344 0.014349878
000280 50 ad 06 3d 36 96 0a 3d 60 63 71 3c f7 fc 95 3d
       0.032880127 0.03383466 0.0147331655 0.0732364
000290 38 c5 73 3c 46 e7 1e 3d 4b 2c ad 3d e2 33 42 3d
       0.014878564 0.03879478 0.08455714 0.04741276
0002a0 80 62 5f ba 00 e1 91 b9 d0 fd 60 bc 22 49 1d bd
       -0.00085214525 -0.00027824193 -0.013732389 -0.038399823
0002b0 48 2a 48 bd 90 2e 56 bd 74 b8 e2 bc 9f a0 97 bd
       -0.048868448 -0.0522905 -0.027675845 -0.07403683
0002c0 40 51 7d 3b 3e a7 0f bd 91 99 1b bd be da 4b 3d
       0.0038653165 -0.035071604 -0.03798825 0.049769156
0002d0 10 df b2 bd 70 49 d9 3c e0 b7 a2 bd af f9 57 bd
       -0.08733952 0.026524276 -0.079452276 -0.05272835
0002e0 2f 28 74 bd 8a a9 74 3d a8 eb 65 bc cd 19 81 bd
       -0.059608635 0.059731998 -0.014033236 -0.06303749
0002f0 8b eb b4 3d 92 f0 ae bd c2 f8 5a 3d 60 11 5a bc
       0.08833989 -0.08541979 0.05345989 -0.013309807
000300 15 49 91 bd b0 a5 d4 bb 70 cd a0 bd 2c ff 45 bd
       -0.070940174 -0.006489478 -0.07851684 -0.048339054
000310 71 f5 48 bd 50 04 d2 3c 56 59 8a bd 2e 44 6f 3d
       -0.049062196 0.025636822 -0.06755321 0.05841463
000320 92 04 3f 3d 3a 90 17 3d f4 ee 94 bd c2 ae 19 bd
       0.046635218 0.03700278 -0.07272139 -0.037520178
000330 e8 b0 70 bd 24 c5 af bc bc 9e 6e bd d0 ab cb bb
       -0.05876246 -0.021456309 -0.05825685 -0.00621555
000340 96 e3 54 3d 70 97 a6 bd 47 14 83 3d 30 1f 15 bc
       0.051974855 -0.08134353 0.06400352 -0.009101674
000350 46 86 f2 bc 03 c2 31 bd d0 34 43 3c 14 de a5 bd
       -0.029605042 -0.043397915 0.011914447 -0.08098999
000360 b4 9b a4 bd 00 62 f3 3a c0 5b 30 bb e7 50 aa 3d
       -0.080375105 0.0018568635 -0.0026910156 0.08316212
000370 3c d8 d0 bc 72 fd 2b 3d a3 90 80 bd 62 a3 1e 3d
       -0.025493734 0.04198975 -0.06277587 0.038730033
000380 38 40 26 3c 64 0c ad bc 04 28 44 bd 44 4d bb bc
       0.010147147 -0.021124072 -0.047889724 -0.022863992
000390 80 5f 73 bd 52 d9 48 3d aa 7d 72 bd 44 fe 60 bd
       -0.059417248 0.049035378 -0.059201874 -0.054929987
0003a0 fc 4f 9f bd c2 96 9e bd dd 97 a3 3d b0 d6 b6 3b
       -0.07778928 -0.077435985 0.0798795 0.005579792
0003b0 86 fb 75 bd c7 d9 9b 3d 09 0d 4a bd 90 14 84 bd
       -0.060054325 0.07609897 -0.049328838 -0.064492345
0003c0 f6 2e 4c 3d aa 9e 68 3d 4e 74 8a bd f4 06 f6 bc
       0.049849473 0.05679194 -0.067604646 -0.030032612
0003d0 5a 05 56 3d 07 38 3b bd 06 6f 07 bd ef 5f a2 bd
       0.052251197 -0.04570773 -0.033064865 -0.07928454
0003e0 76 9b e1 bc 28 c4 36 bc 10 96 58 bc c0 16 80 3c
       -0.02753995 -0.011155166 -0.013219371 0.015635848
0003f0 48 1e 25 3c 85 b5 88 3d 16 ff 3b 3d c6 1b 77 bd
       0.01007802 0.06675247 0.045897566 -0.06032922

shit.2.weight f4 [128, 256]
000000 48 c6 7b 3c 1e 3c 5e bd 28 97 f5 3c 98 e2 a7 3c
       0.015367098 -0.05425655 0.029979303 0.02049379
000010 26 3d 76 3d 00 ae 7a bc b2 f7 4c 3d 14 ea 83 3c
       0.06011691 -0.015300274 0.05004091 0.016102828
000020 e8 33 c5 bc a0 32 3f bc 40 0c 6e bb 5e 39 74 3d
       -0.024072602 -0.011669785 -0.003632322 0.059625022
000030 7e 78 0a bd 98 01 26 bc 24 10 3d 3d a0 af 3e 3d
       -0.033806317 -0.010132216 0.04615797 0.046554208
000040 90 55 84 bb ec 64 18 3d 82 8c 4b bd 3c b5 2f bd
       -0.00403852 0.03720562 -0.049694546 -0.042897448
000050 00 db dd bc b4 2d 5e bd 30 6a 38 bc a0 d6 f5 bc
       -0.027081966 -0.054242805 -0.011255786 -0.030009568
000060 e8 44 40 3d d4 5b 46 3d 60 d5 58 bd 60 67 2b bb
       0.046940714 0.048427418 -0.052937865 -0.0026154146
000070 70 ef bf bb 18 c8 f6 3c 50 8d 16 3d c0 b0 0f bb
       -0.0058574006 0.030124709 0.03675586 -0.002192542
000080 9c 00 96 3c 64 17 37 bd 44 41 8a bc 88 7a 03 bc
       0.018310837 -0.04470004 -0.016876824 -0.008024819
000090 f4 fa ae 3c b0 69 5a bc d0 52 99 bb d2 4f 68 bd
       0.021359898 -0.013330862 -0.0046790615 -0.056716748
0000a0 78 b2 41 bc 8c 03 bf 3c 3c 1f c1 bc 08 ad 63 3d
       -0.011822335 0.023317121 -0.023574464 0.055584937
0000b0 90 a1 b5 3b c4 50 f6 3c e0 73 e0 3c 90 19 a9 bc
       0.0055429414 0.030067809 0.027399004 -0.020642072
0000c0 4a d8 49 3d cc 56 6d 3d 2a c5 56 bd 74 e7 d6 bc
       0.049278535 0.057944104 -0.052434124 -0.026233412
0000d0 98 f8 50 bd ce f3 64 3d dc 72 36 3d 6a 2f 6a bd
       -0.051018327 0.055896573 0.044543132 -0.057174124
0000e0 00 c9 d9 3c 8c 6a c0 bc 58 bc 22 3c 00 db 2a bb
       0.026585102 -0.023488306 0.0099326 -0.0026070476
0000f0 80 a4 30 3d a4 f0 1a bd 02 94 2d 3d e8 cf 70 3c
       0.04312563 -0.03782715 0.04237748 0.014698006
000100 f2 63 34 3d 28 60 55 3d 80 77 47 bd e6 60 6c bd
       0.044040628 0.052093655 -0.04869795 -0.057709597
000110 52 e1 38 bd 78 f7 9e bc 5e 45 03 3d 08 94 65 3c
       -0.045136757 -0.019405112 0.032048576 0.014012344
000120 dc 73 6e bd 5a ae 1c 3d b0 60 c5 3b d0 02 ae bb
       -0.05821596 0.038252212 0.006023489 -0.005310394
000130 28 7c 45 bd fa 0b 39 bd b4 92 75 3d d8 35 5f 3d
       -0.048214108 -0.045177437 0.05995436 0.05449471
000140 20 bf cd 3c 18 c6 3c 3c 42 2b 04 3d 98 4d e0 3c
       0.02511555 0.011521839 0.032267816 0.02738075
000150 f8 e1 5d 3c d8 5c 79 3c 2a ed 77 3d 20 c0 cc bc
       0.013542645 0.01521989 0.06052891 -0.024993956
000160 0a 15 2b bd 6c ea b1 3c 80 5f 48 3a 24 52 95 bc
       -0.04176811 0.021718226 0.0007643625 -0.018227644
000170 3c 51 ed bc 64 d0 fe 3c 00 da 8e bb d8 43 84 3c
       -0.0289694 0.031105228 -0.0043594837 0.016145632
000180 50 fd 26 3d 8c 9f a8 bc 98 37 08 bd bc f9 e7 bc
       0.04076892 -0.02058389 -0.033256143 -0.028317325
000190 ac 7a a7 3c 80 ac cb bb 22 cb 3f bd f4 2c 87 bc
       0.020444237 -0.006215632 -0.046824582 -0.016500928
0001a0 80 7c b7 bb 48 c2 47 bc 98 66 9e bc e2 a8 60 bd
       -0.0055995584 -0.012192316 -0.01933603 -0.05484856
0001b0 58 49 d1 bc d4 36 38 bd 54 11 c0 bc 22 ef 30 bd
       -0.025547668 -0.044974163 -0.023445763 -0.043196805
0001c0 26 36 5e 3d 20 c3 5e bb 74 45 11 bd 10 8c f6 3c
       0.05425086 -0.0033990815 -0.035466626 0.030096084
0001d0 58 a3 b7 3c 80 1b 5c 3b 98 8d e2 3c 88 c8 73 bc
       0.022416756 0.0033585727 0.027655408 -0.014879353
0001e0 14 0d 87 3c 70 07 3f bd a0 c7 35 bd 4c 56 f5 bc
       0.016485728 -0.046637952 -0.04437983 -0.029948376
0001f0 2c 8d 78 3d 32 ea 65 3d 10 b4 25 3c ec 8c e1 bc
       0.060681507 0.05613155 0.010113731 -0.027533017
000200 12 f5 36 bd 30 3d 1e 3c 30 7f ab 3b 4a 85 19 3d
       -0.04466731 0.009658143 0.005233668 0.03748063
000210 1c b2 5b 3d 40 2f 33 bd 20 93 dd 3b 5e a7 5f 3d
       0.053636655 -0.043746233 0.0067619234 0.054602973
000220 c8 2b 40 3d 74 e2 32 3d d4 a7 c2 bc 9c 65 bb 3c
       0.046916753 0.043672994 -0.023761667 0.0228756
000230 48 c3 6c bc 18 e7 1b 3c 26 49 4d bd 72 51 1d 3d
       -0.014450856 0.009515546 -0.050118588 0.03840775
000240 64 9f 75 3d f0 3c db bc dc bd e3 3c bc 5a 4e bd
       0.05996646 -0.026762456 0.027800493 -0.0503795
000250 80 f2 7a bc 00 cd 75 3c 94 ad 27 bd 2c 8c c5 3c
       -0.015316606 0.015002489 -0.04093702 0.02411469
000260 98 cd 73 bc 22 8c 24 bd f8 2d 25 bd 80 86 cc 3a
       -0.01488056 -0.040172704 -0.040327042 0.0015604049
000270 20 7c 01 3c be 89 0c bd 62 c7 50 bd 40 37 0f bc
       0.007903129 -0.03431105 -0.050971396 -0.0087412
000280 88 ec 54 bd 40 e8 13 3c 58 39 1a bc 20 b6 1f bc
       -0.051983386 0.009027541 -0.009413086 -0.009748012
000290 d0 c1 49 bc 80 38 28 3d e8 14 30 bc 42 d2 4d bd
       -0.012314275 0.041069508 -0.010747172 -0.050249346
0002a0 fe e0 11 3d 98 45 64 bd 28 33 2f 3c 5a 21 25 3d
       0.03561496 -0.055730432 0.010693349 0.04031501
0002b0 30 c6 9b 3c bc 37 90 bc 7e 9b 13 3d 20 90 6f bb
       0.019015402 -0.017604701 0.03603696 -0.003655441
0002c0 e0 0b b5 3c f0 cd d9 bc 80 a2 51 bb 9c 84 f7 3c
       0.022100389 -0.026587456 -0.0031987727 0.0302146
0002d0 14 de cc 3c e0 d3 fb 3b 20 0a 1a 3d f8 d2 43 3d
       0.025008239 0.0076851696 0.037607312 0.047808617
0002e0 ec 5b da 3c 74 a5 79 bd 9c 82 49 3d 08 2a fc bc
       0.02665516 -0.060948804 0.049196824 -0.03078176
0002f0 48 84 45 3c 98 63 3d bc 04 23 52 bd f0 54 d9 3c
       0.012055464 -0.0115593895 -0.051302925 0.02652976
000300 4c 16 1b bd 20 03 5c 3c 42 24 73 3d bc 96 41 bd
       -0.03786306 0.013428479 0.05936075 -0.047262892
000310 70 1b 8e 3b 9c 67 00 bd 60 38 e1 3b 16 e2 5e bd
       0.004336767 -0.03134881 0.0068731755 -0.05441483
000320 68 f9 3f bd 66 fc 06 bd 0e 2c 46 bd 78 94 07 3c
       -0.04686871 -0.03295555 -0.048381858 0.008275144
000330 e0 b4 5d 3b 00 80 bc b8 f0 10 be bc de cf 54 bd
       0.0033829734 -8.9883804e-05 -0.023201436 -0.05195605
000340 c4 14 51 3d a2 77 1d 3d a6 d8 2b bd 40 ec f2 bc
       0.051045194 0.03844417 -0.04195466 -0.029653668
000350 1e 30 0d 3d 94 83 f6 3c 30 e0 60 bd c8 9f af 3c
       0.034469716 0.030092038 -0.0549013 0.021438494
000360 70 4e c7 3c 10 de b1 bc 0e d1 2f bd b8 69 a1 bc
       0.024329394 -0.021712333 -0.04292398 -0.019703731
000370 c0 6a 9e 3a 00 aa f3 3b ec 0e f9 3c ae ca 69 3d
       0.0012086257 0.007436037 0.030402623 0.057078056
000380 b0 a9 7d bc 48 a0 89 bc 00 36 34 bd c8 9d 98 3c
       -0.015482351 -0.01680006 -0.04399681 0.018629923
000390 02 9c 39 3d 28 30 aa 3c 0c 37 9d 3c 58 f7 79 bd
       0.045314796 0.020774916 0.019191287 -0.0610269
0003a0 70 65 26 3c 44 5b 33 3d f8 2b 18 bc 00 c8 9e ba
       0.0101560205 0.04378821 -0.009287827 -0.0012114048
0003b0 70 0c 9c 3c a6 61 1e 3d c0 39 e5 bc 20 5b 8d 3b
       0.0190489 0.038667344 -0.027981639 0.0043138415
0003c0 a0 fd ea 3c 3c 93 b5 bc 70 93 c1 3c 20 15 2a 3c
       0.028685391 -0.022164933 0.023629874 0.010381013
0003d0 4c 91 a7 bc ec d8 a9 bc dc 3b 46 bd a0 ed 4c 3c
       -0.020455025 -0.02073332 -0.04839693 0.012507826
0003e0 de 7d 4a bd 98 b5 70 3d 98 7a 4c bc 76 69 62 bd
       -0.049436443 0.05876693 -0.0124804005 -0.055276357
0003f0 c4 41 72 bd 50 46 26 bd f8 6f 24 bc 90 fe 95 bc
       -0.05914475 -0.0405944 -0.010036461 -0.018309861
