src/temp/model/checkpoint_0.pth (torch, 922899 bytes, 17 tensors)

actor.0.weight f4 [32, 1, 3, 3]
0	0x3d0c9f60	0.03433168
1	0xbd707b40	-0.05871129
2	0x3da013d6	0.078162834
3	0xbe898662	-0.26860338
4	0x3e97afe3	0.29626378
5	0x3e6c1c0b	0.23057573
6	0x3d961b10	0.073293805
7	0x3e6fd870	0.23422408
8	0xbe660ed0	-0.22466588
9	0x3e90ab57	0.28255722
10	0xbdaa77ab	-0.08323606
11	0xbe36e406	-0.17860422
12	0x3e16476e	0.14675686
13	0xbdfb02b0	-0.12256372
14	0x3ea0f782	0.31438833
15	0x3df03c06	0.117301986
16	0x3e5403a6	0.20704517
17	0xbda877e0	-0.08225989
18	0x3e9cf0f8	0.30652595
19	0x3e34d143	0.17657952
20	0xbdecbbf6	-0.11559288
21	0xbdbea43b	-0.09308668
22	0xbeaa87da	-0.33306772
23	0x3e391f98	0.18078458
24	0x3e77cdeb	0.24199645
25	0x3e126eee	0.14300129
26	0xbea73193	-0.3265501
27	0x3cfd1f00	0.030898571
28	0x3e894530	0.26810598
29	0x3e0479c3	0.12937073
30	0x3e8bdc67	0.2731659
31	0xbea74d16	-0.32676
32	0xbd25a76b	-0.040442865
33	0xbe3b3e0e	-0.1828539
34	0x3e9db434	0.30801547
35	0xbcc8ded6	-0.024520319
36	0xbea8a467	-0.3293793
37	0x3cc70bc0	0.024297595
38	0xbe37c2f3	-0.17945461
39	0xbde5483b	-0.111954175
40	0xbdf39460	-0.11893535
41	0x3da7bac6	0.08189921
42	0x3e935b06	0.28780383
43	0xbe8ed6c4	-0.27898228
44	0xbe8e7800	-0.27825928
45	0x3da51406	0.0806046
46	0xbe394e90	-0.18096375
47	0x3e0f1383	0.13972287
48	0x3e0e2343	0.13880639
49	0x3da7685b	0.08174201
50	0x3dc90d00	0.09816933
51	0x3dae2fbb	0.085051976
52	0x3e885c2a	0.26632816
53	0x3e916e66	0.2840454
54	0xbe84d74f	-0.25945517
55	0x3dbf07a6	0.09327631
56	0xbe29f5f6	-0.16597733
57	0x3ea77b32	0.32711178
58	0x3e2350f8	0.15948856
59	0x3da8427b	0.08215805
60	0x3e2ff503	0.17183308
61	0x3b9fc456	0.0048757
62	0x3d520136	0.051270686
63	0xbea067e2	-0.31329256
64	0xbcdb6c16	-0.026784938
65	0xbe5783cb	-0.21046369
66	0x3d81c5f0	0.06336582
67	0xbe6ae4e0	-0.22938871
68	0x3e2d968e	0.16951963
69	0x3d5f36d6	0.054495655
70	0x3e8a3fb0	0.27001715
71	0xbe3418e8	-0.17587626
72	0x3e8b4d18	0.27207255
73	0xbea7ee47	-0.3279898
74	0x3e9165b8	0.28397918
75	0x3e6e45a8	0.23268759
76	0xbdfa3980	-0.122179985
77	0x3e6575c3	0.22408204
78	0xbe123ccb	-0.14281003
79	0x3c758980	0.014986396
80	0x3c380b2b	0.011233131
81	0x3df40040	0.1191411
82	0x3e93b513	0.28849086
83	0x3e3a5270	0.1819551
84	0x3e96d622	0.29460245
85	0xbe6b0f43	-0.2295504
86	0xbd82cb66	-0.063864514
87	0xbea98b00	-0.3311386
88	0xbe1f78e3	-0.15573458
89	0xbe8eab13	-0.27864894
90	0xbd0d5536	-0.03450509
91	0x3cc1c86b	0.023655137
92	0xbd077bc0	-0.033077
93	0x3e39f8db	0.18161337
94	0x3e25ccb6	0.16191372
95	0x3d0fbc8b	0.035091918
96	0x3d7961b6	0.0608842
97	0xbd6d23cb	-0.057895463
98	0xbe22409e	-0.15844962
99	0xbe422a2b	-0.18961398
100	0x3e89604e	0.26831287
101	0x3da70e60	0.08157039
102	0x3dd0273b	0.101637326
103	0xbe5b9b7e	-0.21446034
104	0x3dcffe66	0.101559445
105	0xbe7f1940	-0.24911976
106	0xbda67720	-0.0812819
107	0x3e3db4fb	0.1852607
108	0x3d999336	0.074987814
109	0x3defac00	0.11702728
110	0x3e85e9b2	0.26154858
111	0xbcd455eb	-0.025919875
112	0x3ea9969f	0.33122727
113	0x3e827292	0.25478035
114	0x3ea09bce	0.3136887
115	0x3dc9eb66	0.09859352
116	0xbe34ffae	-0.17675659
117	0x3e4a779b	0.19772188
118	0xbe15b4a6	-0.14619693
119	0x3e4862fe	0.19569013
120	0x3e6d7048	0.23187363
121	0xbe7a0633	-0.24416427
122	0x3e5682be	0.20948312
123	0x3e82efdf	0.25573632
124	0x3d05b880	0.032646656
125	0xbd009ae0	-0.0313977
126	0xbdb09fab	-0.08624204
127	0xbe943597	-0.28947136
128	0x3e4b4878	0.19851863
129	0xbea5ebec	-0.32406557
130	0x3db4804b	0.088135324
131	0x3e1e5ae8	0.15464365
132	0xbe6f683b	-0.23379605
133	0xbbe2c1ab	-0.0069200597
134	0x3e930ce0	0.2872076
135	0xbe04a15e	-0.12952182
136	0xbd50bf0b	-0.050963443
137	0x3ea8ea5a	0.32991296
138	0xbd44fce0	-0.048092723
139	0x3e3b4960	0.18289709
140	0x3e544418	0.207291
141	0x3df18486	0.11792855
142	0x3d8e5890	0.06950486
143	0x3e72b7db	0.23702948
144	0x3e9a916f	0.30189082
145	0x3d36136b	0.044452112
146	0xbe2e4603	-0.17018895
147	0x3e4b2a5b	0.19840376
148	0x3ea759a6	0.32685584
149	0xbdaae51b	-0.0834448
150	0x3ea14708	0.31499505
151	0x3e80103c	0.25012386
152	0x3c50ce56	0.012744507
153	0xbe18f648	-0.14937699
154	0x3e0dd0bb	0.13849156
155	0x3e040470	0.12892318
156	0x3e7aae46	0.24480543
157	0x3c6169d6	0.013758143
158	0xbdcccb76	-0.099997446
159	0x3ea3a758	0.3196361
160	0x3e88d54a	0.26725227
161	0x3e050543	0.12990288
162	0x3def2226	0.11676435
163	0xbeaa683b	-0.33282647
164	0x3ea2195a	0.31659967
165	0x3e02c3e8	0.12770045
166	0x3e30cf8b	0.17266671
167	0xbe267398	-0.16255033
168	0xbd9c57fb	-0.076339684
169	0x3d59fb96	0.053218447
170	0x3e7b25e3	0.24526171
171	0x3e7151a8	0.23566306
172	0x3e58783b	0.21139614
173	0xbe7cb54e	-0.24678537
174	0xbd27522b	-0.040849846
175	0x3cc1e02b	0.023666462
176	0xbe9abe53	-0.3022333
177	0xbd506080	-0.05087328
178	0x3e935457	0.28775284
179	0x3d9936eb	0.07481178
180	0xbe7a0ac6	-0.24418172
181	0xbe755f7b	-0.23962204
182	0xbe25d543	-0.16194634
183	0x3d954050	0.07287657
184	0x3e263dc0	0.16234493
185	0xbddfc1e6	-0.10925655
186	0x3dcff5e0	0.10154319
187	0x3e5e12b0	0.21686816
188	0xbe7d36f3	-0.24727993
189	0x3e6c69ab	0.23087184
190	0xbd852820	-0.06501794
191	0xbd1a714b	-0.0377057
192	0xbe290db3	-0.16509132
193	0x3c0c3d00	0.008559465
194	0x3e9d153a	0.30680257
195	0x3e5025e6	0.20326957
196	0xbdd4cd0b	-0.10390671
197	0xbe9e8ffb	-0.30969223
198	0x3ea57f63	0.3232375
199	0x3dadebdb	0.084922515
200	0x3db658f0	0.08903682
201	0x3ad9ec00	0.001662612
202	0x3d05d0d6	0.032669865
203	0x3e3a8b06	0.18217096
204	0x3ded9760	0.11601138
205	0xbe90883f	-0.28228948
206	0x3ea29f5f	0.31762215
207	0x3e74f4ae	0.23921463
208	0xbe1cbe56	-0.15306982
209	0x3e8d11f4	0.2755276
210	0x3dfde65b	0.123974524
211	0x3e89ab2f	0.26888415
212	0x3d05158b	0.032491248
213	0xbe3b935e	-0.18317935
214	0x3e99e200	0.30055237
215	0x3cb68096	0.022278111
216	0xbe6d0530	-0.2314651
217	0xbe85389f	-0.2601976
218	0x3e8e44f0	0.2778697
219	0x3dcdf06b	0.10055622
220	0xbdfe3b66	-0.12413673
221	0xbda71906	-0.0815907
222	0x3e39392e	0.18088219
223	0x3e9c6788	0.30547738
224	0x3dd444e6	0.10364704
225	0x3c87626b	0.016526422
226	0xbd28f340	-0.041247606
227	0x3dba623b	0.09100767
228	0x3e21c09b	0.1579613
229	0xbe5f0b93	-0.21781759
230	0xbdaf1720	-0.085493326
231	0xbe03dfeb	-0.12878387
232	0x3e19367e	0.14962193
233	0x3dd87e30	0.10570943
234	0x3e4a78be	0.19772622
235	0xbe2b0ce3	-0.16704135
236	0x3e81ae70	0.25328398
237	0x3e8c569f	0.27409837
238	0xbbeb5a00	-0.0071823597
239	0x3cebc2ab	0.028779348
240	0x3ea72d98	0.32651973
241	0xbe4f2508	-0.2022897
242	0x3e8ffbc8	0.2812178
243	0xbd40b08b	-0.047043364
244	0xbd0a6d4b	-0.033795636
245	0xbea512b8	-0.32240844
246	0x3c90fc00	0.017698288
247	0xbda87a5b	-0.082264625
248	0xbe71d4a6	-0.23616275
249	0x3dd8c24b	0.105839334
250	0x3e8535ba	0.26017553
251	0xbc9c8416	-0.019105952
252	0x3e1897c8	0.1490165
253	0xbd930ba0	-0.07179952
254	0xbc9b98c0	-0.018993735
255	0xbd0d9ceb	-0.034573477

actor.0.bias f4 [32]
0	0xbda5d83b	-0.08097883
1	0xbe09a8b0	-0.13443255
2	0x3c842ad6	0.016133707
3	0x3e74f363	0.2392097
4	0xbea735e2	-0.32658297
5	0x3e60555e	0.21907565
6	0xbe99aaf4	-0.3001324
7	0xbe88e33c	-0.26735866
8	0x3e08a86b	0.13345496
9	0xbab862ab	-0.0014067491
10	0xbe2a8f80	-0.16656303
11	0x3a5a7d56	0.00083347165
12	0xbe14dce8	-0.14537394
13	0xbd0ae6e0	-0.033911586
14	0xbe15aee0	-0.14617491
15	0xbcf0db80	-0.02940154
16	0x3e505b36	0.20347294
17	0x3da86a20	0.08223367
18	0x3dfb83fb	0.12281033
19	0xbbcee0ab	-0.0063134036
20	0x3dd27d80	0.102778435
21	0x3e0d4568	0.13796008
22	0x3e733b83	0.2375317
23	0xbdc2dfe0	-0.09515357
24	0x3e9f36e6	0.31096572
25	0xbdd084f6	-0.1018161
26	0x3df8900b	0.12136849
27	0x3e1091e3	0.14118151
28	0x3e43c9d8	0.19119966
29	0x3e1539a3	0.14572768
30	0xbe8874f7	-0.26651737
31	0xbe10ec30	-0.14152598

actor.2.weight f4 [64, 32, 3, 3]
0	0x3cb01bbe	0.021497604
1	0xbd1f971b	-0.038962465
2	0x3c436d7c	0.011927959
3	0xbb612263	-0.0034352771
4	0xbc48a536	-0.012246421
5	0xbd6108d2	-0.054940052
6	0xbc817f68	-0.015807822
7	0xbcb2aed0	-0.021811873
8	0x3d6c5a5d	0.057703365
9	0x3cc21b66	0.023694705
10	0x3ca847c6	0.020542037
11	0x3d492ad5	0.049113113
12	0x3d576b68	0.052592665
13	0x3d2f6e3d	0.04282974
14	0xbd2a750a	-0.041615523
15	0xbd10bef0	-0.035338342
16	0xbd39d53d	-0.045369375
17	0xbd2f879d	-0.04285394
18	0xbcf534e4	-0.029932447
19	0xbcdbd415	-0.026834527
20	0xbd13a3d4	-0.03604491
21	0xbd625eb5	-0.0552661
22	0xbd2988f6	-0.04139038
23	0x3d2f2c29	0.042766724
24	0xbd0fb1b5	-0.035081584
25	0x3d306eef	0.043074545
26	0xbc535b1b	-0.012900139
27	0xbd1fd1ea	-0.03901855
28	0xbcc36832	-0.023853395
29	0xbd3a41fe	-0.04547309
30	0xbd57d401	-0.052692417
31	0xbcaf11b6	-0.02137075
32	0x3d4cf576	0.050038777
33	0xbd111bee	-0.035427026
34	0xbb30c097	-0.0026970261
35	0xbd191d3e	-0.037381403
36	0x3c83f8bd	0.016109819
37	0x3cb7cf06	0.022437584
38	0xbb9c1b7f	-0.00476402
39	0x3d068f39	0.03285143
40	0xbcb4a59c	-0.022051625
41	0xbcadd4fc	-0.021219723
42	0x3d6c2406	0.057651542
43	0xbcf47b37	-0.02984391
44	0x3d038e08	0.032117873
45	0x3cfd5573	0.030924534
46	0xbd5c5a0c	-0.053796813
47	0xbca0518e	-0.019570138
48	0x3c69ec32	0.014277505
49	0xbd22f676	-0.039785825
50	0xbc77a841	-0.015115798
51	0xbbfb8c73	-0.007676655
52	0xbc73b42e	-0.014874501
53	0xbd65fea7	-0.05615106
54	0x3cd019b1	0.025402876
55	0xbd31e5cb	-0.04343204
56	0x3d38b3dd	0.045093406
57	0xbd1a3d09	-0.037655864
58	0xbd23bb13	-0.03997333
59	0xbc94a33a	-0.018144239
60	0xbd52b9e6	-0.051446818
61	0x3d294a22	0.041330464
62	0xb986b24c	-0.00025691313
63	0x3b90b7eb	0.004416456
64	0x3d4c7fc1	0.049926523
65	0x3cbf3519	0.023340749
66	0xbd0d9a1e	-0.034570806
67	0x3d280dac	0.041028664
68	0x3ccc2b86	0.024923097
69	0xbd1e1f5e	-0.038604133
70	0xbcaa1fee	-0.020767178
71	0xbd31590d	-0.043297816
72	0x3d2cc938	0.042184085
73	0x3c67bf61	0.014144749
74	0x3c05783a	0.00814634
75	0x3d53b590	0.051686823
76	0x3d061e8d	0.03274398
77	0x3d556c03	0.05210496
78	0x3caba438	0.020952329
79	0x3d237355	0.03990491
80	0x3d660147	0.056153562
81	0x3bc4cb00	0.006005645
82	0x3c54e339	0.012993627
83	0xbc8395c6	-0.016062628
84	0xb88363a8	-6.265129e-05
85	0x3bb166c2	0.005413861
86	0xbcc2f97a	-0.0238006
87	0xbc1d59c8	-0.009603925
88	0x3d0366e0	0.03208053
89	0xbd069717	-0.032858934
90	0x3c268d4d	0.010165525
91	0x3c7b665b	0.015344228
92	0xbc8879d2	-0.016659651
93	0x3be6a0c4	0.0070382077
94	0x3bcf8969	0.0063335192
95	0x3d4be568	0.049779326
96	0xbc033ec5	-0.008010571
97	0xbcb48cc6	-0.022039782
98	0x3b4ddbd8	0.0031411555
99	0x3c94c37a	0.018159617
100	0xbd558ddf	-0.052137252
101	0xbd037f1c	-0.032103643
102	0xbd04ece9	-0.032452498
103	0x3d0511f8	0.03248784
104	0xbcb00f2e	-0.021491613
105	0xbd0237d2	-0.031791516
106	0x3b873c6b	0.0041270754
107	0x3d448d2e	0.047986202
108	0x3cc59f44	0.024123795
109	0xbd70a2db	-0.05874906
110	0xbd53af1c	-0.05168067
111	0x3d266f29	0.040633354
112	0x3d04905e	0.03236424
113	0xbc9f4325	-0.019441197
114	0x3d021654	0.031759575
115	0xbd2638be	-0.040581457
116	0xbd4235d6	-0.047414623
117	0xbd30f831	-0.043205444
118	0x3cdf502f	0.027259914
119	0x3d32dd63	0.043668162
120	0xbd36a1b9	-0.044587824
121	0x3d6db6ca	0.05803565
122	0x3c9c5ec6	0.01908816
123	0xbd56eed2	-0.05247385
124	0xbd1d13f8	-0.03834912
125	0x3cb42055	0.021988073
126	0x3d15b37c	0.036548123
127	0x3b7663ee	0.0037596184
128	0x3bf12a51	0.007359781
129	0x3d552500	0.05203724
130	0xbcef00f7	-0.029175265
131	0x3d69971f	0.057028886
132	0xbd4f56e6	-0.050619982
133	0x3d4fd70c	0.050742194
134	0x3c8134dd	0.015772277
135	0xbd1a55c7	-0.03767946
136	0xbd11cee5	-0.0355977
137	0x3cb951b2	0.022621963
138	0xbd16d375	-0.036822755
139	0x3d4ae93c	0.049538836
140	0xbcd39eaa	-0.025832493
141	0x3d41aa92	0.04728181
142	0x3ad79db3	0.0016450196
143	0xbd6a360d	-0.057180453
144	0xbd39d66f	-0.045370515
145	0x3ce5bdbd	0.028044576
146	0xbb49ec19	-0.0030810891
147	0x3d70f78c	0.05882983
148	0x3d1905fb	0.03735922
149	0xbbc7a827	-0.0060930434
150	0x3d5e69a7	0.054299977
151	0xbbffecaf	-0.0078101973
152	0x3d2b60a2	0.041840203
153	0x3c485d0e	0.012229217
154	0xbd4ce6b3	-0.0500247
155	0xbc37c166	-0.011215543
156	0xbd07593c	-0.033044085
157	0x3d2a2286	0.04153683
158	0xbc4f853a	-0.012666041
159	0xbc286690	-0.010278359
160	0xbc2a2045	-0.01038367
161	0xbc3f2487	-0.011666424
162	0xbc1573de	-0.009121863
163	0xbd46c6e9	-0.04852954
164	0x3d4cc139	0.04998896
165	0xbc19f2ec	-0.009396296
166	0xbd251d6e	-0.04031127
167	0xbd02260c	-0.031774566
168	0xbd01edb3	-0.03172083
169	0x3c7600a4	0.015014801
170	0x3c89077b	0.0167272
171	0x3c173e0b	0.009231101
172	0xbc66e562	-0.014092775
173	0x3ca6afc6	0.020347487
174	0xbc6301a1	-0.013855369
175	0x3c4f0b8c	0.01263703
176	0x3c14b04b	0.009075235
177	0x3d2861bb	0.041108828
178	0x3ccc6426	0.024950098
179	0x3cb00b4a	0.021489758
180	0x3d04917d	0.03236531
181	0xbd0c8720	-0.034308553
182	0x3d410156	0.047120415
183	0xbd0f8236	-0.03503629
184	0x3d20b7d0	0.039237797
185	0x3d3daa21	0.046304826
186	0x3d46e4ef	0.04855817
187	0x3d4bcba8	0.04975477
188	0xbd6ccae9	-0.057810698
189	0x3ce26d7a	0.027640093
190	0x3b9362b0	0.0044978485
191	0xbc687815	-0.014188786
192	0x3bb758b0	0.005595289
193	0xbb112d2e	-0.0022152173
194	0xbcf81f6f	-0.030288426
195	0xbd0e2cbb	-0.034710627
196	0x3c86cbc5	0.016454587
197	0xbd46f08e	-0.048569255
198	0x3c8f23bf	0.0174731
199	0xbca859d2	-0.020550642
200	0x3b043c80	0.0020177662
201	0xbd534708	-0.051581413
202	0xbd1b199a	-0.037866212
203	0x3d227d5b	0.03967033
204	0xbcb65165	-0.022255609
205	0xbace6d27	-0.0015749083
206	0x3d6de42f	0.05807894
207	0xbcddeb58	-0.02708976
208	0xbc7a8e74	-0.0152927525
209	0xbcabdabe	-0.020978328
210	0x3d4377d0	0.047721684
211	0xbc3620cb	-0.011116217
212	0xbd45a4ff	-0.048253056
213	0xbbc9ea73	-0.0061619817
214	0xbd4e6661	-0.050390605
215	0xbc0a3060	-0.008434385
216	0x3cac8cf6	0.02106331
217	0x3b263e48	0.0025366712
218	0xbcbe89a0	-0.023258984
219	0xbca35505	-0.019938001
220	0x3d6e710b	0.058213275
221	0x3d52f577	0.051503625
222	0xbd4c8f59	-0.049941394
223	0x3c0549f8	0.008135311
224	0xbcc774eb	-0.024347743
225	0xbd1bc175	-0.038026292
226	0xbc77f4be	-0.015134035
227	0x3ce3a0bb	0.027786603
228	0x3d6b0543	0.057378065
229	0xbd4d9699	-0.05019245
230	0xbc438022	-0.011932405
231	0xbd4d115e	-0.05006539
232	0xbb6a51c1	-0.0035754296
233	0x3d4c443e	0.04986977
234	0xbcb537e0	-0.02212137
235	0xba69a6a2	-0.0008913075
236	0x3cfabcd7	0.030607624
237	0xbc65804b	-0.014007638
238	0x3a37d103	0.0007012041
239	0xbb14d107	-0.0022707598
240	0x3c3c590d	0.011495841
241	0xbd181a0d	-0.03713422
242	0xbc5d2bd6	-0.013499221
243	0xbc6c1730	-0.014409825
244	0xbd5541c9	-0.05206469
245	0x3d2180ae	0.03942936
246	0xbc70e367	-0.014702654
247	0x3c97fda8	0.01855357
248	0xbca5a037	-0.020217998
249	0x3be3d6e2	0.0069531063
250	0x3d2bac7c	0.04191254
251	0x3c76de60	0.015067667
252	0x3cbcfd29	0.023069935
253	0x3ce409a9	0.027836638
254	0x3d5b8751	0.053595845
255	0xbca01b81	-0.019544365

actor.2.bias f4 [64]
0	0xbd529074	-0.051407292
1	0xbc45e88e	-0.012079371
2	0x3ca34b14	0.019933261
3	0xbba7a816	-0.005116473
4	0x3d5826b5	0.05277129
5	0x3d2eaad7	0.042643394
6	0x3c55b7bd	0.013044295
7	0x3c5f324b	0.013622831
8	0xbb921887	-0.0044584903
9	0x3ce4fb45	0.027951846
10	0x3b8238f6	0.0039740754
11	0xbc8bd0cd	-0.017067337
12	0x3d547e23	0.051878106
13	0x3b27c641	0.0025600346
14	0x3d16ac34	0.03678532
15	0xbb2eef6e	-0.0026693004
16	0xbd3512f6	-0.044207536
17	0x3c9b9a27	0.018994404
18	0x3d0596e5	0.032614607
19	0x3d273dc5	0.040830392
20	0x3d62edb5	0.055402476
21	0xbc3a149b	-0.011357452
22	0x3d16c549	0.03680924
23	0x3c8921bb	0.016739717
24	0x3ced8eb1	0.028998705
25	0xbd0db1a3	-0.034593236
26	0x3d503fa3	0.05084194
27	0x3bbfce9d	0.0058534876
28	0xbc49348c	-0.012280595
29	0xbb2d24df	-0.0026419682
30	0xbc96ca41	-0.018406989
31	0x3ccc9233	0.024972057
32	0x3d605bf5	0.054775197
33	0x3d2789d4	0.040902928
34	0xbd470f1e	-0.0485984
35	0x3ced85c3	0.028994447
36	0x3c4d7632	0.012540387
37	0xbb707d32	-0.0036695716
38	0x3bdca365	0.0067333453
39	0x3cbcf84c	0.023067616
40	0x3d3bab88	0.04581788
41	0x3d0dbd46	0.034604333
42	0x3c807229	0.015679436
43	0xbcd5d8e3	-0.026104396
44	0x3cc7a710	0.024371654
45	0xbd1a0f07	-0.037611987
46	0x3cb367b1	0.02190003
47	0xbcd817a9	-0.02637847
48	0xbcf4a0d7	-0.02986185
49	0x3d09417a	0.03350971
50	0x3d41c54b	0.047307294
51	0xbd3abff2	-0.04559321
52	0x3d5bedb3	0.053693485
53	0x3cd2395e	0.02566212
54	0xbbaa1657	-0.0051906514
55	0xbd11817d	-0.03552388
56	0x3d0a8fb2	0.033828445
57	0x3d3e967e	0.04653024
58	0xbc89299d	-0.016743476
59	0x3bce781d	0.0063009397
60	0x3cf44165	0.029816339
61	0xbcf6b840	-0.030117154
62	0x3d493134	0.04911919
63	0x3d3d7db3	0.046262454

actor.4.weight f4 [128, 64, 3, 3]
0	0x3ce96f80	0.02849555
1	0x3cdaf2f8	0.026727185
2	0xbca4b4fb	-0.02010583
3	0x3aad93d6	0.0013242911
4	0xbcc67f00	-0.02423048
5	0xbd10fb5e	-0.035395972
6	0xbb92606b	-0.0044670603
7	0x3c4de1b0	0.012566015
8	0xbb66bc16	-0.0035207323
9	0x3cefd200	0.02927494
10	0x3c4a2ff0	0.012340531
11	0x3b05f0d6	0.002043774
12	0xbd234a78	-0.03986594
13	0x3d243487	0.040089156
14	0xbcbbdce0	-0.02293247
15	0x3af78fd6	0.0018887471
16	0x3b0a61ab	0.0021115344
17	0x3ce9e510	0.028551608
18	0xbc7e653b	-0.015527065
19	0xbc64d75b	-0.01396736
20	0xbd0c1c3e	-0.03420662
21	0x3cf75b46	0.03019489
22	0xbd15289c	-0.03641568
23	0xbbf8e6f6	-0.007595892
24	0xbce840f6	-0.028351288
25	0x3acba700	0.0015537441
26	0xbd171b18	-0.036891073
27	0x3d2277ff	0.03966522
28	0x3c023390	0.007946864
29	0xbcdf839e	-0.02728444
30	0x3cbf5f80	0.023360968
31	0x3c7ee6f0	0.0155579895
32	0xbd11b59c	-0.035573587
33	0xbc88ef60	-0.016715705
34	0xbd28ef04	-0.041243568
35	0xbce27c0b	-0.027647039
36	0xbbef4456	-0.0073018475
37	0x3c9ae3cb	0.018907448
38	0x3c3991b6	0.011326244
39	0x3d15208c	0.036407992
40	0xbd02cdc7	-0.031934526
41	0xbcee84de	-0.02911609
42	0x3d10d9f6	0.035364114
43	0x3bf8ee0b	0.0075967363
44	0xbbd8d2eb	-0.0066169403
45	0xbc39aef6	-0.011333218
46	0x3d05d97a	0.032678105
47	0x3b7baf80	0.0038404167
48	0xbcc8a31b	-0.024491837
49	0x3ceb3116	0.02870993
50	0x3c456140	0.012047112
51	0xbd055398	-0.032550424
52	0x3d0f3983	0.034966957
53	0xbd26d6ba	-0.040732123
54	0xbd15ca30	-0.036569774
55	0xbca2e7d8	-0.019885942
56	0x3bbfdc8b	0.005855148
57	0x3d0ccfbb	0.034377795
58	0xbc9a5a63	-0.018841928
59	0x3d255adf	0.040369865
60	0x3cf1a956	0.029499691
61	0xbd2661b0	-0.040620506
62	0x3cb44b70	0.022008628
63	0x3cc97f36	0.024596792
64	0xbd23ca64	-0.039987937
65	0x3c8c9a53	0.017163431
66	0xbcf58be6	-0.029973935
67	0x3cca78d6	0.024715822
68	0xbc8021a8	-0.015641049
69	0x3d22d246	0.039751314
70	0xbc038dab	-0.008029382
71	0xbc79fec0	-0.015258491
72	0xbcdefc93	-0.027220046
73	0x3c9a62fb	0.018846026
74	0x3ccf7566	0.025324535
75	0x3c4a194b	0.012335132
76	0xbcad9858	-0.021190807
77	0xbc5b21ab	-0.013374726
78	0x3ce1dde8	0.027571633
79	0xbb8bbbf6	-0.00426435
80	0x3d0fe6a6	0.035132073
81	0x3cd90c9e	0.026495274
82	0xbcfbd33e	-0.030740377
83	0x3b79bd00	0.0038107038
84	0x3c9b2ee8	0.018943265
85	0x3d1f8c3f	0.03895211
86	0xbcaf2a2b	-0.021382412
87	0x3b24bac0	0.0025135726
88	0xbbe32aeb	-0.0069326065
89	0xbd0b72b2	-0.03404493
90	0xbd2142af	-0.039370235
91	0x3c1dfa16	0.009642145
92	0x3bb4fa76	0.0055230213
93	0x3c7a4976	0.0152763035
94	0x3c0b5560	0.008504242
95	0xbc8ba9e8	-0.017048791
96	0xbc235f06	-0.009971386
97	0x3d25fd66	0.040524863
98	0xbd09ab97	-0.033610906
99	0x3bb26020	0.005443588
100	0x3c2070cb	0.009792517
101	0x3c9e03fe	0.019289013
102	0x3baedc16	0.005336295
103	0xbc770906	-0.015077835
104	0x3cf3e460	0.029771984
105	0xbd17a6af	-0.037024196
106	0xbd1eef0c	-0.03880219
107	0xbccd69d6	-0.02507488
108	0xbce245ce	-0.027621176
109	0x3cfcce83	0.030860191
110	0x3c2445a6	0.010026371
111	0xbce692be	-0.028146144
112	0xbd05a85e	-0.03263127
113	0xbcd85b3e	-0.026410695
114	0x3b90a560	0.0044142455
115	0x3cd00923	0.025394982
116	0x3d13b2d0	0.0360592
117	0x3a2594ab	0.0006316404
118	0x3ca8928b	0.02057769
119	0x3c7b0300	0.0153205395
120	0x3c03f846	0.0080547985
121	0x3d093feb	0.033508223
122	0x3c3fc560	0.011704773
123	0xbd12037a	-0.035647847
124	0xbd1baa0b	-0.038003962
125	0xbcb47af8	-0.022031292
126	0xbb8c9736	-0.0042904867
127	0x3c90e9a6	0.017689537
128	0xbc5e3d6b	-0.013564448
129	0x3cbf0683	0.023318535
130	0xbbeec5a0	-0.0072867423
131	0x3ced61cb	0.028977295
132	0x3cc63d50	0.024199158
133	0x3c080a4b	0.008303235
134	0x3d1d51b0	0.03840798
135	0x3cc06858	0.023487255
136	0xbd0eb38a	-0.03483919
137	0x3cfaf5a0	0.030634701
138	0xbd207650	-0.03917533
139	0xbd220d9b	-0.039563756
140	0x3cb7ea80	0.022450686
141	0x3c2e85c0	0.010652006
142	0xbd0d85fb	-0.0345516
143	0xbbf3f5c0	-0.007445067
144	0x3c787500	0.015164614
145	0xbbf09f00	-0.007343173
146	0x3caa4943	0.020786887
147	0x3b88e04b	0.0041771284
148	0xbbe4b656	-0.006979744
149	0xbcc221e6	-0.023697805
150	0x3c89a160	0.016800582
151	0xbc766540	-0.015038788
152	0xbcde9c78	-0.02717422
153	0x3cd93388	0.02651383
154	0x39ab9c00	0.0003273189
155	0x3d1386a3	0.03601707
156	0xbcaccfdb	-0.021095207
157	0xbbac8ac0	-0.0052655637
158	0x3c3980b0	0.011322185
159	0x3caf8638	0.021426305
160	0xbcaa0268	-0.0207531
161	0x3ce2765b	0.027644327
162	0x3d00ada8	0.03141561
163	0x3d28c207	0.041200664
164	0x3bc78deb	0.006089916
165	0xbcf16758	-0.029468223
166	0x3cf6c8b8	0.030125007
167	0x3be6d840	0.007044822
168	0xbd0349fe	-0.032052986
169	0xbd0d6e8f	-0.034529265
170	0xbce80cf3	-0.028326487
171	0x3d24323e	0.040086977
172	0x3cffc2ce	0.03122082
173	0xbd105d6a	-0.035245337
174	0x3d01aec0	0.031660795
175	0x3ccdd4c8	0.025125876
176	0xbcde8a40	-0.027165532
177	0xbc01ea26	-0.0079293605
178	0xbc5e05b6	-0.013551166
179	0xbc444160	-0.011978477
180	0xbca92170	-0.020645827
181	0x3cf5f390	0.030023366
182	0xbd0288db	-0.031868797
183	0xbca9ca26	-0.020726275
184	0xbca866d0	-0.020556837
185	0x3b87152b	0.0041223965
186	0xbcaf7930	-0.021420091
187	0x3d282954	0.04105504
188	0x3c5b4470	0.013383016
189	0x3bdbbf96	0.0067061884
190	0x3cb4aa30	0.022053808
191	0xbd166634	-0.036718562
192	0xbb999c96	-0.004687856
193	0xbccd2cbe	-0.025045749
194	0x3d1224a6	0.035679482
195	0xbd18145a	-0.037128784
196	0x3cb6656e	0.022265162
197	0x3c592f80	0.013255954
198	0xbcd060c0	-0.025436759
199	0x3d09055e	0.033452384
200	0xbd0b6d3c	-0.03403972
201	0xbd1d12ac	-0.038347885
202	0x39c4a956	0.00037510198
203	0x3cafb1c6	0.021447074
204	0x3cad04ae	0.021120396
205	0xbd0d5d8c	-0.03451304
206	0xbc666a56	-0.014063438
207	0xbbc346d6	-0.005959372
208	0x3cfc60b3	0.030807829
209	0x3c3a9eb6	0.011390379
210	0x3cb8f31e	0.022576865
211	0x3c3fba30	0.011702105
212	0xbc0050cb	-0.007831763
213	0xbcd414cb	-0.025888821
214	0xbc8ea038	-0.017410383
215	0x3d0a18e4	0.033715144
216	0x3d0611e6	0.032731913
217	0x3aeae600	0.0017921329
218	0xbcc860b3	-0.024460172
219	0xbc17694b	-0.009241412
220	0xbc99b0d8	-0.018761083
221	0xbc976d63	-0.018484777
222	0xbcd90773	-0.02649281
223	0x3c8967ab	0.016773066
224	0xbd17f2be	-0.03709673
225	0x3b683516	0.0035432032
226	0xbb30c3c0	-0.0026972145
227	0xbd14098f	-0.03614193
228	0x3cb3a478	0.02192901
229	0x3c800ff3	0.015632605
230	0x3c307fdb	0.010772671
231	0x3c1a62f6	0.009423008
232	0xbcba30a8	-0.02272828
233	0xbce48183	-0.027893787
234	0xbd011820	-0.031517148
235	0xbbea47cb	-0.0071496717
236	0xbce3c538	-0.027804002
237	0x3bf70e00	0.0075395107
238	0xbc85d7c6	-0.01633824
239	0x3ccfa54b	0.025347373
240	0x3bb0568b	0.0053814105
241	0x3d0ee6f6	0.03488823
242	0xbcf575f8	-0.029963478
243	0x3c94251b	0.0180841
244	0x3d25e448	0.04050091
245	0x3d26c123	0.040711533
246	0x3ca7af93	0.020469462
247	0xbd15d370	-0.036578596
248	0xbd26992b	-0.040673416
249	0x3cd6e8f6	0.026234131
250	0x3cf7aac3	0.030232793
251	0xbcae479e	-0.021274384
252	0xbd27df4b	-0.040984433
253	0x3d11c9d3	0.035592865
254	0x3ccdd8e0	0.025127828
255	0xbc4ab80b	-0.012372981

actor.4.bias f4 [128]
0	0xba6aa3ab	-0.000895078
1	0x3cb7f62b	0.02245625
2	0x3cceaed3	0.025229847
3	0xbcb92be8	-0.022603944
4	0xbc86fc63	-0.01647777
5	0xbb2cb0eb	-0.0026350569
6	0xbcf86370	-0.030320853
7	0xbc9b4e26	-0.018958163
8	0xbb91a16b	-0.0044442913
9	0xbd0488d2	-0.032357045
10	0x3d12e930	0.035866916
11	0xbd22e720	-0.0397712
12	0x3cb61bfb	0.022230139
13	0x3c6528eb	0.013986806
14	0xbd1d1738	-0.03835222
15	0xbd0a017c	-0.03369282
16	0x3c9ef878	0.019405589
17	0xbcd79c90	-0.026319772
18	0x3cc56c0b	0.02409937
19	0x3c7b4d20	0.015338212
20	0x3aedded6	0.0018148075
21	0xbca802ee	-0.02050921
22	0xbd1248f2	-0.035714097
23	0x3c3b3920	0.011427194
24	0xbd20bc2e	-0.039241962
25	0x39c7a2ab	0.00038077435
26	0xbcaecc78	-0.021337733
27	0xbd174674	-0.036932424
28	0xbca4cedb	-0.020118168
29	0xbcfb346e	-0.030664649
30	0x3d035a8b	0.03206877
31	0x3c953533	0.018213844
32	0xbc679e20	-0.014136821
33	0x3c94c553	0.018160498
34	0xbcdd3a96	-0.027005475
35	0xbd0a9a3b	-0.033838492
36	0x3cd68d2e	0.026190367
37	0xbd0dbf4a	-0.034606256
38	0x3cd73d06	0.026274215
39	0x3c9b7a50	0.018979222
40	0x3c8d96fe	0.017283913
41	0x3c849038	0.01618205
42	0x3d1d8ec0	0.038466215
43	0x3cbd7d18	0.023130938
44	0x3cc4009b	0.02392607
45	0xbd265374	-0.04060693
46	0x3ba7f1b6	0.0051252497
47	0x3c7ef4ab	0.015561263
48	0x3d0822ac	0.03323619
49	0xbd0c8e94	-0.03431566
50	0xbcba0640	-0.022708058
51	0x3c5db7b0	0.013532564
52	0x3cb44250	0.022004277
53	0xbc1bd210	-0.009510532
54	0x3d0d946c	0.034565374
55	0x3c743660	0.014905542
56	0x3d27fb1e	0.04101097
57	0xbd00d806	-0.031456016
58	0x3c3ef0fb	0.011654134
59	0x3d19f354	0.03758557
60	0x3ce39f1b	0.027785828
61	0xbd009670	-0.03139347
62	0x3c71934b	0.01474459
63	0x3d0f6276	0.03500601
64	0x3d1e506b	0.03865091
65	0x3c9f6946	0.019459378
66	0xbca7c66e	-0.02048036
67	0xbc9a57fe	-0.018840786
68	0x3cd5e9eb	0.026112517
69	0x3c869ece	0.016433146
70	0x3cef53a0	0.02921468
71	0x3d01a802	0.031654365
72	0xbd0eddf6	-0.034879647
73	0xbc91092b	-0.017704567
74	0xbad31c80	-0.0016106516
75	0x3cec9330	0.028878778
76	0x3c3edf90	0.011649981
77	0x3c2d0bd6	0.010561904
78	0x3b31416b	0.0027047049
79	0x3c9ca360	0.019120872
80	0xbd2a9237	-0.041643348
81	0xbbf6660b	-0.0075194887
82	0xbcbe000b	-0.02319338
83	0x3cc56688	0.024096742
84	0xbcba969e	-0.022776898
85	0xbce2f3a6	-0.027704071
86	0x3ccbd81e	0.024883326
87	0xbc37080b	-0.011171351
88	0x3cef4e4e	0.029212143
89	0xbd1eb10c	-0.038743064
90	0x3c5dfad6	0.0135485735
91	0xbcd89e20	-0.026442587
92	0xbd0def60	-0.034652114
93	0x3cedd846	0.029033791
94	0x3c3f0ae0	0.011660308
95	0xbd08e10b	-0.033417743
96	0xbc792456	-0.015206417
97	0x3c5cc076	0.013473621
98	0x3c46be66	0.012130355
99	0xbd264a23	-0.040598046
100	0x3bd7ef96	0.00658984
101	0x3cfec43b	0.03109943
102	0xbd21e0d0	-0.03952104
103	0xbb86bf56	-0.0041121645
104	0xbbda9236	-0.0066702617
105	0x3ca34540	0.019930482
106	0x3c98a8ce	0.01863518
107	0xbbe15300	-0.0068763494
108	0xbcb1288e	-0.021625783
109	0x3c9f6c43	0.019460803
110	0x3d171b1a	0.03689108
111	0xbcd4bb23	-0.02596814
112	0x3d1b26a7	0.03787866
113	0x3a58b300	0.0008266419
114	0x3b279516	0.002557104
115	0x3cfb18f8	0.030651554
116	0x3ccd41a3	0.025055712
117	0xbd272aea	-0.04081241
118	0xbb7a5b16	-0.0038201264
119	0x3c58b35b	0.013226355
120	0xbbe091ab	-0.0068533025
121	0x3c66758b	0.01406611
122	0xbd0de19e	-0.034638993
123	0x3bf1d66b	0.007380297
124	0xbaf06800	-0.0018341541
125	0x3c4cf910	0.012510553
126	0x3d10824a	0.035280503
127	0xbc9da656	-0.019244354

shit.0.weight f4 [256, 128]
0	0x3d373bc6	0.04473474
1	0x3d7a50bc	0.06111215
2	0x3d7de6d8	0.061987728
3	0xbd4f9f59	-0.050689075
4	0x3ced7c6c	0.028989993
5	0xbdb18424	-0.08667782
6	0x3b93e1ca	0.004513
7	0x3c5679ea	0.01309059
8	0xbd8b5867	-0.06803971
9	0x3d314743	0.04328085
10	0xbcbaae7f	-0.022788284
11	0xbd423617	-0.047414865
12	0xbc975dc8	-0.018477336
13	0x3c8b95a4	0.017039128
14	0x3b0543f5	0.0020334695
15	0x3d12afef	0.035812315
16	0xbd33ed55	-0.04392751
17	0x3cb518ed	0.022106612
18	0x3ca6ca61	0.020360174
19	0xbd19af17	-0.037520494
20	0x3d2ee18f	0.04269558
21	0xbd733121	-0.059373025
22	0xbd4e4158	-0.050355285
23	0x3d0dc430	0.034610927
24	0xbcaf2f57	-0.021384878
25	0xbd1491a6	-0.036271714
26	0x3d45daaa	0.048304237
27	0xbd90a553	-0.07062783
28	0x3db182fd	0.08667562
29	0x3d917c3c	0.07103774
30	0x3d8eae83	0.06966879
31	0x3dac0c1e	0.08400749
32	0x3d95fdb6	0.07323782
33	0xbd0de40b	-0.034641307
34	0x3d95551d	0.07291625
35	0xbb59d819	-0.0033240377
36	0x3db03827	0.0860446
37	0xbd091d36	-0.033475123
38	0xbd0a26b2	-0.03372831
39	0xbd96769d	-0.073468424
40	0xbcd3b7bc	-0.025844447
41	0xbd769043	-0.060196172
42	0xbda26cf9	-0.07930941
43	0xbcfc1828	-0.030773237
44	0xbdaefea6	-0.08544664
45	0x3d92c9c9	0.07167394
46	0x3d1cfce3	0.03832711
47	0x3c90562c	0.017619215
48	0x3d450ef4	0.048109964
49	0x3d8d6160	0.069033384
50	0x3dacc66b	0.08436283
51	0xbd562320	-0.05227959
52	0x3d54ab1f	0.051921006
53	0x3d18f8b0	0.037346542
54	0xbc3cfabe	-0.011534391
55	0x3da10f65	0.078642644
56	0xbd4765a4	-0.048680916
57	0x3d9667fb	0.073440515
58	0x3d43951a	0.047749616
59	0x3d44afba	0.04801915
60	0xbd14a42d	-0.036289383
61	0xbdaed1d1	-0.08536113
62	0xbd62e65b	-0.055395465
63	0x3d33ea62	0.043924697
64	0xbdae4582	-0.08509351
65	0x3c31fa3f	0.010862886
66	0x3c6c5009	0.014423379
67	0xbad3eaa5	-0.0016167952
68	0x3ba1bcfe	0.0049358597
69	0x3d289e1e	0.041166417
70	0x3d6b7ff2	0.057495065
71	0x3d7f571b	0.06233893
72	0xbd33d2c3	-0.04390217
73	0xbcabb8d4	-0.020962156
74	0x3ccc09bc	0.024906985
75	0x3d9551fd	0.07291029
76	0x3d873c46	0.06603293
77	0x3d8861e2	0.06659295
78	0x3d822b58	0.063559234
79	0x3d850728	0.064955056
80	0x3d546e09	0.05186275
81	0x3b8a86bb	0.004227487
82	0x3d92cc14	0.07167831
83	0x3cc1e548	0.0236689
84	0xbd875599	-0.06608123
85	0x3d17f6c3	0.037100565
86	0xbc80ce94	-0.015723504
87	0xbd0ac536	-0.03387948
88	0xbcf16e42	-0.02947152
89	0x3d3cfd10	0.046139777
90	0xbd936676	-0.07197277
91	0x3d9cb62b	0.07651933
92	0x3d6b24ed	0.057408262
93	0x3d85d6d5	0.065351166
94	0xbd5870e9	-0.052842055
95	0xbd64bc24	-0.055843487
96	0x3d212de4	0.039350405
97	0x3d86f852	0.06590332
98	0x3cd2a741	0.025714519
99	0xbdb13493	-0.08652606
100	0x3db3475e	0.087538466
101	0x3b42b915	0.0029712368
102	0xbd65b79e	-0.056083314
103	0x3d90740b	0.070533834
104	0x3d348fe1	0.044082526
105	0xbd04b130	-0.03239554
106	0x3d49b977	0.04924914
107	0x3daf6ed6	0.08566062
108	0xbd8d9d93	-0.069148205
109	0x3d8dcf89	0.0692435
110	0x3d0e7385	0.034778137
111	0xbd9330c4	-0.07187036
112	0xbbae7044	-0.0053234417
113	0x3ce6c2f3	0.02816913
114	0x3da1d0c0	0.07901144
115	0x3da858ac	0.08220038
116	0xbcb3678f	-0.021899967
117	0x3d1bafe5	0.038009543
118	0x3d555d37	0.05209085
119	0x3b285b0b	0.0025689031
120	0xbd17d82b	-0.03707139
121	0xbd865e82	-0.06560995
122	0xbd47654f	-0.0486806
123	0x3d4cde33	0.050016593
124	0xbc573924	-0.013136182
125	0xbc7be4d3	-0.01537438
126	0x3da6717c	0.08127114
127	0xbd50ad05	-0.050946254
128	0x3d8e645b	0.06952735
129	0x3d25523b	0.040361624
130	0x3c8ff991	0.017575057
131	0x3d947f44	0.072508365
132	0x3d10306f	0.03520244
133	0x3cb1a7ce	0.02168646
134	0xbd0025bb	-0.031285983
135	0x3cbb4aae	0.022862758
136	0xbb7d19c9	-0.0038620105
137	0x3da93e9c	0.08263895
138	0x3da3793e	0.079821095
139	0xbdb48484	-0.08814338
140	0x3d0b3f57	0.033995952
141	0x3cefb5dd	0.029261524
142	0x3d01d0ae	0.031693153
143	0x3d7b2bc2	0.061321028
144	0x3c563219	0.013073468
145	0xbd882967	-0.06648522
146	0x3d9c7195	0.076388516
147	0x3b7bfc77	0.0038450041
148	0xbd65b5a9	-0.056081448
149	0xbd84eaff	-0.064901344
150	0xbc1cda4c	-0.00957353
151	0xbd9a2575	-0.075266756
152	0xbd8d8a6d	-0.06911168
153	0x3d8b5da8	0.06804973
154	0xbd9e3cf3	-0.07726469
155	0xbc96be93	-0.01840142
156	0xbd8b8f9c	-0.06814501
157	0xbd85cfac	-0.06533751
158	0xbcdbc6f0	-0.02682826
159	0x3bce3c7b	0.006293831
160	0xbcb001d1	-0.021485241
161	0xbd39c75c	-0.04535614
162	0x3d6282b0	0.055300415
163	0x3c79fe77	0.015258423
164	0xbda0366f	-0.078228824
165	0xbd85b543	-0.065287136
166	0xbd07313e	-0.033005945
167	0xbd9ba3f0	-0.07599628
168	0xbd358be0	-0.04432285
169	0x3c9225f2	0.01784036
170	0x3cc01829	0.02344902
171	0xbd278fe7	-0.04090872
172	0x3d7ce70d	0.061743785
173	0xbd13ca52	-0.03608162
174	0x3d0b8884	0.03406574
175	0x3d1ef445	0.038807172
176	0x3d9036b5	0.070416845
177	0x3ce78e4f	0.0282661
178	0x3d820ca6	0.06350069
179	0xbdaa2497	-0.0830776
180	0x3c6d1003	0.0144691495
181	0x3db473b7	0.08811133
182	0xbc4cba39	-0.012495571
183	0xbc779ee2	-0.015113564
184	0x3d3ffaf3	0.046870183
185	0xbd1c86fa	-0.03821466
186	0x3d680b28	0.056651264
187	0x3ca50b06	0.020146858
188	0x3d9f805a	0.07788153
189	0x3c900bc6	0.017583739
190	0xbd36aee2	-0.044600375
191	0xbd72d5cd	-0.059285928
192	0x3cc7c9e5	0.024388263
193	0xbdb48e8c	-0.08816251
194	0x3d66e930	0.05637473
195	0xbb67d67a	-0.003537564
196	0xbd33c38c	-0.04388766
197	0xbda76ee1	-0.08175445
198	0xbcdcd5ce	-0.026957419
199	0xbd271730	-0.040793598
200	0xbcf82bb0	-0.03029427
201	0xbd0e34b2	-0.034718223
202	0x3c1b5d79	0.009482735
203	0xbd1e6fbe	-0.038680784
204	0x3c93075c	0.017947845
205	0x3d0f7dcf	0.03503209
206	0x3d401d2a	0.046902813
207	0xbccf5c73	-0.025312638
208	0xbd52926b	-0.051409166
209	0x3d88bd41	0.06676722
210	0xbd834a62	-0.06410672
211	0xbc1212e6	-0.008915639
212	0xbd8e7334	-0.06955567
213	0xbcaaa848	-0.020832196
214	0x3c8ced6d	0.017203057
215	0xbd219fc2	-0.039458998
216	0xbca82273	-0.02052424
217	0xbc7277ff	-0.014799117
218	0x3cbee092	0.023300443
219	0xbda5409a	-0.080689624
220	0x3d9a2da6	0.07528238
221	0xbd212ebe	-0.039351217
222	0xbd479561	-0.048726443
223	0x3b8b810c	0.004257327
224	0x3d531e78	0.05154273
225	0xbd62fecc	-0.055418774
226	0x3c1cb7b1	0.00956528
227	0xbd840501	-0.06446267
228	0x3d0ef077	0.034897294
229	0x3d585ea0	0.052824616
230	0xbc73722e	-0.0148587655
231	0x3d934d8c	0.07192525
232	0x3c6c06d9	0.0144059295
233	0x3d3009c2	0.042978056
234	0xbd05adf8	-0.032636613
235	0x3d4e01a6	0.05029454
236	0x3cda8255	0.026673475
237	0x3cd82222	0.026383463
238	0xbdb1caea	-0.08681281
239	0xbd9731ff	-0.07382583
240	0xbd3e9a36	-0.046533786
241	0x3d1d1d40	0.038357973
242	0xbb7fa891	-0.0039010386
243	0xbc2eaf1d	-0.010661867
244	0xbabaa991	-0.0014241209
245	0xbcf2c430	-0.029634565
246	0xbcaaa049	-0.020828383
247	0x3d9b3f79	0.07580466
248	0xbdb23e4c	-0.087032884
249	0xbd225036	-0.039627276
250	0x3d6a9631	0.05727214
251	0xbda8f1e5	-0.08249263
252	0x3cd3240f	0.02577403
253	0x3d6d15bf	0.057882067
254	0xbc95eaf9	-0.01830052
255	0xbd1b0cc4	-0.03785397

shit.0.bias f4 [256]
0	0x3d47221a	0.048616506
1	0x3d4aeae1	0.049540404
2	0xbd362176	-0.044465505
3	0xbd9e8b04	-0.07741359
4	0xbdaf9078	-0.08572477
5	0xbc9eed0c	-0.019400142
6	0x3c404a2a	0.011736432
7	0xbd04dc41	-0.032436613
8	0x3d2c90ce	0.042130284
9	0xbd14e87e	-0.036354534
10	0x3c795a54	0.01521929
11	0xbcb86026	-0.022506785
12	0xbdaf2f29	-0.08553917
13	0xbd25be62	-0.040464766
14	0x3d4aa1b5	0.049470622
15	0xbdb14932	-0.08656539
16	0xbc911f58	-0.017715141
17	0x3cccd4c9	0.025003808
18	0xbd990e50	-0.07473433
19	0x3bfd0ea6	0.0077226935
20	0xbc2217b9	-0.009893351
21	0x3d9997ba	0.07499643
22	0xbd89dc38	-0.067314565
23	0xbda2bd5a	-0.07946272
24	0xbd8697bc	-0.0657191
25	0xbc265160	-0.010151237
26	0xbd802b21	-0.06258226
27	0x3da5bad9	0.08092279
28	0xbce9f934	-0.028561212
29	0xbd87bccc	-0.06627807
30	0x3d9f2f14	0.07772651
31	0x3d8556b9	0.06510682
32	0xbda0a926	-0.078447625
33	0x3da577a8	0.08079463
34	0x380ef7d9	3.4086264e-05
35	0xbd948821	-0.07252527
36	0xbcab3680	-0.020900011
37	0x3cf3f806	0.029781353
38	0xbcf5da7e	-0.030011412
39	0xbc69c03c	-0.014267024
40	0x3ce59838	0.028026685
41	0x3d921902	0.07133676
42	0xbd366f4c	-0.044539735
43	0x3d10481f	0.03522503
44	0xbd66c594	-0.05634077
45	0xbda194db	-0.0788972
46	0x3b9360be	0.0044976166
47	0xbd964d4c	-0.07338962
48	0x3bfbcec5	0.007684561
49	0xbbfa5fb1	-0.007640802
50	0xbd3289a3	-0.04358829
51	0xbccc21b0	-0.024918407
52	0xbc7a1fb3	-0.015266347
53	0x3c68d996	0.014212033
54	0xbc09659d	-0.008386043
55	0xbc9aab54	-0.018880524
56	0x3d97619f	0.073916666
57	0xbcdb2ee9	-0.026755767
58	0x3d3c15ac	0.045919105
59	0x3d5546f9	0.052069638
60	0xbd876330	-0.066107154
61	0xbd6879dd	-0.056756843
62	0xbd86a599	-0.06574554
63	0xbdb1dfad	-0.08685241
64	0xbceb4d09	-0.028723257
65	0x3d2dd673	0.042440843
66	0x3db4bd0a	0.08825119
67	0xbd5e6adb	-0.054301124
68	0x3d71fda5	0.059079785
69	0xbdaa47f7	-0.083145075
70	0xbd89cb45	-0.06728224
71	0x3d4e0fa2	0.050307877
72	0x3d83ef46	0.06442122
73	0x3d811a79	0.063038774
74	0x3d86b1db	0.06576892
75	0xbd8f9a6c	-0.070118755
76	0xbd0b4795	-0.034003813
77	0xbd5f6b0d	-0.05454545
78	0xbbf4d2c3	-0.007471414
79	0xbd623f31	-0.055236045
80	0x3d842552	0.06452431
81	0xbd51032b	-0.05102841
82	0xbc9a9f49	-0.018874781
83	0xbd853643	-0.0650449
84	0x3d806120	0.06268525
85	0xbcdb6e49	-0.026785986
86	0xbd0b692e	-0.034035854
87	0xbbf54bdb	-0.0074858493
88	0x3d1ed1fd	0.03877448
89	0x3d994e12	0.07485594
90	0xbcb93399	-0.022607611
91	0xbafc10cc	-0.001923108
92	0x3c7377f8	0.014860146
93	0x3c0c3a65	0.008558844
94	0xbd3e9510	-0.046528876
95	0xbc8ff2c8	-0.017571822
96	0x3d5c4e54	0.053785637
97	0x3d9ae7fa	0.07563777
98	0x3cd6a199	0.026200103
99	0xbd9aec36	-0.07564585
100	0xbcc0d70f	-0.023540048
101	0x3c0ab161	0.008465142
102	0x3d5120db	0.051056724
103	0xbd5f111a	-0.05445967
104	0xbdb1a901	-0.08674813
105	0x3d04714b	0.032334607
106	0x3c90b7c1	0.017665746
107	0x3d92476d	0.0714253
108	0xbcbce171	-0.023056718
109	0xbd47eba6	-0.048808716
110	0xbdaf28ae	-0.08552681
111	0x3d9223db	0.07135745
112	0x3d02a9ee	0.03190034
113	0x3d57130e	0.052508406
114	0x3cdc0cf7	0.02686165
115	0x3bbbac75	0.0057273456
116	0xbcd530c7	-0.026024235
117	0x3cbc5378	0.02298902
118	0x3d782b28	0.060588032
119	0xbda54079	-0.08068938
120	0x3d23f9ba	0.04003308
121	0xbd0a89c8	-0.033822805
122	0xbd8db6a9	-0.06919605
123	0xbdb33786	-0.08750825
124	0xbd6cce9e	-0.057814233
125	0x3d494876	0.04914137
126	0xbcc9e5fe	-0.024645802
127	0xbd88d9e0	-0.06682181
128	0x37d010f0	2.480342e-05
129	0xbdabf986	-0.08397202
130	0xbdb13864	-0.08653334
131	0x3d9c4821	0.07630945
132	0xbd1b668e	-0.0379396
133	0xbd9d17bc	-0.076705426
134	0xbc39799a	-0.011320496
135	0xbd924efa	-0.0714397
136	0xbc10adfd	-0.008830545
137	0xbd580256	-0.052736603
138	0x3da20647	0.079113536
139	0xbd34e05e	-0.044159286
140	0xbd82bcde	-0.0638368
141	0x3bfbde10	0.007686384
142	0xbdb361fc	-0.087589234
143	0x3da9ace8	0.082849324
144	0x3c8eab5e	0.017415699
145	0xbdb47e58	-0.08813161
146	0xbb99b9ac	-0.0046913233
147	0xbbbc7010	-0.0057506636
148	0xbd55e15b	-0.05221687
149	0x3d8f23a9	0.069892235
150	0x3d8d60c6	0.06903224
151	0xbd914ee0	-0.07095122
152	0x3d827121	0.06369234
153	0x3bd79bc8	0.00657985
154	0x3d0b6375	0.034030396
155	0xbccb48b7	-0.024814947
156	0xbd376da2	-0.04478229
157	0x3ca1f989	0.019772308
158	0x3dadeacc	0.084920496
159	0xbd8e3a86	-0.06944756
160	0xbbbf4917	-0.0058375704
161	0x3997dcbb	0.0002896542
162	0x3daffaa1	0.085927255
163	0xbd6a1328	-0.057147175
164	0xbca53f64	-0.020171829
165	0x3d424398	0.047427744
166	0x3be7cbc8	0.007073853
167	0xbd7bae5a	-0.06144557
168	0x3d8c207b	0.06842133
169	0x3da23e18	0.07922
170	0xbd8d30e1	-0.068940885
171	0xbd4f47ca	-0.050605573
172	0x3daf5a33	0.08562126
173	0xbcdf30f2	-0.027245019
174	0x3d5f14c0	0.054463148
175	0x3d9fbb0a	0.07799347
176	0xbd9f13f5	-0.077674784
177	0x3d82d59d	0.063884
178	0x3d86cc98	0.06581992
179	0xbc877d60	-0.016539276
180	0x3d97765b	0.073956214
181	0x3d38f6c1	0.045157198
182	0x3d80cb77	0.06288808
183	0xbd283e40	-0.04107499
184	0xbd8e16ce	-0.069379434
185	0x3c8dea7c	0.017323725
186	0x3d98aea4	0.07455185
187	0x3c8beced	0.017080748
188	0x3d583098	0.052780718
189	0x3d7b633c	0.061373934
190	0xbc91bacc	-0.017789267
191	0x3d44c90f	0.048043307
192	0x3ce66602	0.028124813
193	0x3a87a001	0.0010347367
194	0xbc14d7a4	-0.009084616
195	0x3daaba4d	0.08336315
196	0xbd7d4970	-0.061837614
197	0xbd126229	-0.035738144
198	0x3a948412	0.0011330864
199	0x3b270cef	0.0025489887
200	0xbd99195b	-0.07475539
201	0xbda13b20	-0.07872605
202	0xbcba6a48	-0.022755757
203	0x3d4c8d47	0.04993942
204	0x3cc25320	0.023721278
205	0x3daa6317	0.08319681
206	0x3d65da1a	0.0561162
207	0xbbee883d	-0.0072794245
208	0x3b1aba88	0.0023609716
209	0xbd031955	-0.03200658
210	0xbd1b109c	-0.037857637
211	0xbc8f2821	-0.01747519
212	0xbdb20283	-0.08691885
213	0xbd418a38	-0.047250956
214	0xbd55d646	-0.0522063
215	0x3d2250ee	0.03962796
216	0x3d01664b	0.031591695
217	0xbd1c5225	-0.038164277
218	0xbd119966	-0.035546683
219	0xbd181e72	-0.03713841
220	0xbd87b5cf	-0.06626474
221	0xbb253f04	-0.0025214562
222	0xbd89a3c5	-0.0672069
223	0xbd867aa0	-0.065663576
224	0xbd66a113	-0.056305956
225	0xbd522f99	-0.051314924
226	0x3bdd5735	0.0067547807
227	0x3b77edba	0.0037830905
228	0xbd4ea9cb	-0.050454896
229	0x3d8bb016	0.06820695
230	0xbd26b620	-0.04070103
231	0xbd8e9558	-0.06962079
232	0x3d787dbc	0.060666785
233	0x3d76e446	0.060276292
234	0xbd924571	-0.07142151
235	0xbc4a1728	-0.012334622
236	0x3b99ed62	0.0046974877
237	0x3b69faa9	0.0035702384
238	0x3d643ac9	0.055720124
239	0xbc4cecd3	-0.012507635
240	0x3d5bfa01	0.05370522
241	0x3d90cf56	0.07070796
242	0x3d5c63bd	0.053806055
243	0xbdb05ab3	-0.086110495
244	0xbd9627f8	-0.07331842
245	0xbd4c6e7f	-0.049910065
246	0xbdb2256e	-0.086985454
247	0xbce3ae0f	-0.027792959
248	0xbd6f5089	-0.058426414
249	0xbd31429c	-0.043276414
250	0x38a3a101	7.802435e-05
251	0xba8fdbe3	-0.0010975566
252	0xbd696f79	-0.056991074
253	0x3d763423	0.060108315
254	0xbda3b5f7	-0.079936914
255	0x3d343d50	0.044003785

shit.2.weight f4 [128, 256]
0	0xbd35e6a8	-0.044409424
1	0x3d05f05c	0.032699928
2	0x3c5e38e8	0.013563372
3	0x3c749908	0.014929064
4	0x3cf82b20	0.030294001
5	0x3c368a60	0.01114139
6	0xbc9aa3ac	-0.018876873
7	0xbd76ea68	-0.06028214
8	0xbd334eaa	-0.04377619
9	0xbbd3fd60	-0.0064694136
10	0x3d1006ba	0.035162665
11	0x3c96497c	0.018345587
12	0xbd699d1e	-0.057034604
13	0xbc060428	-0.008179702
14	0xbd548c28	-0.051891476
15	0x3d008cf2	0.031384416
16	0x3a077500	0.00051672757
17	0xbd5ff6d4	-0.054678753
18	0x3d3ed222	0.046587117
19	0xba46f600	-0.00075897574
20	0xbd2c3148	-0.042039186
21	0x3d3134d8	0.043263286
22	0xbd098c56	-0.0335811
23	0xbc4fd308	-0.012684591
24	0x3d2a3530	0.04155463
25	0xbcc8d64c	-0.024516247
26	0x3c0cf220	0.008602649
27	0x3c87412c	0.016510569
28	0x3af0b140	0.0018363371
29	0xbc3c9f90	-0.011512652
30	0xbc505748	-0.012716122
31	0x3b6b82e0	0.0035936162
32	0xbcff8b98	-0.031194493
33	0xbc8ff520	-0.01757294
34	0x3c8b0ccc	0.016973875
35	0x3d4b6926	0.049660824
36	0x3ae5d940	0.0017536059
37	0xbb83c630	-0.0040214285
38	0xbc9a9460	-0.018869579
39	0x38aaa800	8.137524e-05
40	0xbd72b256	-0.059252106
41	0xbd6fc560	-0.05853784
42	0x3d53e018	0.051727384
43	0x3bdcb320	0.0067352206
44	0x3d4abbc6	0.04949548
45	0xbd3a01c0	-0.045411825
46	0xbc6901c8	-0.014221616
47	0xbc832bb4	-0.01601205
48	0xbc0f7da0	-0.008757979
49	0xbcd8e0ec	-0.026474439
50	0x3d419900	0.047265053
51	0x3bfb34e0	0.0076662153
52	0x3d70575a	0.058677055
53	0x3c682b48	0.014170475
54	0xbd755ce0	-0.059903026
55	0x3d44846a	0.047977842
56	0xbd562e02	-0.05228997
57	0xbd6b093c	-0.057381853
58	0xbce9ebec	-0.02855488
59	0xbb2ffc00	-0.0026853085
60	0xbc57c8f0	-0.013170466
61	0xbcf96558	-0.030443832
62	0xbd60f004	-0.054916397
63	0xbc4fc908	-0.012682207
64	0xbc71a780	-0.014749408
65	0xbd0436f4	-0.03227897
66	0xbd5c12b0	-0.05372876
67	0x3d10aca0	0.035320878
68	0xbd49c022	-0.049255498
69	0x3d6aeef6	0.057356797
70	0x3ce66f3c	0.028129213
71	0x3d1fddfa	0.039030053
72	0xbce019b4	-0.027356006
73	0xbcd95098	-0.026527688
74	0xbca52a80	-0.020161867
75	0xbd284924	-0.041085377
76	0x3d20518e	0.039140277
77	0xbce549e0	-0.027989328
78	0xbd3c2e9a	-0.04594288
79	0x3b985300	0.0046485662
80	0xbd06be70	-0.03289646
81	0x3d7f7afe	0.062373154
82	0x3c6e6f40	0.014552891
83	0x3d24416a	0.040101446
84	0x3c01fb68	0.007933475
85	0xbcf7edb8	-0.03026472
86	0xbcc6b1cc	-0.024254702
87	0xbd3a8e4c	-0.04554586
88	0xbcfc147c	-0.030771486
89	0x3c567550	0.013089493
90	0x3c9ee6d8	0.019397184
91	0xbc8b432c	-0.016999803
92	0x3d1fa156	0.03897222
93	0xbcf809f0	-0.030278176
94	0xbb32a380	-0.0027258098
95	0x3c6a7ff8	0.014312737
96	0xbd2e6d4a	-0.042584695
97	0x3d4eff6c	0.050536558
98	0x3a0b0780	0.0005303547
99	0x3cacbaf4	0.02108524
100	0xbbfd8810	-0.007737167
101	0xbd2c6d94	-0.04209669
102	0x3cb42984	0.021992452
103	0x3c6711a0	0.014103323
104	0xbcbd9d80	-0.02314639
105	0x3d0e2f38	0.034713
106	0xbcfdcf10	-0.030982524
107	0xbd490d38	-0.049084872
108	0x3d503370	0.050830305
109	0x3d288eb2	0.04115171
110	0x3d0f363a	0.034963824
111	0x3d35db4c	0.04439859
112	0x3cd9984c	0.026561879
113	0x3c6bc3a0	0.014389902
114	0xbd100272	-0.035158582
115	0xbd71779c	-0.05895196
116	0xbd3455e2	-0.044027217
117	0x3d10c3ca	0.03534297
118	0x3d49c4d6	0.049259983
119	0x3d48fcf0	0.049069345
120	0x3cb21394	0.021737851
121	0xbd1380b6	-0.03601142
122	0x3ca808c8	0.020512
123	0xbd46030a	-0.048342742
124	0x3c6252f0	0.013813719
125	0xbd0b9526	-0.034077786
126	0x3d34106e	0.04396098
127	0xbc4217f0	-0.011846527
128	0xbcb18a68	-0.021672443
129	0xbc096d00	-0.008387804
130	0x3d477814	0.0486985
131	0x3d510c6c	0.051037237
132	0x3cd0d400	0.025491714
133	0x3d797936	0.06090661
134	0x3b0ef160	0.0021811351
135	0x3d089892	0.033348627
136	0x3c2c9f28	0.010535993
137	0x3cc3c1b4	0.023896076
138	0xbc5247f0	-0.012834534
139	0xbd4b982a	-0.04970566
140	0x3d543986	0.05181267
141	0x3d198d64	0.037488356
142	0x3d1cbad4	0.03826411
143	0x3cb1e4d8	0.021715567
144	0x3d521346	0.05128791
145	0x3ccd325c	0.025048427
146	0x3d44d912	0.048058577
147	0x3cded908	0.027203098
148	0x3d205046	0.039139055
149	0x3cce04e4	0.025148816
150	0xbc8fe40c	-0.017564796
151	0x3b3f66e0	0.0029205605
152	0xbd22eb1e	-0.039775006
153	0xbb7ca540	-0.0038550645
154	0xbb929630	-0.00447347
155	0xbc4ab878	-0.012373082
156	0xbb892670	-0.0041854903
157	0x3ca5d3d0	0.020242602
158	0xbc9554dc	-0.01822894
159	0x3d30a504	0.04312612
160	0xbd108cba	-0.035290457
161	0xbcac9b5c	-0.021070175
162	0xba5a1480	-0.0008319095
163	0x3bfb9120	0.0076772124
164	0xbc832388	-0.016008154
165	0x3d590c3e	0.05299019
166	0xbc8da384	-0.017289884
167	0xbd507c2e	-0.050899677
168	0xbcd96c80	-0.026540995
169	0xbd6c178e	-0.05763965
170	0x3cdbcab4	0.026830055
171	0x3cbfb188	0.023400083
172	0x3ca5b750	0.020229012
173	0x3cd87758	0.026424095
174	0xbd3df226	-0.04637351
175	0xbca20580	-0.019778013
176	0xbd32062c	-0.043462917
177	0x3d1e005a	0.038574554
178	0x3d57b5a8	0.052663475
179	0x3c8e8930	0.0173994
180	0xbd538ec8	-0.05164984
181	0xbd007c7e	-0.031368725
182	0x3c595170	0.013264045
183	0x3cf29b30	0.029615015
184	0x3d7d54ec	0.061848566
185	0x3ccce860	0.025013149
186	0x3cf744fc	0.030184262
187	0x3d6fe0a6	0.05856385
188	0xbd1c9eb2	-0.03823728
189	0x3d0642b8	0.03277847
190	0x3c87339c	0.016504101
191	0x3d0549c6	0.03254106
192	0xbd3cd532	-0.046101756
193	0x3cf24d64	0.029577918
194	0x3d128a2e	0.03577631
195	0x3d419080	0.047256947
196	0xbd35c6e4	-0.04437913
197	0xbd3466f2	-0.04404349
198	0xbcfe65d0	-0.031054407
199	0xbd095a34	-0.03353329
200	0xbcd6d6b4	-0.026225425
201	0x3c4b91f8	0.012424938
202	0x3bfb9ea0	0.0076788217
203	0x3d7e3e88	0.062071353
204	0x3b0782e0	0.0020677373
205	0x3c913298	0.01772432
206	0xbc29ff58	-0.01037582
207	0xbc9cccbc	-0.019140594
208	0x3d2abfa2	0.04168666
209	0x3c7cca50	0.015429094
210	0x3c626e00	0.013820171
211	0xbcb67b74	-0.022275664
212	0xbc64e428	-0.013970412
213	0xbcc3dbd8	-0.02390854
214	0x3a790700	0.0009499639
215	0xbd565d26	-0.052334927
216	0xbba37080	-0.0049877763
217	0x3cd9b040	0.0265733
218	0xbcfb448c	-0.030672334
219	0x3d619bc4	0.05508019
220	0x3d21df10	0.03951937
221	0xbc7f9ec8	-0.015601821
222	0x3d258aa0	0.040415406
223	0x3bfd6df0	0.007734053
224	0xbd59442e	-0.053043537
225	0x3d685b58	0.056727737
226	0xbc216860	-0.009851545
227	0x3ce1a0ac	0.027542435
228	0x3ceca1b0	0.028885692
229	0xbce82154	-0.028336205
230	0x3c35b7e8	0.01109121
231	0xbbf79e00	-0.007556677
232	0xbce339b0	-0.027737468
233	0xbd137058	-0.03599581
234	0x3d6f3fd0	0.058410466
235	0xbc75bc60	-0.014998525
236	0xbc541318	-0.012944005
237	0xbd0dae86	-0.034590267
238	0x3d6a20b6	0.0571601
239	0x3d49cbee	0.049266748
240	0xbd727162	-0.05919016
241	0x3cfc3b2c	0.030789934
242	0x3d506400	0.050876617
243	0x3d20359a	0.03911362
244	0xbc7a4918	-0.015276216
245	0x3d3c2bbe	0.045940153
246	0x3d610910	0.054940283
247	0x3d48aad2	0.048991032
248	0xbb3cfd60	-0.0028837547
249	0xbcb37a4c	-0.021908902
250	0x3c8d322c	0.017235838
251	0x3cf3f498	0.029779717
252	0x3d551bde	0.05202853
253	0x3cda97c8	0.026683703
254	0xbbf376c0	-0.0074299276
255	0x3d7ae504	0.061253563
