src/temp/model/checkpoint_0_Interrupt.pth (torch, 923227 bytes, 17 tensors)

actor.0.weight f4 [32, 1, 3, 3]
00000000: ce1b 98be 4e2b 50be 42c7 323e 807b 0b3d
00000010: b66c 32be 184e 1fbd 5abb 2c3e 90e4 d8bc
00000020: f3ba 833e 68ec 0cbd 4a2f 5e3e 1553 973e
00000030: a014 053d b42e b43d 20e6 c13d c0a6 6dbe
00000040: 2441 ae3d 6ec2 003e 3875 17be c03e c3bd
00000050: ab72 6bbe 5869 7cbd 6048 293d 2bf2 56be
00000060: 6cd6 8ebd 8774 953e e039 eabd 20e3 4fbe
00000070: 79cc a13e a049 243d 948e a1bd 40dc b5bb
00000080: d05c 883c eee0 94be 9ef5 1f3e 4083 de3c
00000090: b8f2 633d b0f3 8f3c 7220 6b3e a4ff a93d
000000a0: 668b 10be 90c3 d83d 954c 8a3e 26c4 e4bd
000000b0: e002 a4be 65ee 8f3e a2c3 353e 80ec ce3d
000000c0: bad3 9abe e064 433d 40c7 29bd 0237 94be
000000d0: fc35 c2bd 0420 ef3d 1200 123e b09f 8f3d
000000e0: eb31 aabe 7390 14be cfdc 8b3e b02c 9c3d
000000f0: 69ce 853e 0ee0 71be 42f6 423e ace5 f93d
00000100: 21dc a23e c6b4 d2bd 9ec7 84be 2023 efbd
00000110: d259 3d3e 7661 6b3e bae7 7a3e 2b52 14be
00000120: b056 8d3c 90f1 a13c 4ef3 6e3e f49f 8c3d
00000130: e410 9e3d f263 723e 746f 90be a552 903e
00000140: f0fc a53d 68d1 67bd 1b4c 15be 2b6f 823e
00000150: 080e 95be 4cdf e3bd a8ec 1c3d b136 933e
00000160: 3ade 673e 98d6 66bd c09a ad3c 3a70 653e
00000170: 20e9 233c 5e13 153e 2075 32bd 5a06 213e
00000180: f820 78bd bed3 43be 9636 a9be 444e 8a3d
00000190: 5c65 dabd f06a c43d 9aa0 143e fe88 71be
000001a0: baef 463e c01b a1be ad3e 8c3e c0bf 193d
000001b0: bad3 503e ce3b 623e 42a5 2f3e 0ec0 91be
000001c0: 1602 ccbd e414 aabd f871 68be f8ec 61bd
000001d0: 36f0 63be 21d3 9b3e c28a 103e 96ca 453e
000001e0: a05a 77bd 38eb 113e 8bec 74be d0a8 6ebe
000001f0: f676 f5bd d051 96be aa2f 743e 62ef 9abe
00000200: 006e 8dbc 80ae bf3d baff 603e 9cd0 d3bd
00000210: f25e 2b3e 9824 49be 1829 3f3d c2d0 553e
00000220: 1968 923e b3e7 40be 79e8 a53e d6e6 603e
00000230: 0c1b d0bd 880d 42bd 76b1 0cbe 204c f7bd
00000240: 22a2 3e3e 784b 073d 54c8 fd3d 63f1 80be
00000250: 2788 82be a2ae 393e ea03 323e 27b0 8dbe
00000260: 5cb2 f9bd 0e09 3e3e c870 04bd 552c 943e
00000270: e1ac 863e a32b 40be 5bcb 83be c5e1 9e3e
00000280: 2099 cebd b03d 8bbd b2d0 023e c224 0c3e
00000290: 1088 93bc a82e 83be 2e99 5a3e 5888 69be
000002a0: a802 2c3d 9c15 88be ab8f 4bbe 20bd 5a3d
000002b0: 0634 5dbe 4065 e13b 0b44 75be 90ac 9bbe
000002c0: 6465 903d 188e 52bd 78ee 67be 9c94 c0bd
000002d0: f930 983e 0a44 8abe c670 0cbe 3177 a03e
000002e0: 6c33 8cbd 5485 e53d 50b6 d03d 907c 8f3c
000002f0: 231e 833e cdf8 833e 2a9f 3f3e b8a9 28bd
00000300: dc2d 9bbd 5071 80bd f8df 11be 3ec3 62be
00000310: bf25 a73e 5356 89be 3f25 8ebe 49cc 8b3e
00000320: 0e04 5fbe 27b8 853e e878 86be dadf 793e
00000330: 366b 3e3e 724d 023e 3062 b43c 00ae 3b3d
00000340: 2fdb 83be b091 8b3d 4266 9bbe e0ed afbd
00000350: f0b3 a53c 80eb 193d 947a d73d b9a9 a13e
00000360: 48c2 7a3d c6cc 7dbe 0cc0 c23d a8f4 1dbd
00000370: ecd0 c9bd d1a8 aa3e 6e41 7ebe a0f4 553c
00000380: fd00 873e 1a06 3a3e d8a4 07be 0782 a33e
00000390: 52be 3e3e 92fe 2b3e b850 7dbd 474a 973e
000003a0: ea2b 5a3e 488b 09be 4072 6d3d c003 a43b
000003b0: 0077 3f3c 708e 81be 47ba 97be 5667 13be
000003c0: 7ec7 8cbe fcb3 b83d 7655 fabd 1ed4 013e
000003d0: 5819 3a3d e078 93bd 98bf 33be 50e4 4dbe
000003e0: 84df 96be 1893 3c3d 40d4 ee3d 605e fc3d
000003f0: 9c86 cc3d e84b 26bd acda edbd 075b 8fbe
-0.29708713 -0.2032902 0.17458823 0.034053326 -0.17424282 -0.038892835 0.16868344 -0.026476175
0.25728568 -0.034405142 0.21697727 0.29555574 0.032490373 0.087979704 0.09467721 -0.23208141
0.08508518 0.12574169 -0.14790809 -0.09533453 -0.22992961 -0.0616239 0.041328788 -0.20990817
-0.069744915 0.29190466 -0.1143682 -0.20301485 0.31601313 0.040109277 -0.07888523 -0.0055499375
0.016645819 -0.29077858 0.1562104 0.027162194 0.055651397 0.017572254 0.22961596 0.08300713
-0.14115676 0.105841756 0.27011552 -0.11170225 -0.32033443 0.28111568 0.17750409 0.101037025
-0.3023966 0.047703624 -0.041449785 -0.28948218 -0.09482953 0.11676028 0.1425784 0.0701288
-0.3324121 -0.14508228 0.273169 0.07625711 0.2613404 -0.23620626 0.19039252 0.122020096
0.3180857 -0.10288386 -0.25933546 -0.116766214 0.18491295 0.22986397 0.24502459 -0.1448447
0.01725325 0.019768506 0.23335001 0.06866446 0.077180654 0.23670939 -0.28210032 0.28188053
0.081048846 -0.05659619 -0.14579813 0.2547544 -0.29112267 -0.11126575 0.03831163 0.28752664
0.22643366 -0.056356996 0.021191955 0.22406092 0.010004312 0.14558169 -0.04356873 0.15725079
-0.060578316 -0.19123742 -0.33049458 0.06753209 -0.10663864 0.09590709 0.1451439 -0.23587415
0.19427386 -0.31466484 0.27391568 0.037536383 0.20393267 0.22093126 0.17152885 -0.2846684
-0.09961335 -0.08304766 -0.22699726 -0.05515763 -0.22259602 0.30434516 0.14115432 0.19315562
-0.06038916 0.14249885 -0.23918359 -0.23306584 -0.119855806 -0.29359293 0.23846307 -0.3026076
-0.017264366 0.09359455 0.21972552 -0.103425235 0.16735438 -0.19642866 0.04667005 0.20880416
0.28595045 -0.18838386 0.32403925 0.21963057 -0.10161409 -0.047376186 -0.13739571 -0.120750666
0.18616536 0.033030957 0.12391725 -0.25184163 -0.254945 0.18133023 0.17384306 -0.27673456
-0.121922225 0.18558142 -0.03233412 0.28940073 0.2630377 -0.18766646 -0.25741085 0.31031623
-0.100878 -0.06798875 0.12774923 0.13685897 -0.018009216 -0.25621533 0.21347496 -0.22805917
0.04199472 -0.26578987 -0.19879024 0.05340302 -0.21601877 0.006878525 -0.23951738 -0.30405092
0.07050589 -0.051405042 -0.22649562 -0.09403345 0.29724863 -0.27005035 -0.13714895 0.31340936
-0.068457454 0.11207071 0.10191023 0.01751545 0.2560893 0.25775757 0.1871306 -0.04117748
-0.07577106 -0.06271613 -0.14245594 -0.22144791 0.32645985 -0.26823673 -0.27762792 0.27304295
-0.2177889 0.2611706 -0.2626412 0.24401799 0.18595585 0.12724856 0.022019476 0.045820236
-0.2575316 0.06814897 -0.30351454 -0.08590293 0.020227402 0.037578106 0.10521427 0.315748
0.061220437 -0.24785146 0.09509286 -0.0385634 -0.09854302 0.33331922 -0.24829647 0.013058811
0.26367941 0.1816639 -0.13246477 0.3193514 0.18627289 0.1679633 -0.061844558 0.29548857
0.21305814 -0.13432038 0.057970285 0.00500533 0.011686087 -0.25303984 -0.29634306 -0.14394888
-0.2749595 0.09018704 -0.12223332 0.12678573 0.045434326 -0.072007895 -0.17553556 -0.20106626
-0.29467404 0.046038717 0.11661577 0.12322688 0.09986612 -0.040599734 -0.11613974 -0.27999136

actor.0.bias f4 [32]
00000000: 484d 36be 2b86 9d3e 124a 713e 7820 9cbe
00000010: 2967 9b3e e2dc 463e 12c8 403e 5066 42be
00000020: 44d0 d13d 5cb8 b8bd f811 12bd 6885 33bd
00000030: 4671 32be cca7 883d 1b5f 43be 0807 453d
00000040: e8dc 1a3d 1224 503e 35c0 a23e 9479 aa3d
00000050: eb74 16be 0a7d 753e 600f 37be 3e58 603e
00000060: bbb7 823e 6aee 713e c0be e9bd 22b4 9abe
00000070: f6f3 fcbd 8094 11bb b0a3 c53c ba17 783e
-0.17802918 0.30766425 0.23563412 -0.30493522 0.30352142 0.19420198 0.18826321 -0.18984342
0.10244802 -0.09019539 -0.035661668 -0.043828398 -0.17426023 0.0667263 -0.19079249 0.04810241
0.03780833 0.2032626 0.31787267 0.083239704 -0.14693038 0.2397348 -0.17876959 0.21908662
0.255308 0.23626104 -0.11413336 -0.30215555 -0.12351219 -0.0022213757 0.024125904 0.24227801

actor.2.weight f4 [64, 32, 3, 3]
00000000: 2eb6 0ebd 1d55 353d ee18 d8bc e8b3 11bc
00000010: 3691 25bd 26d2 a63c 035e 183d d226 983c
00000020: de11 3ebd 80a1 983a 9cc8 d1bc e324 6c3d
00000030: 77e6 533d f823 56bd 2318 033d 05a4 e6bc
00000040: c64d 6fbd f090 0bbd 68bf c9bc 1158 263d
00000050: 49d9 41bd cf47 073d 2070 1fbd 43e6 1e3d
00000060: 8ad7 a13c 0ce3 15bd 3f7d 033d 4aeb c13c
00000070: 607e a93a b024 333b f052 2fbd 6656 ba3c
00000080: eb64 073d 0ea4 c93c 9cbb b8bc e961 333d
00000090: a0d1 07bc 201c d2bc bd8e 0d3d 01d9 10bd
000000a0: f2ab c83c 2010 edba 9ee6 c73c 62b2 2fbd
000000b0: 082f 38bd 0cd1 373c 71f2 4dbd 1981 0c3d
000000c0: dcfd 203c a98e 553d bc6e 4b3c ef1a 043d
000000d0: 5c9a 3abd cca5 453c 8749 2fbd 4802 39bc
000000e0: 8a61 a93c 6497 81bc a45b 4bbd 2c49 3dbc
000000f0: 003e ba39 58e1 d03b ed4c 433d 4445 713c
00000100: d82b 4fbc 2ae1 04bd 9bcf 133d 7513 143d
00000110: 3c99 513c 7783 703d 785d 993b 9139 3ebd
00000120: f0a2 03bc 70dc f1bb 1b51 023d a98e 053d
00000130: 726a 96bc d27b 21bd e0b6 eb3a ea26 a63c
00000140: 66a6 c1bc 2b17 0a3d 2a1a 8e3c dae0 a2bc
00000150: ef19 193d ee56 49bd 0bc0 14bd e6ac 3bbd
00000160: 43f0 01bd 8ae5 51bd e1d3 613d 699f 603d
00000170: ca1a 04bd 4a3a e63c 00b2 5abc 7662 813c
00000180: d4d4 25bc 387a 803b 0824 ad3b 6d2d febc
00000190: 1e81 fe3c 60ac b0bb a65d adbc e248 cf3c
000001a0: 7cc4 513c 6d03 0c3d 3e8f e1bc de1e a83c
000001b0: 12e6 56bd 6543 0a3d 4095 51bd 3869 9f3b
000001c0: 2349 543d 6218 b53c a4b2 58bd 05b4 2f3d
000001d0: 5897 dabc 6cde 6d3c 3697 0abd b68c 843c
000001e0: 5005 96bc 812b 32bd 84ac 24bd 7c4a 64bd
000001f0: 024c 25bd b7ca 2a3d 7a5a 92bc aba3 413d
00000200: 78e7 f8bb 4aeb 913c 4852 4fbc 39ba edbc
00000210: 69f6 183d 173f 13bd 28fc 10bc 7fd0 6dbd
00000220: 442e 2bbd f0a2 dabc 8930 67bd 18b7 c13b
00000230: 0bdb 2d3d 1641 803c 218a 393d d8b4 54bc
00000240: 4e40 b7bc 88eb fc3b a882 873b 6a99 863c
00000250: 10b2 7ebb 5b8e 4e3d 1938 473d 20ff 96bc
00000260: 480e 83bb 8e3f 41bd b073 24bd 3c94 29bd
00000270: 4469 d7bc faa1 94bc ba77 b33c 2357 0d3d
00000280: 8e8a a13c 76ba 57bd 00d9 66bd fc19 56bd
00000290: 4cde d7bc 9e98 f63c 6a9a 6dbd fccf f6bc
000002a0: dbc4 263d 2e67 a43c 5a1b a63c c595 193d
000002b0: 50af 27bd bcf7 453c de91 a6bc c516 2bbd
000002c0: 7674 e93c 4ca9 a3bc 1909 05bd 86da 863c
000002d0: 044b 153c b02f 31bd 7977 013d 1ad7 b23c
000002e0: e22c c33c 963f 963c 708a 49bd 2877 8e3b
000002f0: fb9c 6c3d e86a c63b 3560 4e3d 9988 1b3d
00000300: c28d be3c b52f 703d 81e8 613d d1de 2d3d
00000310: 19f6 4bbd a4d4 583c f98f 32bd 9ec8 3bbd
00000320: af74 133d 0fc6 4a3d 9d00 443d 5792 053d
00000330: 3571 2b3d f5ce 10bd a450 63bd 816d 1b3d
00000340: 4205 82bc 4a94 9e3c 5ab1 b33c 0bbc 063d
00000350: 62f5 c3bc 7768 1f3d 3874 8bbb 7ef5 c03c
00000360: 4160 5a3d 9b72 6a3d b025 82bb 0035 933a
00000370: f0e4 e4bc 387b 64bd 6e07 5abd f039 93bc
00000380: 384b 953b 2870 22bc 1e10 99bc 2983 093d
00000390: 786a 0dbd beec 1abd 25d3 673d b68e 3fbd
000003a0: a7d7 683d d869 5ebd 340f 33bc dc01 653c
000003b0: f792 093d 50b0 3abc af4f 4a3d 7bc0 1f3d
000003c0: 1bc2 0f3d 0526 123d 8843 80bc 661f 43bd
000003d0: 7af6 6fbd 5aa3 48bd 2097 05bd d8a1 a03b
000003e0: 2349 593d 285c 6abc d219 e93c c125 123d
000003f0: 44bf 143c 448d 4e3c ac2d 7bbc 609c 21bb
-0.03484171 0.044270623 -0.026379075 -0.008892991 -0.040421687 0.020363878 0.03719903 0.018573198
-0.04640376 0.001164481 -0.025608353 0.057652365 0.05173346 -0.052280396 0.03200544 -0.028154382
-0.05842378 -0.03407377 -0.024627402 0.04061133 -0.04732636 0.033027466 -0.03892529 0.038793813
0.019756097 -0.036593482 0.032101866 0.023671765 0.001293134 0.00273351 -0.042803705 0.022746276
0.033055227 0.02461436 -0.022550397 0.043794546 -0.008289725 -0.025648177 0.034559954 -0.0353632
0.024496052 -0.0018086471 0.024401959 -0.04289473 -0.044966727 0.011219274 -0.05028004 0.034302805
0.00982615 0.052138004 0.012416538 0.03225225 -0.045557365 0.012063455 -0.04279473 -0.011292048
0.020676393 -0.015819259 -0.049647942 -0.01155309 0.00035522878 0.0063745193 0.047680784 0.014725987
-0.0126447305 -0.032441296 0.03608666 0.03615137 0.012792882 0.058719125 0.004680332 -0.04644162
-0.008034453 -0.0073810145 0.03181563 0.032606754 -0.018361304 -0.039424725 0.0017983578 0.020282228
-0.023638915 0.0337135 0.01734646 -0.019882608 0.037378248 -0.04915517 -0.03631596 -0.045819186
-0.031723272 -0.051244296 0.055133704 0.054839525 -0.03225211 0.028103966 -0.013348103 0.01579402
-0.010121543 0.0039208196 0.0052838363 -0.03102752 0.031067427 -0.0053916425 -0.02116282 0.025303308
0.012803193 0.034182955 -0.027534124 0.020522531 -0.052465506 0.03375568 -0.051167727 0.004864838
0.05182756 0.022106353 -0.05290474 0.04289629 -0.026683494 0.014518362 -0.033835612 0.016180377
-0.01831308 -0.04349852 -0.040203586 -0.055735096 -0.04035569 0.04169723 -0.017865408 0.047275227
-0.0075959526 0.01781239 -0.012653895 -0.029019462 0.03734437 -0.03594884 -0.008849181 -0.058060165
-0.04179217 -0.026689023 -0.05644277 0.005911719 0.042445224 0.015656035 0.045297746 -0.01298257
-0.02236953 0.007718507 0.0041354485 0.016430575 -0.0038863458 0.05042873 0.048637483 -0.0184322
-0.003999505 -0.04717975 -0.04014939 -0.041401133 -0.026295312 -0.018143643 0.021907676 0.03450693
0.019719388 -0.052668057 -0.05635929 -0.052270874 -0.026351117 0.03010207 -0.05800859 -0.030128472
0.04071508 0.020068731 0.020276714 0.037496347 -0.040938675 0.01208299 -0.020333227 -0.04176976
0.028497916 -0.019978188 -0.03247938 0.016461622 0.009112123 -0.04325837 0.03160808 0.021831084
0.023825113 0.018340867 -0.04920429 0.0043477006 0.057766896 0.0060552247 0.05038472 0.037972067
0.023260955 0.058639247 0.055153374 0.042448822 -0.049795244 0.013234291 -0.043594334 -0.04584562
0.03599995 0.04950529 0.047852147 0.032610264 0.04185601 -0.03535362 -0.055496827 0.037946228
-0.015871648 0.01935782 0.021935154 0.032894175 -0.023920719 0.038917985 -0.0042557977 0.02355456
0.05331445 0.057238203 -0.003971778 0.0011231005 -0.027941197 -0.055781573 -0.05322974 -0.017971963
0.004556086 -0.009914435 -0.018684443 0.03357235 -0.034525365 -0.03782343 0.056597847 -0.04676696
0.056846287 -0.05430016 -0.010928918 0.013977494 0.033587422 -0.011394575 0.0493924 0.039001923
0.035097223 0.03568079 -0.015657201 -0.047637366 -0.058584668 -0.04898391 -0.032614827 0.004902106
0.053048264 -0.014304198 0.028454695 0.035680536 0.009078804 0.012606923 -0.015330713 -0.0024659857

actor.2.bias f4 [64]
00000000: bf8c 433d 00d6 02bd 40a3 1fbb e052 a9ba
00000010: 2050 573b b513 093d 997b 62bd a018 f5ba
00000020: 1af0 3dbd 6a37 67bd 7cfc 7f3c 82fc 9a3c
00000030: 5ae4 4abd 1266 fc3c 30ca 12bc fac3 04bd
00000040: 6cf5 633c bc2c 173c 15a1 4bbd b596 313d
00000050: 699e 123d fd64 5a3d cd9e 363d acc7 4a3c
00000060: 98e5 1cbd 206e 1d3b 0c49 2ebd 42f8 b7bc
00000070: de10 d9bc ca24 b33c bd80 63bd 4cc2 2cbd
00000080: 2cb6 38bc 55bb 5bbd 892f 0abd 8e10 843c
00000090: 9ef7 12bd 07be 0a3d 09de 2f3d 0670 50bd
000000a0: e5af 24bd 566a 23bd 0a5c e83c 021a 833c
000000b0: 38d0 983b 5df7 24bd 0e49 c5bc e0de 41bd
000000c0: d048 703b acdb 483c a6f8 863c c57b 6c3d
000000d0: 18f7 77bc 226b d03c 46d3 ff3c 13e7 343d
000000e0: 0516 193d 30b8 68bc 9376 4f3d 1080 253b
000000f0: 4d69 5a3d edd3 fbbc 6876 45bd b4b8 b0bc
0.047741648 -0.031942368 -0.002435878 -0.0012918375 0.0032854155 0.03346606 -0.055293653 -0.0018699355
-0.046371557 -0.05644933 0.015624162 0.018919233 -0.04953418 0.03081039 -0.008959338 -0.03241346
0.013913494 0.009226974 -0.049714167 0.043356616 0.035795603 0.053318966 0.044585038 0.012376707
-0.038304895 0.0024021938 -0.04255013 -0.022457246 -0.0264973 0.021868128 -0.055542696 -0.042177483
-0.011273902 -0.05364545 -0.03373674 0.016121175 -0.035880677 0.03387263 0.04293636 -0.050888084
-0.04020681 -0.03989633 0.0283642 0.016003612 0.0046634935 -0.040274967 -0.024082687 -0.04733169
0.0036664493 0.012259405 0.016475987 0.057735223 -0.015134595 0.02544171 0.031228673 0.044165682
0.037374515 -0.01420407 0.05065019 0.0025253333 0.05332308 -0.030740703 -0.048208624 -0.021572448

actor.4.weight f4 [128, 64, 3, 3]
00000000: 06a9 50bc 70e3 52bb 8a37 05bd 3004 56bb
00000010: de05 eb3c a29d 25bd 6397 afbc 6058 95bb
00000020: c0ab 6e3a 6005 29bd 9352 dabc 106f 88bc
00000030: 9e89 c23c 465a d5bc 80f0 ff3a 80ec daba
00000040: 00e6 be38 5ddb 183d 8088 d63a daf8 cb3c
00000050: b065 7ebb 0be5 d1bc eb06 0d3d 9898 8bbb
00000060: 00e2 86b9 3072 223c 97aa 15bd da68 b63c
00000070: 7aaf da3c 60f2 f3ba 8328 00bd 967d 5cbc
00000080: 9b61 26bd 5230 c13c 0b8a d6bc 93c5 bebc
00000090: b095 01bd 3628 e1bc 306b ecbc 0c24 0a3c
000000a0: 1aa6 f13c 32ca e93c 0fbf 233d 58cf d6bc
000000b0: 97db 05bd 5270 ea3c 50e3 58bb a0e0 e8bb
000000c0: c03f e9bb ae72 bebc 0631 b3bc e3f5 0bbd
000000d0: 26d2 d0bc c8b5 b23b f6c8 ce3c f9c9 033d
000000e0: 56d1 09bd 491e 0e3d f0cc 6d3c 2870 debb
000000f0: f0ec 36bb 3b28 ebbc 1816 a9bb c8f7 19bd
00000100: fc77 6fbc 1879 8fbc a0d1 b8bc 2073 d33b
00000110: 0030 21b7 8e83 ec3c 202f c0bc 5488 08bc
00000120: c3e9 f2bc ce21 94bc d8f8 903b fc88 5bbc
00000130: 7853 b1bb a2f4 e63c a4ee 593c 22bc c23c
00000140: ce5b ebbc 267b d9bc c8bc c9bb b6db 74bc
00000150: d906 0b3d 67e6 1c3d 4f9d 13bd 403e 75bc
00000160: 6a21 f33c 2ce8 003c 2e93 ebbc 6036 7cbc
00000170: 34c3 5f3c 4aeb a53c e221 b43c e560 173d
00000180: 063e eabc 5460 573c 7e09 953c b35e 17bd
00000190: 0c40 3e3c 82cc d73c 2c60 033c 48ae d0bb
000001a0: 2333 263d 7ba9 143d 08c5 ed3b 8c6b 2abd
000001b0: 2028 8ebb d86f edbc e427 6d3c 36aa e63c
000001c0: 5839 1bbd d344 8cbc fad3 873c d866 afbc
000001d0: 7cf0 343c 60ee a0bb f40c 133c 9ef4 b63c
000001e0: e96b 153d b821 a9bb 76e7 2cbc 48ce 12bd
000001f0: af87 0fbd d4ed 29bc 8055 f8bb 9e94 b03c
00000200: 4ecb 05bd 8ce3 1abc 1d10 253d 0cf5 20bc
00000210: c3e4 a7bc 588c fe3b a830 f7bb 00f6 adbc
00000220: 403c 76ba c8a8 1cbd 0098 b0ba 1c60 37bc
00000230: 8ecc 96bc 1073 903c 1b6b bdbc e829 adbc
00000240: 287f 9c3b a0d2 793c 33e5 003d 0bed 1abd
00000250: 65bb 233d 4956 123d aee5 bebc 1699 1dbd
00000260: 4054 793b 0865 a6bb 8d89 093d 7bac ffbc
00000270: 9d07 263d a20d eb3c 0444 023c 1339 efbc
00000280: 464f f2bc 8cc0 683c 769d 90bc 1646 a23c
00000290: 6233 f53c 5282 fc3c 4a60 eb3c aead 25bd
000002a0: 20b4 663c 90ff edbc 9e2f aa3c 40c8 353c
000002b0: f83a 913b 83f8 dcbc de43 e2bc f424 28bd
000002c0: 695c 153d a896 e1bb 2e29 d83c fc9f 02bd
000002d0: d08d 733b e4a8 10bc 000a 3d3b 40a7 9a3b
000002e0: b067 6cbb 9cf0 60bc 9c30 10bc d3b9 d7bc
000002f0: 0e8b 833c 283e f53b eec7 9a3c 56b9 d43c
00000300: 8671 ee3c a843 81bb 1bfc d9bc 1c3b 2bbc
00000310: 4070 693a 5e72 e83c 86f5 fdbc 5e62 01bd
00000320: f023 383c 2b2c cfbc 2059 29bd 6ffa 1f3d
00000330: 88d1 b9bc 96ef 3fbc 73a6 203d baa3 23bd
00000340: 3b21 a0bc 8f69 183d 2a93 1fbd 2e1a 873c
00000350: 10aa 98bc 8fe4 02bd d28b 973c a286 d73c
00000360: 164d 19bd f896 c13b dced 63bc 2314 bcbc
00000370: 1a4a f83c 1014 a43c 5182 283d 0669 2abd
00000380: 7686 a8bc f379 9fbc 160e abbc 9f55 013d
00000390: d8a9 17bd ce3e 8d3c a6d9 e4bc 46fd 79bc
000003a0: 60d0 d33b 76a3 cfbc c9d2 003d cd90 293d
000003b0: 4cc8 203c ff78 0a3d 8497 213c 78d3 f43b
000003c0: 4457 7d3c 40f8 77ba b2ea e73c 430c 88bc
000003d0: a0f3 d1ba 78f1 dfbc c0b6 fdbc 6241 f53c
000003e0: 51db 1e3d 26b7 e8bc 42d2 03bd 38a2 e3bc
000003f0: ce10 98bc df8e 003d fee8 e2bc a123 123d
-0.012735611 -0.003217902 -0.03252367 -0.0032656305 0.028689321 -0.040433533 -0.021434492 -0.0045576543
0.0009104572 -0.04126489 -0.026650703 -0.016654521 0.023747262 -0.026044022 0.0019526631 -0.0016702563
9.102747e-05 0.037318576 0.0016367584 0.024898935 -0.0038817935 -0.025621912 0.034430426 -0.004260134
-0.00025726855 0.00991492 -0.03653964 0.022266794 0.026695002 -0.0018611662 -0.031288635 -0.013457676
-0.040620428 0.023582611 -0.02618887 -0.02328757 -0.031636894 -0.027484994 -0.028859705 0.008431446
0.029498149 0.028538797 0.03997713 -0.026221916 -0.03268012 0.028618012 -0.0033094473 -0.0071068555
-0.0071181953 -0.023248043 -0.021873962 -0.034170043 -0.025490832 0.005453799 0.02524231 0.032175038
-0.033646904 0.03469685 0.014514193 -0.0067882724 -0.0027912222 -0.028705707 -0.0051601045 -0.03758982
-0.014616009 -0.017513797 -0.022560894 0.006452933 -9.607524e-06 0.028871324 -0.023459971 -0.008333284
-0.029652482 -0.018082526 0.0044241957 -0.013399359 -0.0054115616 0.028192822 0.013301525 0.02377135
-0.0287303 -0.02654798 -0.0061565377 -0.014944961 0.033942077 0.038305666 -0.036038693 -0.014968455
0.029679019 0.007867854 -0.028756704 -0.015393823 0.01365738 0.020253796 0.021988813 0.03695764
-0.028594028 0.013145525 0.018193003 -0.036955547 0.01161195 0.026342634 0.008018535 -0.006368432
0.04057611 0.03629444 0.007256154 -0.04160647 -0.0043382794 -0.028983995 0.014474843 0.028157335
-0.037896484 -0.017122662 0.01658057 -0.021411344 0.011043664 -0.004911229 0.008975256 0.02233344
0.036479864 -0.0051614903 -0.010553231 -0.035841256 -0.035041507 -0.010371644 -0.007578552 0.021555241
-0.03266459 -0.009453665 0.04029857 -0.009824049 -0.020494824 0.007768195 -0.007543642 -0.021235466
-0.0009393133 -0.0382469 -0.0013473034 -0.011192348 -0.018408086 0.017632991 -0.02312236 -0.021138147
0.0047759004 0.015247971 0.03146858 -0.037823718 0.039973635 0.03572682 -0.02330288 -0.038476072
0.0038044602 -0.005077962 0.033578444 -0.031210175 0.040534604 0.028693024 0.0079507865 -0.02920202
-0.029578816 0.014206063 -0.017653208 0.01980881 0.029931728 0.03082386 0.028732438 -0.040448837
0.014081031 -0.029052526 0.020774659 0.011095107 0.0044320785 -0.026973968 -0.027620252 -0.041050866
0.036465082 -0.0068844147 0.026386824 -0.031890854 0.0037163384 -0.008829329 0.0028845072 0.004719645
-0.0036072545 -0.013729241 -0.008800652 -0.026333725 0.016057517 0.0074842162 0.018894162 0.025967281
0.029106867 -0.003944833 -0.026609471 -0.0104511045 0.0008904971 0.028374847 -0.031000864 -0.03158795
0.011239037 -0.025289616 -0.04134476 0.03905719 -0.02268292 -0.011714837 0.03922124 -0.039951064
-0.019547096 0.037210044 -0.038958706 0.016491976 -0.01863578 -0.03195625 0.018499289 0.026309315
-0.03742703 0.0059078895 -0.013911691 -0.02295882 0.030308772 0.020029098 0.041139904 -0.041604064
-0.020571928 -0.01946733 -0.02088074 0.031575795 -0.03702721 0.017241862 -0.027935814 -0.015258139
0.006464049 -0.025346499 0.03145102 0.04139786 0.0098133795 0.033806797 0.009862784 0.007471498
0.0154627 -0.00094592944 0.028310154 -0.01660741 -0.001601804 -0.027336821 -0.030970931 0.029938404
0.038783375 -0.028407644 -0.03218294 -0.027787313 -0.0185627 0.031386252 -0.02769899 0.03567851

actor.4.bias f4 [128]
00000000: 28aa 8dbb 2bed a4bc 00c5 5b3b 2054 a63b
00000010: 2036 b7bc 40c2 5fba 78e3 e63b 52a9 f93c
00000020: b8f2 d8bb f8ee f8bb fb95 1dbd f4ce 07bd
00000030: 2ee4 c83c 5d2a 083d d0ca 12bb b86f eebb
00000040: ed93 193d 8aa4 d83c 9ea6 10bd a3b1 1bbd
00000050: 7194 0d3d 8091 6cbb 809a 903b c862 a13c
00000060: 101d 943c 0076 91ba c0c7 663a 428c 22bd
00000070: 6cc5 243c d6e2 f03c 2c68 27bc c311 1b3d
00000080: 26de 5cbc 69b9 163d 22c6 8a3c 804e 2e3b
00000090: e07d 2f3c 302b 44bb 9c5a 18bd b8d6 973c
000000a0: 8ede db3c af3a 163d 1b14 efbc 6a41 d53c
000000b0: 704a 7cbc 6ec4 803c 563f f9bc ad27 103d
000000c0: ae39 a83c 6396 b9bc e84e cfbb 10cb 78bb
000000d0: 55a7 063d 20be 69bc cc9d 173c 909c 633c
000000e0: aadc dd3c e392 cfbc 982f e93b 3a42 c43c
000000f0: 7b17 f3bc 2271 b83c 1426 483c 12f5 ba3c
00000100: c82a e1bb 8661 af3c e057 11bd 0015 06bd
00000110: a6bb e2bc b8e7 c73b 7bb3 a0bc 0095 40bb
00000120: 60a6 5bbc 6eeb f0bc 804a b2bc 72b9 893c
00000130: 96a1 d13c b000 123c 8472 573c a0c2 323c
00000140: e234 c33c aa1e c33c 7b3b 19bd 99f4 013d
00000150: 0089 663a c8d0 b7bb fba2 b5bc 3b07 dbbc
00000160: 3f89 1ebd b091 a83c 2800 07bd ee76 bb3c
00000170: 4602 ddbc ae02 d63c 22de eb3c bb42 23bd
00000180: 12c4 d23c 1bda b0bc 3cbb 73bc 008e e0b9
00000190: 8972 1c3d 537d babc b4a9 693c 6ad7 22bd
000001a0: 4038 21ba 2a49 a93c 1e08 b73c 0609 8cbc
000001b0: c815 be3b 4ed7 16bd a5a6 203d 4b6e 29bd
000001c0: eceb 22bc c90f 113d 4009 bdbb 1922 073d
000001d0: fc26 5cbc 821d d93c 0205 953c 4575 283d
000001e0: a453 783c 6056 813c acf0 073c 064d ebbc
000001f0: 5815 e9bc a870 efbb b02c f0bc 14f9 013c
-0.0043232627 -0.020132622 0.003353417 0.0050759465 -0.022364676 -0.00085357204 0.0070461594 0.030476246
-0.006620731 -0.0075968467 -0.03847311 -0.03315635 0.024522867 0.033243526 -0.0022398718 -0.0072765015
0.03749459 0.026445646 -0.03531515 -0.038011204 0.034565393 -0.0036097467 0.004412949 0.019700423
0.018080264 -0.0011097789 0.0008803569 -0.03968454 0.010056835 0.029405039 -0.010217708 0.037858736
-0.013480699 0.036797915 0.01694018 0.0026597083 0.010711163 -0.0029932968 -0.037195787 0.018535003
0.02683952 0.03667706 -0.029184392 0.026032168 -0.015398607 0.015718665 -0.030425709 0.035194088
0.020535316 -0.022654718 -0.006326545 -0.0037962832 0.032874424 -0.014266521 0.00925393 0.013892308
0.02708276 -0.025338596 0.0071162693 0.02395736 -0.029674282 0.022514883 0.01221611 0.022821937
-0.006871555 0.021408807 -0.035484195 -0.03273487 -0.027677368 0.006100621 -0.019616833 -0.0029385686
-0.013406366 -0.029409137 -0.02176404 0.01681206 0.025589745 0.008911297 0.013149861 0.01091066
0.023828927 0.023818333 -0.03741024 0.031727407 0.00087942183 -0.0056096055 -0.022172442 -0.026736846
-0.038705107 0.020577282 -0.032959133 0.022883859 -0.026978623 0.026124325 0.028792445 -0.03985856
0.02572826 -0.021588376 -0.014876183 -0.00042830408 0.038195167 -0.022764837 0.014261652 -0.039756216
-0.00061500445 0.02066477 0.022342738 -0.017094146 0.0058009364 -0.036826424 0.039221425 -0.04136495
-0.0099439435 0.035415445 -0.005768925 0.032991502 -0.013437029 0.026503328 0.018190864 0.041127462
0.01515666 0.015788257 0.008297127 -0.028723251 -0.02845256 -0.007307131 -0.029318184 0.00793292

shit.0.weight f4 [256, 128]
00000000: 25ef 4ebd a0c0 45bd 16bd 383d 9558 93bd
00000010: 18c1 2dbd c766 23bd 4cbe b23c 4238 7d3d
00000020: 00a0 2bba 5ccf 883c f1ba a13d 6114 af3d
00000030: 5096 363c 95a8 8f3d 7168 843d bc85 f73c
00000040: 3244 e3bc 50ef f3bb af61 9c3d 2226 183d
00000050: 78ff 5ebc 0209 4f3d c074 a8bd 9ed8 493d
00000060: af96 813d d801 7d3c d535 32bd 709c b63c
00000070: c3b4 a8bd f676 a4bd 7e4f 663d abb5 b33d
00000080: 47b7 1dbd c7b3 38bd 4ad7 09bd 3f80 a23d
00000090: d105 32bd 204d 77bc b17c 29bd ccd5 60bd
000000a0: 1022 763c ad4c 9bbd b09a 92bb 805d ff3c
000000b0: 4be7 45bd 10c5 a3bc 10dc 0f3d 6883 01bd
000000c0: 504c f2bc 404f bfba 1e56 043d 0c03 33bd
000000d0: 3210 18bd 665e 7cbd ca99 703d fef3 03bd
000000e0: a947 1ebd ab15 a13d e80c 023d 61ac 5bbd
000000f0: 3fa5 54bd 1319 923d 8c83 e3bc aa49 483d
00000100: b154 ae3d e02f 7fbb e386 af3d e1ec a93d
00000110: 7ec4 4fbd 88eb 593c 400f c9bb 4cf0 00bd
00000120: b270 4cbd 7cb6 8bbd 0cc8 cd3c 185c 203c
00000130: 5bde 803d 724a 383d b9b9 9f3d aa91 4d3d
00000140: f510 9abd 18ea 94bc 70d3 0fbd 3d4d 8b3d
00000150: c0a4 47bb e824 9cbc f655 f3bc 367c 523d
00000160: fd0c 933d 70d5 2abd ac98 0d3d 8d8b 843d
00000170: c021 e63c bbfb 9e3d 3d6e 8b3d 8076 52ba
00000180: 2e20 8ebd c54a 8d3d 04cb 82bc 86a2 6ebd
00000190: 44b0 8cbc e4e5 943c 904b d8bc 4857 8ebc
000001a0: ee13 a9bd 7089 3fbc 7ac6 72bd faae 76bd
000001b0: 213d 6cbd 7124 b23d 7a90 a5bd 8224 743d
000001c0: 285a 65bd 759c 923d 2623 47bd ad81 943d
000001d0: 482e 683c a25c 2c3d e004 cfbc 53f9 88bd
000001e0: 562c afbd 727a 313d 8714 983d d14a 62bd
000001f0: fc2b aabd 2636 9bbd f9d7 833d 30d5 7bbd
00000200: a9b4 ac3d 692b 93bd f38c 88bd 80c1 bd3b
00000210: 369e 01bd 77b0 9c3d bfb6 ac3d 189e 6f3c
00000220: 356b b33d 9f17 a4bd f9cf 8a3d 4883 193c
00000230: 4f9a 823d 71b0 973d eb85 b43d 6aac 1d3d
00000240: a9b8 60bd 70a1 86bd 8824 8fbc 86a2 e8bc
00000250: 4e80 1c3d 6698 2bbd 84c0 97bd 6dcd 67bd
00000260: ea4e 063d 9fdc 993d d0d1 adbc 3ed4 8dbd
00000270: 9918 a23d 77f2 4bbd 87b9 a93d 7879 443c
00000280: 8001 dbba 08c1 1f3c ceb7 2f3d 06e3 80bd
00000290: f2e9 423d 8a33 673d c1b1 5abd b482 df3c
000002a0: 4b30 0dbd 83b1 803d 38e2 ff3c 3ebe 77bd
000002b0: 229c 79bd b8e8 1a3c a274 273d a0d5 353c
000002c0: f07d 083c 324f 793d e412 e3bc 0540 adbd
000002d0: c753 933d e0a9 f63c 8850 0f3d cf14 a43d
000002e0: 8f1b 85bd a245 573d 60f1 7d3c 7d06 a13d
000002f0: 00cf 3abb f254 73bd 30a1 cc3c 52eb 463d
00000300: a0b2 eabb 1e3b 92bd 6ca8 c73c 56ea acbd
00000310: 5e60 373d a4db 98bc 57b0 5abd a4fb 8c3c
00000320: 2c51 9fbd 7e85 a0bd c596 a5bd c3e7 b0bd
00000330: 205f 193c 9287 7b3d 9dd0 8d3d 7004 983c
00000340: e216 a9bd 4494 df3c afad 893d 1c29 a2bd
00000350: daa7 1e3d ee24 773d 1089 d43b d25b 493d
00000360: 38f1 0b3c e0d9 1d3b 0097 553b a6f0 5b3d
00000370: f057 e5bc b9f3 41bd ba78 7e3d 1876 ebbc
00000380: ca5f 1e3d 1882 8bbd c095 f23b 4288 05bd
00000390: 2841 3d3c 686f 83bc 844b c5bc d1bb 8b3d
000003a0: 946b 33bd b062 f4bb a8df 81bc 213c 8a3d
000003b0: 30e0 b4bb 1683 8abd d0fe b0bc 3695 89bd
000003c0: a20c a5bd e026 debc dc9f 003d 2f87 a83d
000003d0: 8e06 7cbd 08c8 86bd 9f9b a5bd 5150 943d
000003e0: fe93 f7bc e8c1 83bc ae66 7f3d b178 933d
000003f0: c846 5c3c 604a 113b 4446 aabc 28e3 033c
-0.050521035 -0.048279405 0.0451022 -0.0719463 -0.042420477 -0.039892938 0.021819256 0.06182123
-0.0006546974 0.01670044 0.07896984 0.08548809 0.011144236 0.07014576 0.06465233 0.030215137
-0.027742479 -0.0074442998 0.07635819 0.03714574 -0.013610713 0.0505457 -0.08225393 0.049278848
0.06327569 0.015442334 -0.04350837 0.022291392 -0.082376026 -0.080305025 0.056228153 0.08774885
-0.038504865 -0.045093324 -0.03365258 0.07934617 -0.04346258 -0.015094072 -0.04137868 -0.054891393
0.01502277 -0.07582984 -0.0044740066 0.031172514 -0.04831628 -0.019991428 0.035121977 -0.03161946
-0.029577404 -0.0014595762 0.03230869 -0.043704078 -0.03712482 -0.061613463 0.058740415 -0.03221511
-0.03864256 0.07865461 0.03175059 -0.05363119 -0.051915403 0.07133689 -0.027772687 0.048898377
0.08512247 -0.0038938448 0.085706495 0.08297134 -0.0507245 0.013300784 -0.006135851 -0.031479165
-0.049912162 -0.068219155 0.025119804 0.009787582 0.06292411 0.04499287 0.07799096 0.050187744
-0.075227655 -0.01817803 -0.035113752 0.068018414 -0.003046319 -0.019060567 -0.029704075 0.051387988
0.07180212 -0.041707456 0.034569427 0.0647193 0.028092265 0.077628575 0.06808136 -0.0008028522
-0.069397315 0.06899027 -0.015965946 -0.058260463 -0.017173894 0.018176027 -0.026403219 -0.017375603
-0.082557544 -0.0116904825 -0.059271313 -0.060225464 -0.057675485 0.08698357 -0.08084197 0.05960513
-0.055994183 0.07158748 -0.048617505 0.07251296 0.014171191 0.04208053 -0.02527088 -0.0668818
-0.08553378 0.043329664 0.0742579 -0.05524713 -0.083091706 -0.07578687 0.06437678 -0.06148261
0.08432896 -0.07186014 -0.06667509 0.0057908893 -0.031645022 0.076508455 0.084332936 0.014625095
0.087606825 -0.08012318 0.06777949 0.009369679 0.06377088 0.074067004 0.08814605 0.038494505
-0.054863606 -0.065737605 -0.017473474 -0.02839781 0.0382083 -0.041893385 -0.07409766 -0.056592394
0.032790102 0.07512783 -0.02121821 -0.069252476 0.07914848 -0.04979178 0.0828734 0.011991851
-0.0016708821 0.009750612 0.0428999 -0.06293301 0.04758639 0.056445636 -0.053392176 0.027284004
-0.034469884 0.06283858 0.0312358 -0.060484163 -0.060939915 0.009454899 0.040882714 0.011098295
0.008330807 0.060866542 -0.027718969 -0.084594764 0.07193714 0.0301103 0.03498891 0.080117814
-0.06499397 0.05255664 0.015499443 0.07862566 -0.002850473 -0.059407182 0.024979204 0.048564263
-0.007162407 -0.07140182 0.024372302 -0.084431335 0.044769637 -0.01865942 -0.053390827 0.017209835
-0.07779154 -0.078379616 -0.08085398 -0.08637955 0.0093610585 0.061408587 0.069245555 0.018556803
-0.08256318 0.027292378 0.06722581 -0.07917997 0.038734294 0.060337953 0.0064860657 0.049159832
0.008541398 0.0024086162 0.0032591224 0.053696297 -0.027996033 -0.047351573 0.062126853 -0.028742835
0.03866557 -0.06811923 0.0074031055 -0.03260065 0.011551179 -0.016044334 -0.02408386 0.068229325
-0.043803766 -0.0074580535 -0.015853718 0.0674975 -0.0055198893 -0.06763284 -0.021605879 -0.06717913
-0.0805905 -0.027118146 0.031402454 0.08228909 -0.06152969 -0.06581122 -0.08086323 0.07241882
-0.030221935 -0.016083673 0.062353782 0.072007544 0.01344461 0.0022169575 -0.020785458 0.008049764

shit.0.bias f4 [256]
00000000: 3011 7c3c 3b54 9f3d aacd 84bd 6677 ffbc
00000010: 29d7 b43d 4694 153d efcd 5fbd 3886 b53c
00000020: 0072 7d3b d66e a7bd f616 6c3d 8a18 febc
00000030: 1ef6 59bd aada 6c3d a2a2 e8bc 57f7 a9bd
00000040: cc18 af3c 71b0 833d 8042 e33a 184d 263c
00000050: bd98 983d b80d f1bc 40fe caba a4c8 9ebd
00000060: 526e 063d a377 17bd 802f 8aba 7677 19bd
00000070: 3ead f0bc 527b 623d b075 723c 6b6d 30bd
00000080: 3bde ad3d 1717 9d3d 1a48 693d d375 85bd
00000090: f6a2 283d 8e7a 34bd 449f f23c c7d1 a23d
000000a0: b8f8 febc 9280 193d c051 7a3b 30de 98bc
000000b0: 9f18 a5bd 0901 8c3d 7cd7 bf3c d2b4 463d
000000c0: 7cad c63c 4e32 163d 686c 55bd 2c39 a03c
000000d0: dcdf aebc 4b60 9f3d 7b44 a63d 2688 3d3d
000000e0: 0cb3 b7bc c0d2 cf3a ec9e 9bbd 0dd5 a73d
000000f0: 3061 e83c fa86 5a3d b93a 8f3d b425 973c
00000100: 3207 663d 0031 143a ef0b 93bd b5da a83d
00000110: 8bab 873d 2898 a7bd 271c 8f3d 4c8c 0a3d
00000120: 32fe 1c3d 40e9 f2bb e25b 333d b658 443d
00000130: cc6a a33c 2bc6 aabd 1783 5dbd c272 473d
00000140: 1a98 a4bd a0b4 3f3b 9ac2 703d e8b0 bf3c
00000150: f07c de3b c785 a5bd 12ea 373d 123d 7cbd
00000160: eed1 5c3d 86ef 513d 08dd 7ebd cbce a03d
00000170: 62c8 213d 645a a63c 18e9 043d 8692 723d
00000180: e8a1 b43c 6285 7ebd be0b 2c3d 00e4 c339
00000190: 0a72 dbbc 0835 a4bc c676 a9bd 76ec 233d
000001a0: 3cf5 b53c a84a 723c 38e0 263c 58df 18bd
000001b0: 5087 46bc 71bd ac3d 00fb 84ba c366 963d
000001c0: c047 aabd f56c 14bd c8e6 443c 189c 72bd
000001d0: 5a58 5e3d 00c6 27b9 aa70 1e3d 3b64 ad3d
000001e0: aa08 423d cfa4 b1bd ae89 7d3d 488c 58bc
000001f0: d51e 14bd 8896 12bd 22b9 69bd d059 1cbc
00000200: 5327 93bd e276 8abd a0d5 d3bc bc50 0e3d
00000210: 8cdf f6bc ba5c 99bd 7d1a aa3d d8aa 5fbc
00000220: 10fa ab3c 6435 ea3c 250e 82bd 60bc fe3b
00000230: d594 51bd cc5c febc b07f 043c c4bb 9fbd
00000240: 8086 963a 4646 30bd c316 a63d ed25 14bd
00000250: 9c66 69bd 9ae7 2cbd 9d8f a53d 460d 9dbd
00000260: 0a12 f7bc e052 c3bc ee7d 053d 8036 9ebc
00000270: 54e1 81bd 1041 d5bb 8c8a cbbc fd6f 813d
00000280: d0be 073c b45f 0d3d e008 083d 2b30 98bd
00000290: 9170 943d 0013 e93a 6a4a 283d 9218 3d3d
000002a0: 10f1 85bd 2960 953d 1843 96bd b5fb aa3d
000002b0: 6666 653d e053 a0bd ce79 5ebd 5826 9cbd
000002c0: e232 263d 898c 53bd 6714 843d 8e98 40bd
000002d0: 22ad 3e3d 80cc 34ba f2bc 4a3d 0c9e b3bd
000002e0: 6644 7e3d 9ab9 643d a09b 6f3c 24f5 71bd
000002f0: 679a aa3d fcd2 fc3c e274 473d 30b6 88bd
00000300: 9982 a83d d06b dc3c 9e54 18bd b544 903d
00000310: cb5e 16bd c03c d2bb 9919 823d a84f 53bd
00000320: 4c73 60bd eaeb 063d 8876 e83c b26e 023d
00000330: 6a61 303d f857 98bc bb77 12bd 5c5f a1bc
00000340: d3ae 933d 594f a33d 5aa9 39bd 3de8 66bd
00000350: c0d9 6abb 03f2 8d3d da13 68bd 80f0 67bb
00000360: 8a02 253d 226c 24bd 06b3 6dbd eafd 313d
00000370: fb4c 21bd 6389 933d 7341 ae3d e83a 40bd
00000380: 53a0 05bd 50d8 963c b99f 973d c0bf c1bb
00000390: d8a7 34bc 5442 fe3c bc32 fcbc de20 a0bd
000003a0: 7225 363d 05c9 923d 540d ef3c 627c 2c3d
000003b0: 0082 e33c ec54 76bd 8fd0 893d 40aa 033b
000003c0: e0ab 523b 77e8 0cbd 24e3 f23c 7f72 9c3d
000003d0: aa38 563d 5c82 07bd 08fc 873c c03e d03b
000003e0: a44b 71bd 5225 543d e8eb 2fbd 1e06 53bd
000003f0: cf0e a83d d4d0 9cbd c44d d0bc 1d57 68bd
0.015384957 0.077797376 -0.0648454 -0.031184863 0.08830101 0.036518358 -0.054639753 0.022158727
0.0038672686 -0.08175437 0.057639085 -0.03101756 -0.05321323 0.05782572 -0.028397862 -0.082991295
0.021374129 0.06430138 0.0017338544 0.0101502165 0.074510075 -0.029425487 -0.0015487149 -0.07753113
0.032820053 -0.03697933 -0.001054272 -0.037467442 -0.029379483 0.05529339 0.014798567 -0.0430731
0.08489653 0.0767042 0.056953527 -0.06516614 0.041171037 -0.04406219 0.02961696 0.07950168
-0.031124458 0.03747613 0.00381957 -0.018660635 -0.08061337 0.06836135 0.02341818 0.048512287
0.024252646 0.036669068 -0.052105337 0.019558512 -0.021346979 0.07782038 0.0811853 0.04627242
-0.022424243 0.0015855655 -0.07598671 0.08194933 0.028366655 0.05335138 0.06993622 0.018450595
0.056159206 0.00056530535 -0.071800105 0.0824484 0.06624516 -0.081833184 0.069877915 0.033825204
0.038328357 -0.0074130595 0.0437888 0.047936164 0.019948386 -0.08338579 -0.054080095 0.048693426
-0.080368236 0.0029251948 0.058779337 0.023399785 0.006789796 -0.08082157 0.04490096 -0.06158168
0.053911142 0.051253818 -0.06222251 0.07851943 0.03949774 0.020306773 0.032448858 0.059221767
0.02204986 -0.062138923 0.042003386 0.00037363172 -0.026787776 -0.020044819 -0.08274607 0.04002043
0.022211663 0.014788307 0.010185294 -0.037322372 -0.012117222 0.084345706 -0.0010145605 0.07343819
-0.083144665 -0.036236722 0.012017913 -0.059230894 0.054283477 -0.00016000122 0.038681664 0.08466383
0.047371544 -0.08674013 0.06189888 -0.013217039 -0.036162216 -0.03578809 -0.057061322 -0.009542897
-0.07185235 -0.06760956 -0.0258587 0.034744963 -0.030135892 -0.07488389 0.083058335 -0.013651572
0.020993263 0.028589912 -0.06350354 0.007773921 -0.051167328 -0.031050108 0.008087084 -0.07799485
0.0011484176 -0.043035768 0.0810981 -0.03616898 -0.05698262 -0.04221306 0.08084033 -0.07668547
-0.030159969 -0.023843229 0.0325908 -0.019313097 -0.06341806 -0.006508 -0.024846338 0.06320188
0.008285239 0.034515098 0.03321159 -0.07431062 0.07248033 0.0017782152 0.04108659 0.04616601
-0.0654012 0.07293732 -0.07337016 0.083487906 0.056005858 -0.07828498 -0.05431538 -0.07624501
0.04057587 -0.051647697 0.06449204 -0.047020487 0.04655183 -0.0006896928 0.0494966 -0.087703794
0.06207695 0.055841066 0.014624506 -0.059071675 0.08330231 0.030862324 0.048695453 -0.066753745
0.082280345 0.026906878 -0.037190072 0.07044355 -0.036711495 -0.0064159334 0.063525386 -0.051589638
-0.054797456 0.03293983 0.028376833 0.03184385 0.04306165 -0.018596634 -0.035758715 -0.019698791
0.072110794 0.07974119 -0.04532752 -0.056373823 -0.0035835356 0.06930926 -0.056659557 -0.0035391152
0.040285625 -0.040142186 -0.05803206 0.043455042 -0.039380055 0.07203939 0.08508577 -0.046931177
-0.0326236 0.018413693 0.074035116 -0.005912751 -0.011026345 0.031037487 -0.03078591 -0.07818769
0.044469304 0.07167248 0.02918116 0.04211081 0.02777195 -0.06013958 0.067292325 0.002009049
0.0032145903 -0.034401383 0.029649325 0.07639026 0.052300133 -0.033083305 0.01659967 0.0063551366
-0.058910027 0.051793404 -0.042949587 -0.051519506 0.082059495 -0.07657018 -0.025427707 -0.056723703

shit.2.weight f4 [128, 256]
00000000: f8b7 cdbc e07f 163c 2092 513c d243 2bbd
00000010: a0c6 413b 5092 303c 7495 43bd 16ee 54bd
00000020: 3003 bfbb 3497 d7bc 1a54 3dbd b879 e6bc
00000030: facc 143d 242f 703d 268c 13bd 645f 3fbd
00000040: e217 04bd 8892 30bd c0d4 36bb 8cff 88bc
00000050: 0018 23bb 40ab 44bb c037 e63c 905f 76bc
00000060: 84d0 e0bc 84c2 373d 0002 87b9 0c8e 403d
00000070: 3a8e 783d 8039 1c3d 407f b3bc d028 9d3c
00000080: 74b2 7d3d ba8f 73bd 429b 0abd 4020 83ba
00000090: e2d7 7cbd 1c6a 0a3d b09c 40bd 2c80 b0bc
000000a0: 38a9 173c 803d d43c 2caf 5f3d a0b1 97bb
000000b0: c6d0 473d 2cc0 e6bc 206c 0bbd e895 1a3c
000000c0: d4b2 3ebd fc3a 0cbd ac86 20bd 6eb4 31bd
000000d0: cc62 8e3c 40b7 e7ba 3eb4 163d 5287 39bd
000000e0: 584b e6bc 1e04 5a3d 5062 52bd e06e cabc
000000f0: 3232 45bd b67b 763d c82e 20bc 54f1 4cbd
00000100: 444a 103d 0acd 553d f437 403d 0a8c 4e3d
00000110: d833 e2bc c657 66bd 94ea 67bd a2a6 65bd
00000120: a8e7 dabc 7094 3b3c d09f 72bc 3cb4 53bd
00000130: be24 3a3d 0045 55bd 6caf 2bbd 3085 38bd
00000140: a06e 1fbb 387a 49bd 9cd7 a33c 2498 0dbd
00000150: 00ca b7bc 0c01 4e3d 54f8 e7bc 7adf 32bd
00000160: 122a 603d 243f 333d de8b 6dbd bec1 303d
00000170: 5432 223d 588c fbbc daf2 343d 0869 37bd
00000180: e0f9 b7bb 2c80 1cbd 961f 53bd 10dd 0c3c
00000190: b4e3 f6bc 58f5 58bc 1476 8a3c a42d a63c
000001a0: 28fc 7ebd b2c9 52bd f0c9 953b 643c b2bc
000001b0: c425 c73c e42d 013d 903e 5ebc 0047 723b
000001c0: 4456 ccbc 4c37 a5bc e046 08bb 487f 13bc
000001d0: 00d2 12ba 18f6 183c fc5d 7fbd 987d 803c
000001e0: 4030 343b 488d 6dbc a051 273b a0f3 a43b
000001f0: 28f1 ebbc 4220 49bd b0d1 2ebd 4416 a73c
00000200: b882 41bc c255 373d 427b 1b3d 300d ecbb
00000210: 58bf 46bd c2bd 38bd 4095 6d3c 546b 383d
00000220: 3e61 613d f06c 0a3c 7af0 38bd f89c 01bd
00000230: cca7 0c3d 0855 e73c 74ac 23bd 10e8 fbbb
00000240: bac1 1bbd 9a53 0ebd ca08 3e3d ac60 f8bc
00000250: a096 243b ac5f 03bd fc03 f0bc e0e6 dfbb
00000260: 20d1 593b 40bf c5bb 7829 6e3c 1cbf ecbc
00000270: 8817 743c 9877 61bd 50cc 4ebd ee23 3bbd
00000280: 52e9 0b3d c05a f53a 0c6e 153d 1453 29bd
00000290: 5034 2f3c 0cc1 393d 426f 1e3d 483c 8dbc
000002a0: 80fa 7ebd 4019 703c 3a56 0d3d fa4f 4abd
000002b0: 8876 c1bc d0cd 19bd a82b 6dbd 08d6 78bd
000002c0: 3a87 73bd 0068 ee3b 8e2a 123d 004c 953b
000002d0: 76a9 3b3d 9858 f9bc b412 333d 08eb 00bc
000002e0: e05e 1b3c 58ca 62bd 0c6e bc3c 7c08 ebbc
000002f0: 76a5 0e3d 8887 ad3c b8bc cebc b0ad eb3c
00000300: 84c5 823c 5a4c 073d 368a 643d be6e 693d
00000310: 84d1 93bc c089 4f3c 70dc 2e3c e21b 24bd
00000320: a89d 033c 0079 afbc 20aa 25bb 5cc9 6cbd
00000330: 72dc 5cbd 9877 6a3c 8289 1cbd 3cca acbc
00000340: a837 083c 50e7 a03c 80f2 9abc 4cd9 1ebd
00000350: 20d2 cb3c 6ac3 3bbd 26bc 1a3d 0ecc 3b3d
00000360: 0451 4a3d 68ef 1c3d 1c77 f23c 2e56 15bd
00000370: 281b 67bc d8a7 36bc 54a2 5f3d 9aca 3dbd
00000380: b82b 53bd d8f1 a93c b6e6 7dbd 0868 d5bc
00000390: fc04 a33c d8a8 ea3c 2072 693b ba36 51bd
000003a0: 0656 5ebd 201b 573c ce6e 143d 2878 993c
000003b0: 880b 2a3c 88f3 48bc 98ba c53c 86ee 2abd
000003c0: 3a13 093d 14d7 e53c a849 773d 085a 73bd
000003d0: 0094 5c3b 980a 1b3c 7093 013c 38d7 f03c
000003e0: b807 1f3d c0c6 a23a 0cdd 06bd 0ccd d1bc
000003f0: 90c0 03bd e421 7c3d c88a cfbc da87 28bd
-0.025112137 0.009185761 0.012791187 -0.041812725 0.0029567853 0.010777071 -0.04774995 -0.05198487
-0.0058292374 -0.026317216 -0.046222784 -0.028134212 0.036328293 0.058638707 -0.036022328 -0.04672183
-0.03224934 -0.043108493 -0.0027897805 -0.016723417 -0.0024886131 -0.00300093 0.028102756 -0.015037432
-0.027443178 0.04486324 -0.00025750697 0.047010466 0.060682513 0.038140774 -0.021911263 0.0191845
0.061937764 -0.05946324 -0.03383947 -0.0010004118 -0.06172932 0.0337926 -0.04702443 -0.021545492
0.0092566535 0.025908232 0.054610416 -0.004629329 0.048783086 -0.028167807 -0.034038663 0.0094351545
-0.046557263 -0.03423594 -0.039190933 -0.04338496 0.017381094 -0.0017678514 0.036792986 -0.045295067
-0.028112099 0.053226583 -0.05136329 -0.024711072 -0.048143573 0.060176574 -0.0097767785 -0.050034836
0.035227075 0.052197494 0.04692836 0.05042652 -0.027612612 -0.05623605 -0.056620196 -0.056067117
-0.02672179 0.0114489645 -0.01480861 -0.051685557 0.045445196 -0.052067757 -0.041915342 -0.045048892
-0.0024327412 -0.049188823 0.020000271 -0.03456892 -0.022435188 0.050293967 -0.028316654 -0.043670155
0.05472762 0.043761387 -0.057994716 0.043153517 0.039598778 -0.03070657 0.044176914 -0.0447779
-0.005614504 -0.03820817 -0.051543795 0.008597627 -0.030137874 -0.013242088 0.016902007 0.020285435
-0.062252194 -0.051461883 0.004571192 -0.021757312 0.02431 0.031537905 -0.013564721 0.0036968589
-0.024943478 -0.02016797 -0.0020794198 -0.009002514 -0.00056007504 0.009336017 -0.06234549 0.015684888
0.002749458 -0.014499016 0.002553083 0.005033925 -0.028801516 -0.04910303 -0.042680442 0.02039636
-0.011810951 0.04475952 0.037959345 -0.0072037205 -0.048522323 -0.045102842 0.014500916 0.04502423
0.055024378 0.008448824 -0.04515121 -0.031643838 0.03433971 0.028238788 -0.039959386 -0.007687576
-0.03802655 -0.034747697 0.0463951 -0.030319534 0.0025114194 -0.03207366 -0.029298775 -0.0068329424
0.003323622 -0.0060347617 0.014536254 -0.028899722 0.014898188 -0.055045694 -0.050487816 -0.045688562
0.03415806 0.0018719062 0.036481902 -0.041338995 0.010693625 0.04535012 0.038680322 -0.017240658
-0.062250614 0.014654458 0.03450606 -0.049392678 -0.02361609 -0.037549794 -0.057902962 -0.06075099
-0.059455134 0.0072755814 0.035685115 0.004556179 0.045815907 -0.030437753 0.04371901 -0.007868536
0.009483069 -0.05536875 0.023001693 -0.02869057 0.034825765 0.02118279 -0.025236472 0.028769344
0.015963323 0.0330318 0.05579587 0.056990378 -0.01804424 0.0126671195 0.010672674 -0.040065654
0.008033194 -0.021420002 -0.0025278404 -0.05780922 -0.05392117 0.01431074 -0.038217075 -0.021092527
0.008314051 0.019641548 -0.018914461 -0.03878145 0.024880469 -0.04584066 0.03777709 0.0458489
0.04939367 0.038314253 0.029597811 -0.03645914 -0.014105596 -0.0111484155 0.054598168 -0.046335794
-0.051555365 0.020745203 -0.0619876 -0.026050583 0.019899838 0.028644964 0.0035621002 -0.051077582
-0.054281257 0.013129026 0.036238484 0.018734053 0.010378726 -0.012265094 0.024136826 -0.04173138
0.0334656 0.028056659 0.06037298 -0.059412032 0.003365755 0.009462975 0.007908687 0.0293995
0.03882572 0.0012418851 -0.03292565 -0.02561047 -0.032166064 0.061555758 -0.02533473 -0.041145183

shit.2.bias f4 [128]
00000000: d85b 313d f08b cc3c acaa 87bc c0c8 11bd
00000010: 20eb 1e3b 14d6 2dbd 7495 10bd b269 30bd
00000020: 38ba b9bc 688b 2fbd 88d8 813c 6014 223b
00000030: 7602 003d a08e 253d b835 013d 8caf 73bd
00000040: 5001 e9bc 9683 03bd bc1f 64bd cc2c 93bc
00000050: e00e 683d 2a8c 5c3d aeab 733d 1216 0bbd
00000060: 809f 203a 24cc 343d 7435 b03c da09 53bd
00000070: d036 80bc a8f9 18bc c06f 84bb 8073 613a
00000080: 389c 363c 78aa 203c 1c98 ed3c b073 2f3d
00000090: 5864 4bbc 00f5 b4b9 e684 643d d814 6e3d
000000a0: 204e dcbc 040c 95bc 38b7 62bd 64a2 12bd
000000b0: 702f e13b a011 5a3c 6276 6b3d f475 95bc
000000c0: 1665 053d 906a 1bbc bc54 71bd d806 e73c
000000d0: 242c cfbc 1463 523d 28ab bdbc de23 6dbd
000000e0: c065 88bc e449 f53c 8c55 7e3d 28d1 b33c
000000f0: 24b6 7fbd 3662 31bd 16df 033d ec12 693d
00000100: 785f 623c 24e9 ff3c c026 a1ba 500a 903b
00000110: d83c 8c3c 5ce3 88bc 56bb 1cbd ee02 55bd
00000120: 6ece 433d 8617 593d 1044 30bc d8d5 6abd
00000130: e2ed 3cbd 8873 68bc 5444 fb3c 4aa4 4f3d
00000140: f00e b23b e23e 25bd 447c bc3c 10d7 663d
00000150: 7003 613c 6468 c33c 5e2a 633d 00d7 db3b
00000160: 90da 94bb 9c0b b8bc a4a9 a9bc 2007 e9bb
00000170: 928c 15bd fc9b f23c 2e3a 7fbd acd9 573d
00000180: 6269 6bbd c615 6dbd 02d9 453d c8a9 2dbc
00000190: 3009 db3b 009b a63a 28e5 d9bc e805 d43c
000001a0: 284d b4bc 28cb 2cbd ce47 73bd f8d0 0fbc
000001b0: 86ad 69bd 6449 633d e030 773b 0a5d 5abd
000001c0: 4478 5dbd 5284 1cbd fcac 61bd a8b9 3c3d
000001d0: dc57 e9bc 0432 73bd 92bf 2b3d d046 5c3d
000001e0: 0e9f 323d d65a 4fbd 4a9a 5ebd ecc2 8bbc
000001f0: d0de efbb 7015 773d 4286 3d3d 38ff 0e3c
0.04330048 0.024969071 -0.016560875 -0.03559184 0.0024249032 -0.04244049 -0.03529878 -0.04306955
-0.022671804 -0.042857558 0.01585032 0.0024731383 0.031252347 0.04041922 0.03154537 -0.059493586
-0.028443009 -0.032107912 -0.055694327 -0.017965697 0.05665481 0.05384461 0.0594899 -0.033956595
0.0006127283 0.044139996 0.021509863 -0.051523067 -0.015651137 -0.009336866 -0.004041642 0.00086002797
0.011145644 0.009806268 0.029003195 0.042834938 -0.0124140605 -0.00034514815 0.055790804 0.058125347
-0.026892722 -0.018194206 -0.055350512 -0.0357994 0.00687211 0.013309866 0.057485946 -0.018244721
0.032567106 -0.009485856 -0.0589187 0.028201506 -0.025289603 0.05136402 -0.023152903 -0.057895534
-0.01665008 0.02994246 0.062093303 0.02195032 -0.062429562 -0.043306552 0.032195173 0.05690281
0.013816707 0.0312391 -0.0012294874 0.0043957606 0.017118856 -0.016709976 -0.038264595 -0.052004747
0.04780429 0.05300095 -0.010758415 -0.057332844 -0.0461253 -0.014187701 0.03067223 0.050693788
0.0054339096 -0.040343173 0.023008473 0.056357443 0.01373373 0.023853488 0.055460326 0.0067089796
-0.0045426562 -0.022466473 -0.020710774 -0.007111445 -0.03651101 0.029615395 -0.062311344 0.052697822
-0.057473548 -0.057882093 0.048302658 -0.010599561 0.006684445 0.0012710989 -0.026598528 0.025881723
-0.022009447 -0.042185932 -0.05939465 -0.008777849 -0.05705025 0.055489913 0.003771834 -0.053311385
-0.054069772 -0.038212128 -0.05509661 0.046075493 -0.028484277 -0.05937387 0.041930743 0.05377847
0.043608718 -0.050623737 -0.05434636 -0.01706072 -0.0073202625 0.06032318 0.046270616 0.008727841
