src/NeuralNet/a3c_torch/model/checkpoint_118_Interrupt.pth (torch, 923267 bytes, 17 tensors)

actor.0.weight f4 [32, 1, 3, 3]
0.31617147 -0.15781248 0.21516097 0.11173713 -0.25783297 0.16780302 0.27445456 -0.12892143
-0.14672157 -0.22595839 -0.05776318 0.14426892 0.1870428 -0.33048868 0.03211407 -0.079235874
0.01647095 0.20693716 0.088186145 -0.049177848 -0.30232078 -0.3206691 0.2018815 -0.30081642
-0.25714093 -0.07829261 -0.28838655 0.04802684 0.27851778 -0.17196362 -0.16142397 0.0030930042
0.17329018 0.029910406 0.09973085 0.25406194 -0.117374465 -0.22186232 -0.075283766 -0.25818282
0.08751738 0.07706102 -0.27986535 0.21037321 -0.08725238 0.14296699 -0.2233803 0.080585286
-0.20211896 -0.037275158 0.21931116 0.14757638 0.17048141 0.091946885 -0.047672193 -0.07779066
0.050017875 -0.21497802 -0.06425457 0.25781167 -0.18880749 -0.2903263 -0.22841844 -0.031377755
-0.088758156 -0.28792948 0.012927215 0.03781446 -0.33224177 -0.21391365 -0.13186383 0.017611187
0.085278116 0.21136153 0.2193685 -0.028374156 0.0029079518 0.24215877 -0.29386374 -0.220018
0.21823955 0.20922253 -0.23759854 -0.011272311 0.26473185 -0.067392394 0.083660886 -0.17035052
-0.27242976 0.03397008 0.19416904 -0.10049089 -0.121835314 -0.13214068 0.13856757 -0.21018617
0.1614912 0.079570614 -0.30993006 0.15393178 -0.15613493 0.28341398 0.2304856 -0.120553695
0.13481796 -0.19109993 0.18809907 -0.2933643 0.1878649 -0.29075015 -0.30228525 0.0925684
0.039626837 0.091382265 -0.2831541 -0.012469491 -0.04333508 0.29083294 0.22400579 0.005007466
-0.08762213 0.2503534 -0.21766365 0.04324075 -0.22920069 -0.08899109 0.18503618 -0.11433196
-0.09203589 -0.2955352 0.05371257 -0.111314856 0.16288948 -0.2667025 0.1556822 0.13631019
0.23397541 0.24040008 0.008634488 0.113330446 0.03387233 -0.28099453 0.004852335 0.04272469
-0.20151281 0.065654084 0.22102062 -0.2687696 0.24550673 -0.026330352 -0.2527152 0.31851432
-0.23966078 0.12435596 -0.028114676 0.04703506 -0.12932512 -0.25612947 0.28264314 -0.28871533
-0.24227425 -0.16255546 0.2891557 0.17163062 -0.056500833 0.28095543 -0.29247624 0.092168294
-0.03937785 -0.18820426 0.2746528 -0.13554296 -0.22597647 -0.06921657 0.3162715 0.33146268
0.104435444 -0.19899778 -0.14619696 0.02368486 -0.13079691 -0.09900808 0.059493225 0.15535101
0.32165787 -0.06202539 0.11365239 -0.030741971 -0.019591928 -0.24912843 0.22137229 0.15481257
-0.33184677 0.022462448 -0.1269 0.16474807 -0.17439353 0.30977648 -0.2414976 -0.104952455
-0.049894333 0.10645112 -0.106921636 0.18271458 0.13485734 -0.19308405 0.014190833 -0.25854728
-0.04274261 0.21089754 -0.07007313 0.1386807 -0.15551004 -0.1924669 0.2232599 0.14701144
0.13194788 0.16741042 -0.04361999 0.061030112 -0.123677455 -0.14433396 -0.30866873 -0.09488424
-0.12462767 0.021727126 -0.26015016 0.1374377 0.18048196 0.008817077 -0.08828919 0.017208895
-0.12283468 -0.2596801 -0.31185958 0.21235757 -0.14354071 -0.1685133 -0.14547229 -0.1845865
-0.20955126 -0.12984884 -0.17931876 -0.29859048 -0.2539687 -0.25057232 0.30235073 0.021610301
0.006587267 -0.32846674 0.07111379 0.13931796 0.10397375 -0.02070288 -0.0034652154 0.19987743
00000000: 3ae1 a13e 9899 21be 2853 5c3e 70d6 e43d
00000010: af02 84be 8ed4 2b3e 4f85 8c3e fb03 04be
00000020: 2e3e 16be a361 67be 1699 6cbd 3bbb 133e
00000030: 2688 3f3e d035 a9be 0b8a 033d 6b46 a2bd
00000040: 16ee 863c 56e7 533e f09a b43d b66e 49bd
00000050: cac9 9abe be2e a4be 06ba 4e3e 9c04 9abe
00000060: faa7 83be e057 a0bd 67a7 93be cbb7 443d
00000070: e299 8e3e 3b17 30be 534c 25be 00b4 4a3b
00000080: fb72 313e ab06 f53c b03f cc3d 6814 823e
00000090: 0662 f0bd e02f 63be 602e 9abd 8a30 84be
000000a0: 503c b33d 2bd2 9d3d 834a 8fbe 136c 573e
000000b0: 60b1 b2bd f065 123e cebd 64be e609 a53d
000000c0: 46f8 4ebe d6ad 18bd 1b93 603e 431e 173e
000000d0: ae92 2e3e a64e bc3d eb43 43bd b650 9fbd
000000e0: 8bdf 4c3d 3323 5cbe e697 83bd e4ff 833e
000000f0: c056 41be a6a5 94be 86e6 69be f685 00bd
00000100: d6c6 b5bd 7e6b 93be abcc 533c 56e3 1a3d
00000110: 981b aabe 2e0c 5bbe 5007 07be 5645 903c
00000120: 4ba6 ae3d 286f 583e 23a2 603e eb70 e8bc
00000130: 5693 3e3b 78f8 773e 4f75 96be 664c 61be
00000140: 307a 5f3e 6e3e 563e 084d 73be 80af 38bc
00000150: ef8a 873e 0605 8abd 6656 ab3d 5e70 2ebe
00000160: ea7b 8bbe 3624 0b3d 40d4 463e 2bce cdbd
00000170: cb84 f9bd e34f 07be a8e4 0d3e 0b3b 57be
00000180: f35d 253e ebf5 a23d 27af 9ebe 4ba0 1d3e
00000190: d6e1 1fbe a31b 913e 6b04 6c3e dbe4 f6bd
000001a0: b80d 0a3e b3af 43be 0b9d 403e d833 96be
000001b0: a85f 403e 34dd 94be 22c5 9abe 8094 bd3d
000001c0: c04f 223d a026 bb3d 93f9 90be d64c 4cbc
000001d0: 2080 31bd 0ee8 943e c661 653e ab15 a43b
000001e0: 3b73 b3bd 522e 803e 38e3 5ebe 361d 313d
000001f0: 96b3 6abe f640 b6bd 207a 3d3e e026 eabd
00000200: 507d bcbd 6450 97be b601 5c3d 0bf9 e3bd
00000210: 80cc 263e 3b8d 88be 286b 1f3e e694 0b3e
00000220: 4097 6f3e 702b 763e ab77 0d3c cb19 e83d
00000230: b6bd 0a3d 84de 8fbe 5600 9f3b 1600 2f3d
00000240: 6059 4ebe a675 863d 3b53 623e 2b9c 89be
00000250: 1e66 7b3e c0b2 d7bc e363 81be 4f14 a33e
00000260: a369 75be 56ae fe3d c050 e6bc d6a7 403d
00000270: ce6d 04be 6723 83be 9ab6 903e 7fd2 93be
00000280: be16 78be f074 26be 370c 943e f0bf 2f3e
00000290: 6b6d 67bd 64d9 8f3e 72bf 95be bbc2 bc3d
000002a0: ab4a 21bd 9eb8 40be 4b9f 8c3e c6cb 0abe
000002b0: 6066 67be 6bc1 8dbd 57ee a13e 7ab5 a93e
000002c0: 40e2 d53d 13c6 4bbe a8b4 15be c006 c23c
000002d0: a0ef 05be c0c4 cabd 2baf 733d 5614 1f3e
000002e0: 57b0 a43e 560e 7ebd 96c2 e83d 96d6 fbbc
000002f0: 407f a0bc 861b 7fbe 6baf 623e 3087 1e3e
00000300: d2e7 a9be 2b03 b83c 13f2 01be b8b3 283e
00000310: 3894 32be 069b 9e3e 264b 77be 50f1 d6bd
00000320: 005e 4cbd 0b03 da3d bbf9 dabd 8819 3b3e
00000330: 0b18 0a3e d3b7 45be ab80 683c 4f60 84be
00000340: e012 2fbd 86f5 573e 8082 8fbd 5002 0e3e
00000350: 063e 1fbe 0b16 45be 3e9e 643e 2b8a 163e
00000360: 581d 073e a36d 2b3e e0aa 32bd b6fa 793d
00000370: 9b4a fdbd 48cc 13be d409 9ebe ab52 c2bd
00000380: cb3c ffbd 16fd b13c 6732 85be 78bc 0c3e
00000390: 43d0 383e 8075 103c f6d0 b4bd abf9 8c3c
000003a0: c090 fbbd caf4 84be 0fac 9fbe 4374 593e
000003b0: 56fc 12be c08e 2cbe b0f6 14be 3e04 3dbe
000003c0: 9b94 56be 18f7 04be 569f 37be dae0 98be
000003d0: 2f08 82be 044b 80be b7cd 9a3e 1608 b13c
000003e0: 00da d73b cb2c a8be 1ba4 913d 5ea9 0e3e
000003f0: 30f0 d43d 1699 a9bc ab18 63bb abac 4c3e

actor.0.bias f4 [32]
0.28029305 -0.1419274 -0.15913773 -0.32177728 -0.019262275 0.23661837 0.004745444 0.2764946
-0.24212933 -0.25340486 -0.08453274 0.13538703 0.25730884 0.034343045 0.16920047 -0.17752242
-0.2634723 -0.06859684 -0.07328229 -0.17225751 0.20601921 -0.11737069 -0.13981013 0.17555559
0.23584402 0.21204269 -0.097128 0.26641554 0.017984629 -0.2617854 -0.3088158 0.11358218
00000000: 9282 8f3e 6b55 11be 00f5 22be febf a4be
00000010: ebcb 9dbc 164c 723e ab7f 9b3b b390 8d3e
00000020: c0f0 77be 48be 81be 801f adbd e6a2 0a3e
00000030: fcbd 833e 4bab 0c3d e342 2d3e 70c8 35be
00000040: d7e5 86be 807c 8cbd 0615 96bd 4664 30be
00000050: b3f6 523e 0b60 f0bd 632a 0fbe d8c4 333e
00000060: 1881 713e b821 593e 0beb c6bd 9e67 883e
00000070: 8054 933c bc08 86be 1b1d 9ebe c69d e83d

actor.2.weight f4 [64, 32, 3, 3]
0.023953663 -0.0023583057 0.03603278 0.0573375 0.0043584406 -0.033122323 0.021213198 -0.0056183785
-0.031599116 0.013368594 -0.026264595 0.02328109 0.04617512 0.013337897 -0.02486419 0.02679226
0.04530206 0.05313883 0.025201919 -0.0050803884 0.046233114 -0.009988487 -0.03649586 0.0019417545
-0.04620807 0.017634494 0.047054835 -0.05773258 0.03130365 -0.038052298 0.044640616 -0.01967561
-0.009215872 -0.045305032 -0.035118904 0.05679139 -0.055425376 -0.028167363 0.025958981 -0.057901494
0.032770425 -0.045426287 0.0078286575 -0.0028653042 -0.021710347 0.04686603 -0.038588833 0.0131367445
0.029380674 0.047249097 0.01860692 0.00075791276 -0.017986996 0.04636844 -0.0046003005 -0.033605002
0.037558123 0.046529643 0.034711577 -0.023043852 0.055986814 0.022961736 0.036701933 -0.010676956
-0.030943085 0.016332073 0.052421533 0.016196648 -0.0026876272 -0.050932556 -0.014133869 0.049087502
0.025967762 0.042626817 0.044345908 -0.008838847 0.020387499 -0.03790172 0.051638275 0.052869838
0.029550714 0.0145059265 -0.044881407 0.027097734 0.012109977 -0.045109015 -0.04160985 -0.010338896
0.041204058 0.051336337 -0.042760618 0.0110681765 0.029779326 0.058639992 0.05420823 -0.011451594
-0.01547619 -0.01542576 0.056805138 -0.011896412 -0.0515662 0.047239706 0.03828796 -0.010758229
0.0041076387 0.0009853793 0.032928783 0.034309085 0.048900228 -0.0576028 -0.03010935 -0.051163647
0.018273504 -0.017499195 -0.043869335 0.041832946 -0.025251139 -0.022260884 0.057848237 -0.05555786
-0.029140584 -0.05372553 0.02466291 0.01926 0.03021542 0.057713415 -0.01611371 -0.053276062
0.05399846 0.046257164 -0.03535128 0.04732909 -0.038318902 0.030439718 -0.03833843 0.019030735
0.02464811 0.024015725 1.9633408e-05 -0.050482042 0.032655984 -0.028565519 -0.0059968503 0.013797199
-0.042649217 -0.055372454 0.043787062 -0.005685308 0.023384595 -0.0037062112 -0.05759577 0.018627306
0.026533507 0.046097983 -0.011318101 -0.057720356 -0.041444935 0.034466732 0.022021497 0.026338816
-0.029708745 -0.012491167 0.028398056 -0.03430176 -0.007214536 -0.03069139 -0.032174006 0.028502986
-0.030128099 -0.020217316 0.04140587 -0.03595481 -0.0054470026 0.043891568 0.016043402 0.02801921
0.03158114 0.034817293 -0.04931497 0.026393374 0.055665884 -0.05339292 -0.008958067 0.024993623
0.027099427 -0.021252254 -0.038386583 0.056558393 -0.055324588 0.027783202 -0.0071216654 0.025778452
-0.052761026 -0.0022611083 0.009499506 0.010216284 0.03691881 -0.03601023 -0.031089082 -0.005025232
-0.008366452 0.014660577 -0.057714123 -0.016915869 0.026372653 -0.05268595 -0.013742746 -0.0486373
0.03373309 -0.00851254 0.034709517 -0.050465878 -0.05341266 -0.033061646 -0.043624952 0.008866763
0.047728196 -0.009972801 -0.0061448277 -0.0057778764 -0.008378056 0.016474837 0.015384478 -0.035836566
-0.011047153 -0.020641053 -0.004071456 0.02162396 0.03727715 0.0398809 -0.0030773382 -0.042012077
-0.026915047 0.020875376 0.025830286 -0.05333 0.052596513 -0.008696693 0.0053732316 -0.0006784729
0.04386649 0.053423595 0.04831739 0.0043675024 -0.009924656 -0.0046362025 -0.026704166 0.017601352
0.052975412 0.0042381254 0.054305047 0.037588444 0.047381718 0.024069455 -0.027748382 0.016416753
00000000: 793a c43c ce8d 1abb 1c97 133d bada 6a3d
00000010: 40d1 8e3b 46ab 07bd 4dc7 ad3c 601a b8bb
00000020: 136e 01bd f307 5b3c d928 d7bc fcb7 be3c
00000030: 1f22 3d3d 3287 5a3c fcaf cbbc 717b db3c
00000040: a78e 393d 1aa8 593d 4174 ce3c 6379 a6bb
00000050: ef5e 3d3d c0a6 23bc af7c 15bd 7882 fe3a
00000060: ac44 3dbd 3776 903c 92bc 403d ff78 6cbd
00000070: 4238 003d badc 1bbd 14d9 363d bf2e a1bc
00000080: 2bfe 16bc c591 39bd d7d8 0fbd 179e 683d
00000090: b805 63bd 3ebf e6bc eea7 d43c 1e2a 6dbd
000000a0: 483a 063d ea10 3abd c543 003c d4c7 3bbb
000000b0: e6d9 b1bc 98f6 3f3d 530f 1ebd 803b 573c
000000c0: bdaf f03c 4588 413d 8a6d 983c aaae 463a
000000d0: 7759 93bc d5ec 3d3d 1ebe 96bb 66a5 09bd
000000e0: 8cd6 193d de95 3e3d ba2d 0e3d 76c6 bcbc
000000f0: 6e52 653d 401a bc3c c454 163d 66ee 2ebc
00000100: 5a7c fdbc d7ca 853c f6b7 563d d5ae 843c
00000110: e722 30bb a89e 50bd be91 67bc fa0f 493d
00000120: 58ba d43c 7599 2e3d 0ea4 353d d0d0 10bc
00000130: af03 a73c d53e 1bbd a882 533d 0b8e 583d
00000140: 5714 f23c 44aa 6d3c 91d5 37bd 11fc dd3c
00000150: ed68 463c 3bc4 38bd 176f 2abd 7964 29bc
00000160: 96c5 283d 0d46 523d c225 2fbd 4c57 353c
00000170: c6f3 f33c 7d30 703d 7309 5e3d 779f 3bbc
00000180: d88f 7dbc 54bc 7cbc 81ac 683d 2be9 42bc
00000190: 1437 53bd 6c7e 413d d6d3 1c3d 4843 30bc
000001a0: 5f99 863b d827 813a 55e0 063d af87 0c3d
000001b0: 9b4b 483d eaf0 6bbd e2a7 f6bc f990 51bd
000001c0: 51b2 953c 795a 8fbc 55b0 33bd 0659 2b3d
000001d0: 7adb cebc 755c b6bc 46f2 6c3d a390 63bd
000001e0: 3cb8 eebc 4d0f 5cbd df09 ca3c 26c7 9d3c
000001f0: 5486 f73c e764 6c3d e600 84bc 0038 5abd
00000200: 7d2d 5d3d 2778 3d3d 81cc 10bd 26dc 413d
00000210: 48f4 1cbd b75c f93c c208 1dbd 58e6 9b3c
00000220: d5ea c93c a0bc c43c 6cb2 a437 42c6 4ebd
00000230: 48c2 053d 3c02 eabc 3a81 c4bb a60d 623c
00000240: f2b0 2ebd 3ace 62bd 105a 333d d24b babb
00000250: 0d91 bf3c e8e3 72bb 8be9 6bbd 4b98 983c
00000260: cc5c d93c 3dd1 3c3d 8e6f 39bc 2e6c 6cbd
00000270: 2ac2 29bd fd2c 0d3d 6d66 b43c 80c4 d73c
00000280: c15f f3bc c0a7 4cbc 0aa3 e83c 0180 0cbd
00000290: ea67 ecbb 836c fbbc e4c8 03bd 187f e93c
000002a0: 34cf f6bc c99e a5bc 3499 293d 5a45 13bd
000002b0: c57c b2bb a5c7 333d 746d 833c 8b88 e53c
000002c0: 3a5b 013d 949c 0e3d 7efe 49bd eb36 d83c
000002d0: e901 643d 89b2 5abd dbc4 12bc 6dbf cc3c
000002e0: 9eff dd3c 3519 aebc 403b 1dbd c6a9 673d
000002f0: 099c 62bd 9999 e33c dc5c e9bb 552d d33c
00000300: f21b 58bd 1a2f 14bb d1a3 1b3c 3362 273c
00000310: 2e38 173d 777f 13bd 88ae febc b4aa a4bb
00000320: 7113 09bc eb32 703c a565 6cbd 2693 8abc
00000330: 760b d83c 39cd 57bd 4129 61bc e837 47bd
00000340: b52b 0a3d 2e78 0bbc 912b 0e3d 4fb5 4ebd
00000350: 3cc7 5abd a66b 07bd 14b0 32bd e645 113c
00000360: a47e 433d f664 23bc 8d5a c9bb 5754 bdbb
00000370: 1d44 09bc 3df6 863c 2d0f 7c3c 5dc9 12bd
00000380: 1eff 34bc 6d17 a9bc d969 85bb bb24 b13c
00000390: edaf 183d 285a 233d 2bad 49bb db14 2cbd
000003a0: f27c dcbc d602 ab3c 099a d33c 8f70 5abd
000003b0: 716f 573d 937c 0ebc ef11 b03b 8cdb 31ba
000003c0: 59ad 333d b3d2 5a3d 75e8 453d 441d 8f3b
000003d0: 069b 22bc 49eb 97bb b2c2 dabc b630 903c
000003e0: bffc 583d f9df 8a3b f86e 5e3d 57f6 193d
000003f0: 5513 423d 4e2d c53c 9350 e3bc 6d7c 863c

actor.2.bias f4 [64]
0.032917116 -0.05247277 -0.04309866 0.02029599 0.008598062 -0.015518442 0.05617878 -0.028173046
0.028719706 0.027679704 -0.028581858 0.045060635 -0.05889736 -0.0362897 0.02830635 0.013106834
-0.051284194 0.00044375012 0.02270261 -0.057905957 0.04561724 -0.03582267 0.021339491 -0.05148903
0.048847497 0.02634825 0.027552245 0.017962685 0.051037144 -0.054458786 0.0035509001 0.033038754
-0.016995063 -0.005092449 -0.0001789766 0.027877977 0.02390924 0.020126343 -0.05296337 -0.027510267
-0.040800944 -0.015805863 0.012775307 -0.016922746 0.05477259 -0.023180429 -0.048975427 0.012162422
0.00092694967 -0.05102764 0.0019815553 0.029199295 -0.013541003 -0.039552055 -0.049352724 -0.009676748
-0.05330347 -0.049878187 -0.008572367 0.008945451 0.013342962 0.03584145 0.056595054 -0.05654155
00000000: 19d4 063d b0ed 56bd 3888 30bd c743 a63c
00000010: e3de 0c3c 1041 7ebc b81b 663d 29cb e6bc
00000020: 9745 eb3c 8cc0 e23c 8024 eabc 8091 383d
00000030: 5c3e 71bd 82a4 14bd b8e2 e73c 0cbe 563c
00000040: 600f 52bd 22a7 e839 d3fa b93c cc2e 6dbd
00000050: 25d9 3a3d cbba 12bd 28d0 ae3c 29e6 52bd
00000060: 5014 483d 49d8 d73c 3fb5 e13c 7b26 933c
00000070: 530c 513d 2d10 5fbd 38b6 683b a553 073d
00000080: 3b39 8bbc 8fde a6bb aaab 3bb9 5b60 e43c
00000090: 4fdd c33c 00e0 a43c 1ef0 58bd 365d e1bc
000000a0: e41e 27bd 4c7b 81bc 854f 513c 92a1 8abc
000000b0: 3959 603d e2e4 bdbc 759a 48bd e544 473c
000000c0: 8afe 723a 5c02 51bd fbdc 013b 5c33 ef3c
000000d0: 15db 5dbc 5601 22bd 1526 4abd 398b 1ebc
000000e0: bd54 5abd 124d 4cbd 1d73 0cbc f18f 123c
000000f0: 709c 5a3c 7cce 123d 37d0 673d 1d98 67bd

actor.4.weight f4 [128, 64, 3, 3]
0.014951259 0.0229855 -0.021478143 -0.0354886 -0.030916562 -0.034727797 -0.0415429 0.02967086
-0.020942843 0.02279221 -0.009742236 0.02478173 -0.015058672 0.024131304 -0.015252943 0.024716279
0.00491563 -0.03063351 0.006740446 -0.040894073 -0.04012708 0.014661744 -0.013054272 -0.0037160765
0.032363176 -0.02303411 -0.010425752 0.03301695 -0.0035972744 -0.03244017 0.017792538 0.012648429
0.033743747 0.034345027 0.040935796 0.0117532415 0.012510121 -0.0060701966 -0.011838123 0.019810721
-0.008162707 0.040651135 -0.035298955 -0.026280424 0.038415022 -0.014848545 0.031631187 0.010513122
0.026423678 0.02091912 -0.039011464 0.03945565 -0.018940618 -0.032863475 0.0008282463 -0.024977222
-0.0077741444 -0.020601213 0.012160858 -0.0008146217 -0.002692933 -0.009980068 0.011397014 0.012434602
-0.032288857 -0.04159568 0.03580968 0.007560189 0.032216366 0.03401993 -0.035983756 -0.00717253
-0.029382458 -0.011032825 -0.019371059 0.03620489 0.019223526 -0.010899907 0.015378788 -0.031000977
-0.04042329 0.0033830504 -0.024714118 -0.014629483 0.024907634 0.041036572 0.018254891 0.013411179
-0.028989017 0.019567426 0.022758191 0.019086432 0.033369213 -0.028353563 -0.011116639 0.0059755147
-4.1892134e-05 -0.020863738 -0.02933462 -0.04018743 -0.037629467 -0.014547358 0.013563609 -0.034718946
-0.023843702 -0.0076770238 -0.034452062 0.029915657 0.019805482 0.0355281 -0.019924551 -0.010492986
0.015839458 -0.025978774 0.034307532 0.00220265 -0.009443611 -0.02234452 -0.032311015 -0.0012534957
0.01963075 0.03962296 -0.041480556 -0.012553687 0.004487793 0.013273066 -0.032990284 0.021730393
-0.024893781 -0.038969807 0.034250583 0.010013998 -0.02744402 -0.031087395 0.002872765 0.026287567
0.019181138 -0.031128824 0.026043892 -0.020146336 0.027274689 0.029314538 -0.0278248 -0.01798365
-0.041487046 -0.0051240325 -0.03362605 -0.026068464 -0.0030193578 0.040010802 0.014679566 -0.01271758
-0.034824934 0.036712438 0.016469758 0.019743007 0.016751494 0.033731088 0.0077923685 0.0063660643
-0.01861234 0.021441355 0.03125026 0.0367531 -0.0046720607 -0.028302561 -0.018443158 -0.0051034046
-0.007043635 0.001452605 0.009540792 -0.033601895 -0.03555254 0.032944217 -0.029693833 -0.01588833
0.036006194 -0.02078889 -0.01793476 -0.03073728 -0.02740345 -0.019419894 -0.034339897 -0.034466088
0.033744447 0.024929738 -0.02533504 -0.039867513 -0.035219125 0.020845842 -0.039141756 0.03679895
0.026373506 0.037395224 -0.012108858 0.039329946 0.013469433 -0.027227562 0.022890022 -0.0015457422
-0.021161944 -0.023925405 0.015458494 -0.014225344 0.03526574 0.0015220791 -0.011001602 -0.03493616
0.011923969 -0.03728108 -0.018938467 0.014182836 0.026861161 0.019997057 0.0014255643 -0.006366591
0.026574593 -0.01016604 0.014366488 -0.029586509 -0.03657922 -0.03530636 -0.0027080725 0.030771594
0.040538408 0.0060730977 0.025239807 0.0023767701 0.011677584 -0.025294825 0.02475975 0.032269605
0.038231358 -0.009406066 -0.013545027 0.03914627 -0.007279416 -0.038846925 0.027002355 -0.021774631
-0.015139083 -0.040375568 0.007552713 -0.038690448 0.024587676 0.03228473 -0.029417794 0.002015993
-0.007987082 0.029896995 0.021543678 -0.025336942 -0.03787949 -0.0036492199 0.034159273 0.02223379
00000000: 20f6 743c 164c bc3c eef2 afbc 7f5c 11bd
00000010: bb44 fdbc bc3e 0ebd e328 2abd 4e10 f33c
00000020: 5390 abbc bbb6 ba3c e69d 1fbc 0e03 cb3c
00000030: a6b8 76bc 03af c53c 7be7 79bc cb79 ca3c
00000040: 4b13 a13b 20f3 fabc f6de dc3b 8b80 27bd
00000050: 4b5c 24bd d037 703c 96e1 55bc 6b89 73bb
00000060: 408f 043d 08b2 bcbc c6d0 2abc c83c 073d
00000070: 40c0 6bbb fcdf 04bd a8c1 913c 5b3b 4f3c
00000080: e236 0a3d 5fad 0c3d 4bac 273d ab90 403c
00000090: 40f7 4c3c 80e8 c6bb b0f4 41bc 184a a23c
000000a0: e0bc 05bc ce81 263d a395 10bd 0b4a d7bc
000000b0: 1259 1d3d 5047 73bc b48f 013d 3b3f 2c3c
000000c0: 7876 d83c 935e ab3c 7cca 1fbd 3f9c 213d
000000d0: 5b29 9bbc da9b 06bd ab1e 593a 089d ccbc
000000e0: 40be febb e0c3 a8bc 563e 473c 568c 55ba
000000f0: eb7b 30bb 7083 23bc 8bba 3a3c 80ba 4b3c
00000100: 5241 04bd 3b60 2abd 2cad 123d 76bb f73b
00000110: 4ff5 033d 7b58 0b3d b463 13bd 8b07 ebbb
00000120: 7bb3 f0bc 06c3 34bc 0eb0 9ebc 944b 143d
00000130: a87a 9d3c 8695 32bc 50f7 7b3c c3f5 fdbc
00000140: e492 25bd 2bb6 5d3b 4375 cabc 80b0 6fbc
00000150: 180b cc3c f715 283d 488b 953c 90ba 5b3c
00000160: 607a edbc de4b a03c 636f ba3c 265b 9c3c
00000170: 28ae 083d bb45 e8bc 9022 36bc 40ce c33b
00000180: 56b5 2fb8 6eea aabc 284f f0bc 939b 24bd
00000190: 5b21 1abd 0b58 6ebc e639 5e3c 7435 0ebd
000001a0: de53 c3bc 8b8f fbbb 9b1d 0dbd ae11 f53c
000001b0: 1b3f a23c ea85 113d d038 a3bc c6ea 2bbc
000001c0: c0c1 813c 70d1 d4bc 0e86 0c3d 565a 103b
000001d0: 60b9 1abc db0b b7bc 8e58 04bd 564c a4ba
000001e0: abd0 a03c af4b 223d 84e7 29bd fbad 4dbc
000001f0: 560e 933b 4677 593c d220 07bd f003 b23c
00000200: 0bee cbbc ce9e 1fbd 574a 0c3d c011 243c
00000210: 48d2 e0bc feaa febc 0045 3c3b 0659 d73c
00000220: c321 9d3c e001 ffbc 005a d53c ee09 a5bc
00000230: 2b6f df3c 0b25 f03c d6f0 e3bc 7352 93bc
00000240: 52ee 29bd 80e7 a7bb 78bb 09bd 888d d5bc
00000250: 6be0 45bb 5ee2 233d 9082 703c 665d 50bc
00000260: 97a4 0ebd c85f 163d 96eb 863c 16bc a13c
00000270: 6e3a 893c 9c29 0a3d 2057 ff3b 6b9a d03b
00000280: e878 98bc c8a5 af3c 4600 003d 6b8a 163d
00000290: 1618 99bb c6da e7bc 1b16 97bc 763a a7bb
000002a0: 4bce e6bb 5665 be3a fb50 1c3c 24a2 09bd
000002b0: 8a9f 11bd 84f0 063d 7b40 f3bc 3e28 82bc
000002c0: 3b7b 133d 764d aabc ebeb 92bc c0cc fbbc
000002d0: 337d e0bc 7816 9fbc fea7 0cbd 502c 0dbd
000002e0: 9e37 0a3d 7339 cc3c 6e8b cfbc 1e4c 23bd
000002f0: ee41 10bd e6c4 aa3c 1b53 20bd 7fba 163d
00000300: 400d d83c bc2b 193d 3b64 46bc 7018 213d
00000310: e6ae 5c3c 560c dfbc db83 bb3c 809a caba
00000320: d05b adbc 36ff c3bc a045 7d3c 6b11 69bc
00000330: cf72 103d 8080 c73a 1040 34bc 3819 0fbd
00000340: c05c 433c 0cb4 18bd d824 9bbc 205f 683c
00000350: f00b dc3c ded0 a33c 00da ba3a d69e d0bb
00000360: f6b2 d93c 768f 26bc 6b61 6b3c 685f f2bc
00000370: 18d4 15bd 679d 10bd eb79 31bb b614 fc3c
00000380: 9a0b 263d d600 c73b b6c3 ce3c 96c3 1b3b
00000390: 5653 3f3c 1837 cfbc f6d4 ca3c 222d 043d
000003a0: 7c98 1c3d e61b 1abc f6eb 5dbc d757 203d
000003b0: 2b88 eebb f41d 1fbd 0b34 dd3c b660 b2bc
000003c0: eb09 78bc da60 25bd c07c f73b e079 1ebd
000003d0: 186c c93c fe3c 043d 96fd f0bc c01e 043b
000003e0: 40dc 02bc 8bea f43c 5e7c b03c 6b8f cfbc
000003f0: 8627 1bbd c027 6fbb 98ea 0b3d a323 b63c

actor.4.bias f4 [128]
-0.024747413 -0.021740317 0.03528152 -0.010517925 0.01288719 0.0002813836 -0.011518027 -0.015504564
0.009022067 0.0012488167 0.016877111 -0.011444112 -0.038474675 -0.028548583 -0.000116854906 -0.023235848
0.008353636 0.025889467 0.038851824 -0.019544762 -0.0009298722 -0.01670976 0.039525807 0.007555182
0.025699845 0.026138043 -0.008714667 -0.021991938 0.0018361112 -0.020895522 0.03651927 0.0032375157
-0.030766454 -0.014376432 0.014968778 0.03793122 -0.024837201 0.00078536075 -0.033114985 0.024844473
0.00964276 0.0020356975 0.03961779 -0.01185976 -0.02241373 -0.010269403 0.02676559 -0.006085813
-0.0074279755 -0.006331876 0.027564403 0.02528371 -0.014363508 0.032385524 0.02450217 0.01624546
0.03398679 -0.01852417 -0.033076465 0.036425725 -0.018139845 -0.020592969 -0.0053501874 -0.035350606
-0.0069535575 -0.033627078 -0.031390004 0.0006825676 0.00034081936 -0.02336916 -0.030863568 0.007449776
0.011976863 -0.018953651 -0.02682448 0.011521539 0.03637398 -0.03321948 -0.006635522 -0.02234149
0.016993618 0.034083143 0.013570553 -0.026704516 -0.041497093 0.018751334 0.022588378 0.0019890717
-0.031894147 0.019576525 -0.004609878 -0.009666905 -0.015569717 -0.027919954 -0.014651999 -0.03868191
-0.0076227686 -0.039252993 0.028522557 -0.02816121 -0.020902157 0.008066982 0.0061219684 0.0053703934
0.014120152 -0.032177534 0.009511988 0.032507237 -0.027674085 -0.02893072 -0.008418664 -0.013264349
-0.029349884 -0.034449406 0.017302375 -0.023703005 0.008159588 0.015354231 -0.029322948 0.010574013
-0.004846081 -0.032786146 -0.008754264 0.034949627 0.0036934465 0.029337749 0.015525907 0.0017518153
00000000: 16bb cabc c018 b2bc 5b83 103d 6053 2cbc
00000010: cb24 533c ab86 9339 1bb6 3cbc db06 7ebc
00000020: 4bd1 133c 56af a33a de41 8a3c 1680 3bbc
00000030: 9f97 1dbd b8de e9bc 0010 f5b8 1b59 bebc
00000040: b0dd 083c 2616 d43c 1723 1f3d 561c a0bc
00000050: abc2 73ba e8e2 88bc d0e5 213d 7691 f73b
00000060: 7b88 d23c 731f d63c f6c7 0ebc 7028 b4bc
00000070: aba9 f03a 162d abbc 3b95 153d 802c 543b
00000080: ee09 fcbc 208b 6bbc 9b3f 753c c45d 1b3d
00000090: 6377 cbbc abe0 4d3a 94a3 07bd a386 cb3c
000000a0: abfc 1d3c 5669 053b 4446 223d 704f 42bc
000000b0: 009d b7bc 0041 28bc 8343 db3c 806b c7bb
000000c0: 6066 f3bb a07b cfbb bece e13c c81f cf3c
000000d0: eb54 6bbc afa6 043d c6b8 c83c 3315 853c
000000e0: bb35 0b3d 00c0 97bc 307b 07bd 2433 153d
000000f0: 039a 94bc 96b2 a8bc a050 afbb cccb 10bd
00000100: abda e3bb 8cbc 09bd ce92 00bd 56ee 323a
00000110: 00b0 b239 ae70 bfbc 98d5 fcbc 401d f43b
00000120: 9b3a 443c b044 9bbc 03bf dbbc d6c4 3c3c
00000130: e2fc 143d 2611 08bd cb6e d9bb 8005 b7bc
00000140: 3336 8b3c c49a 0b3d 0657 5e3c 6ec3 dabc
00000150: dbf8 29bd 669c 993c 430b b93c 165b 023b
00000160: 70a3 02bd f35e a03c 760e 97bb f061 1ebc
00000170: 2018 7fbc 63b8 e4bc f00e 70bc ec70 1ebd
00000180: 6bc8 f9bb bfc7 20bd 23a8 e93c 56b2 e6bc
00000190: 003b abbc 602b 043c cb9a c83b 20fa af3b
000001a0: 3658 673c 97cc 03bd 2bd8 1b3c 4f26 053d
000001b0: c3b4 e2bc 1e00 edbc 70ee 09bc b652 59bc
000001c0: 2b6f f0bc d21a 0dbd b6bd 8d3c ce2c c2bc
000001d0: cbaf 053c 5090 7b3c ae36 f0bc a03e 2d3c
000001e0: e0cb 9ebb c44a 06bd 0b6e 0fbc 5727 0f3d
000001f0: c00d 723b b855 f03c 6060 7e3c 2b9d e53a

shit.0.weight f4 [256, 128]
-0.07732117 -0.044475082 -0.054522816 -0.052232925 0.040853057 0.028240927 -0.044249237 0.06894771
0.055651985 -0.07157675 -0.04227506 0.009211225 0.05875049 0.06943551 0.08564895 -0.068344854
0.052301046 -0.0807889 0.00930947 0.011480275 0.07701321 0.049425397 0.08073102 0.0029864518
0.036647823 0.06465357 -0.059748236 -0.0019982664 0.06357577 -0.030837089 0.067978375 -0.08052848
0.033590563 0.082267284 -0.06167658 -0.07740689 0.003099458 0.056078035 -0.0034044432 -0.06350551
-0.001425459 -0.05441196 -0.050768144 0.03073642 -0.057688847 -0.047705755 -0.012313454 -0.06914884
0.0387592 0.08655538 0.049318954 0.032143187 0.042849183 0.010610553 0.010285664 -0.069513954
0.03747022 -0.041563272 -0.041874126 -0.030372705 0.003470266 0.080080345 -0.04059064 -0.072218716
0.043028824 0.010103106 -0.05361238 0.035913233 0.0356762 0.056942374 -0.043858558 -0.08222081
0.024563868 0.08181546 0.079028584 -0.0023850584 0.026617168 0.021304462 -0.07053452 -0.018312447
-0.0823336 0.073155135 0.015586663 -0.050480712 -0.060395177 -0.022987828 0.024055988 -0.020623285
-0.079725906 0.07170909 0.07888919 -0.004585377 -0.0060046194 0.027487246 -0.08796608 -0.0020723077
0.0091035925 -0.0807422 0.069697835 -0.050097324 0.0501628 -0.07258505 -0.05214507 -0.06376303
0.057039723 -0.009511015 0.0794325 -0.06939994 0.049469095 0.06653989 0.02771564 -0.06979005
-0.054912128 0.024732297 0.022586212 -0.0030289781 8.549488e-05 -0.012563438 0.07706653 0.049332622
-0.04336383 -0.021679748 0.0353116 0.033184677 -0.016163895 -0.085524395 0.023437377 0.0067653065
-0.037235193 0.043527875 0.03999213 -0.009718009 0.029872084 0.05096556 0.049562365 -0.041836467
0.0645244 0.02213974 -0.037315197 -0.036519412 -0.006045934 -0.057132013 -0.04251652 0.03813037
-0.05612271 0.0015306366 -0.06672574 0.00039418894 0.06584548 0.017143684 -0.011379828 -0.053487636
-0.06787692 -0.038098812 -0.07251284 0.024547242 -0.00080927217 -0.039016854 -0.081706375 0.037293047
0.061170008 -0.07360293 -0.04805945 0.004596398 0.024057368 0.024817087 0.029330803 0.01821828
0.08455468 0.036642447 -0.02071136 -0.060703516 0.034532335 0.018527796 0.049293153 -0.021138784
-0.007995658 -0.017397733 0.013421347 0.06990267 -0.031339996 0.018963784 -0.039518517 0.06929264
0.061884966 -0.05938413 0.03157882 -0.019159926 -0.04613478 -0.037947852 -0.044937085 -0.052656934
0.046267502 -0.048408605 -0.038771667 0.016400255 0.017926192 -0.073923916 -0.05570335 0.0822513
0.026261268 0.026594955 -0.082272366 0.034724936 -0.06013816 0.003895022 0.015447104 0.080717444
0.029429458 0.036117785 0.009443359 -0.03455131 0.026729383 0.08555676 -0.0396839 -0.04187892
-0.07135987 0.07931942 0.07671345 0.016626194 0.071109116 -0.02500191 -0.07119337 0.059290215
-0.029934809 0.058960795 0.05704831 -0.04256017 0.0137438765 0.06433913 -0.024104858 -0.027877958
-0.059997145 -0.061459206 -0.05673207 -0.08209726 0.049257085 0.015560953 -0.028061856 0.031492632
-0.04611238 0.0016991607 0.012993314 0.029632522 0.04783862 -0.054164514 -0.06750624 -0.009773422
-0.031345908 -0.08712647 0.042565156 -0.0107884025 0.010728986 -0.02165444 -0.058007624 0.0764347
00000000: 905a 9ebd 812b 36bd 5153 5fbd 31f2 55bd
00000010: 8955 273d 8459 e73c b03e 35bd 7534 8d3d
00000020: 56f3 633d d596 92bd 9d28 2dbd aeea 163c
00000030: 5ba4 703d 3434 8e3d b768 af3d 63f8 8bbd
00000040: 9f39 563d a774 a5bd bf86 183c c317 3c3c
00000050: 1ab9 9d3d 4972 4a3d 4e56 a53d 59b8 433b
00000060: 071c 163d 1769 843d 91ba 74bd 59f5 02bb
00000070: 0334 823d 109e fcbc 3f38 8b3d 1eec a4bd
00000080: 4296 093d c07b a83d 95a0 7cbd 8187 9ebd
00000090: 4720 4b3b 15b2 653d 141d 5fbb 2d0f 82bd
000000a0: 78d6 baba 13df 5ebd 42f2 4fbd f2ca fb3c
000000b0: 244b 6cbd 1c67 43bd 5fbe 49bc e89d 8dbd
000000c0: f8c1 1e3d f243 b13d ac02 4a3d 93a8 033d
000000d0: a082 2f3d e3d7 2d3c 3485 283c 555d 8ebd
000000e0: 607a 193d 403e 2abd 3484 2bbd 2ed0 f8bc
000000f0: 676d 633b 2a01 a43d 5f42 26bd 68e7 93bd
00000100: fe3e 303d 7f87 253c a898 5bbd c119 133d
00000110: 3521 123d 683c 693d 08a5 33bd 6263 a8bd
00000120: 2a3a c93c dd8e a73d bdd9 a13d a44e 1cbb
00000130: 3f0c da3c b286 ae3c 6774 90bd fc03 96bc
00000140: 859e a8bd 5cd2 953d 345f 7f3c ddc4 4ebd
00000150: ef60 77bd f850 bcbc 1011 c53c 2af2 a8bc
00000160: 5647 a3bd 37dc 923d a890 a13d ee40 96bb
00000170: 66c2 c4bb ef2c e13c 8f27 b4bd 8ecf 07bb
00000180: 3c27 153c 2b5c a5bd bdbd 8e3d da32 4dbd
00000190: 8277 4d3d 78a7 94bd 1296 55bd 3196 82bd
000001a0: 7ca2 693d 17d4 1bbc 82ad a23d 8e21 8ebd
000001b0: 1ba0 4a3d 1146 883d e90b e33c 16ee 8ebd
000001c0: 8aeb 60bd 639b ca3c b806 b93c d281 46bb
000001d0: b74b b338 e1d6 4dbc 0fd5 9d3d 0111 4a3d
000001e0: 459e 31bd ba99 b1bc e5a2 103d a8ec 073d
000001f0: 256a 84bc 6a27 afbd beff bf3c 81af dd3b
00000200: ee83 18bd 494a 323d cace 233d 4938 1fbc
00000210: 4db6 f43c 43c1 503d e801 4b3d b75c 2bbd
00000220: 5e25 843d 665e b53c d2d7 18bd 6195 15bd
00000230: f81c c6bb 4203 6abd cd25 2ebd 972e 1c3d
00000240: ede0 65bd a49f c83a 81a7 88bd 25ab ce39
00000250: ffd9 863d e970 8c3c 7572 3abc da15 5bbd
00000260: 0e03 8bbd 800d 1cbd 9d81 94bd 4c17 c93c
00000270: 5625 54ba 23d0 1fbd ac55 a7bd 98c0 183d
00000280: 678d 7a3d 22bd 96bd fcd9 44bd 629d 963b
00000290: f513 c53c 344d cb3c 2747 f03c 813e 953c
000002a0: 012b ad3d 6416 163d dfaa a9bc 40a4 78bd
000002b0: c771 0d3d 9bc7 973c 9ee7 493d 3e2b adbc
000002c0: 3800 03bc b185 8ebc 36e5 5b3c 2229 8f3d
000002d0: 5e5e 00bd f059 9b3c 2bde 21bd 4de9 8d3d
000002e0: 177b 7d3d c63c 73bd cb58 013d 47f5 9cbc
000002f0: d3f7 3cbd 356f 1bbd f30f 38bd ccae 57bd
00000300: fe82 3d3d 1a48 46bd 0acf 1ebd d459 863c
00000310: f3d9 923c 6c65 97bd 3229 64bd 5f73 a83d
00000320: df21 d73c aadd d93c 6a7e a8bd bc3b 0e3d
00000330: 6e53 76bd a043 7f3b da15 7d3c 304f a53d
00000340: 0c16 f13c 3ef0 133d 52b8 1a3c ad85 0dbd
00000350: 94f7 da3c 6238 af3d 968b 22bd 3b89 2bbd
00000360: 2025 92bd 3872 a23d f11b 9d3d a833 883c
00000370: a8a1 913d ced0 ccbc d4cd 91bd 4cda 723d
00000380: d839 f5bc e080 713d 7dab 693d 9353 2ebd
00000390: ff2d 613c 3cc4 833d 8d77 c5bc 5160 e4bc
000003a0: 91bf 75bd a6bc 7bbd e35f 68bd 9c22 a8bd
000003b0: ccc1 493d 5ef3 7e3c fae1 e5bc 6bfe 003d
000003c0: 56e0 3cbd 5fb6 de3a e9e1 543c e7bf f23c
000003d0: 6ef2 433d 9cdb 5dbd b640 8abd b420 20bc
000003e0: 9164 00bd 5d6f b2bd cd58 2e3d d7c1 30bc
000003f0: a1c8 2f3c a764 b1bc 6799 6dbd cc89 9c3d

shit.0.bias f4 [256]
-0.04269874 0.07575923 0.01947626 -0.013413034 0.008625679 -0.06650074 0.0032804788 0.046253975
0.0054379446 0.023663538 -0.03768616 0.06861904 0.054289714 -0.061488353 -0.003195416 -0.08575464
-0.07400987 0.02068956 -0.06738437 -0.0396295 0.0718119 0.05886407 0.08279042 0.010268078
0.07746477 -0.04311339 -0.0520687 0.025506997 0.031150494 0.08350768 -0.0010233676 0.054971796
0.010647938 0.0026429445 0.05295228 0.07059646 -0.07407687 -0.049637735 -0.061332818 -0.024228537
-0.018185006 0.063763924 0.04149332 -0.0068521504 0.022762343 0.053916175 0.086160846 -0.009337919
-0.019828333 0.031192197 -0.048180886 -0.060008828 0.01467627 -0.08703892 0.084652394 0.06535297
0.0027399454 -0.0017167676 0.04009284 0.077320196 0.032929752 -5.037602e-05 0.058058124 0.038127586
-0.014802573 -0.0095588 0.017188529 0.049895473 0.0054481546 -0.02298981 0.048643205 -0.008322917
0.0856857 0.0006559525 -0.022079058 0.06950874 0.06620896 -0.05945877 0.035436902 0.022806471
-0.041667596 -0.000671315 -0.0638815 0.07979584 -0.020457227 0.0033206027 0.029580396 -0.020631336
0.037374634 -0.046217695 0.05619257 -0.035420947 -0.077638954 -0.08800503 0.01836298 -0.077738814
0.044973236 -0.04543559 0.059990473 -0.02099445 -0.021724887 0.075407654 0.025703076 -0.019100077
0.037318833 0.009867841 -0.07567419 -0.028776098 -0.062328193 -0.050685197 0.07544855 0.07890146
0.049355317 -0.024879422 0.004120381 0.03297973 -0.047139816 0.07977683 0.030549437 -0.055037588
-0.013382509 -0.016808806 -0.025613766 0.039638657 0.011307177 -0.00796548 0.058382794 -0.013889557
-0.07359129 0.08014616 -0.08746556 -0.069058254 -0.048287265 -0.040159456 0.026138041 -0.0653573
-0.04999891 -0.059833415 0.012286849 0.059011687 -0.06557121 -0.03570582 0.013860907 0.0004486321
-0.0010100176 -0.071219 -0.08335541 0.003039462 -0.085272 -0.0537706 -0.07526413 0.067050084
0.0668274 -0.03337019 0.07891681 -0.023518415 0.07185024 -0.02024486 0.04569046 -0.06695467
0.058844324 0.06782038 -0.084173925 -0.052939538 -0.007736728 0.073503174 -0.04749013 0.012920021
-0.03187568 -0.03787809 0.07318878 0.015297346 -0.077335544 -0.069368094 0.06503805 -0.024074912
-0.02538258 -0.014656619 -0.028907154 -0.0017151238 0.02205809 -0.08175491 0.06890911 0.0667559
-0.07932547 0.034793444 0.022644257 0.015312055 0.06756361 -0.061086114 -0.06287787 -0.0055801794
-0.06946033 0.046986435 0.009513102 0.0010676851 0.06443011 -0.022373317 -0.029541537 -0.029167915
-0.048242927 -0.0072029596 -0.08339782 0.014603124 -0.08088519 0.012321789 -0.013487698 0.050570305
-0.03508926 -0.0043696063 -0.0094481325 0.057024695 0.07181593 -0.07187149 -0.028734699 0.03741438
0.0342073 -0.04479667 0.0641043 0.0071077077 0.060988437 0.032672457 -0.0063559976 0.017739166
0.04837135 -0.065471545 0.075388014 0.070352025 -0.07540351 0.030090341 0.04780581 -0.06884605
0.07953093 0.031587757 -0.01722726 -0.084456906 0.083672605 -0.046651565 -0.00867399 -0.06949576
-0.043360457 0.05395829 -0.01888615 0.047931314 -0.06699571 0.017935012 -0.07589109 0.055821415
-0.048825607 0.008649345 -0.029275285 0.084558725 -0.06904653 0.07708595 0.028614232 -0.059469264
00000000: e0e4 2ebd a827 9b3d ad8c 9f3c 58c2 5bbc
00000010: b852 0d3c 8a31 88bd 4dfd 563b cf74 3d3d
00000020: c930 b23b 09da c13c ce5c 1abd 2488 8c3d
00000030: e45e 5e3d 36db 7bbd 2f6a 51bb 21a0 afbd
00000040: 7d92 97bd 277d a93c d100 8abd 8b52 22bd
00000050: 1e12 933d 731b 713d 068e a93d 713b 283c
00000060: d9a5 9e3d ab97 30bd fd45 55bd 0df4 d03c
00000070: 522f ff3c 1306 ab3d 8522 86ba 1b2a 613d
00000080: b074 2e3c 4035 2d3b 7de4 583d e094 903d
00000090: 9db5 97bd f050 4bbd 1f38 7bbd ed7a c6bc
000000a0: b9f8 94bc a996 823d e6f4 293d 0188 e0bb
000000b0: 1878 ba3c 35d7 5c3d 1975 b03d 12fe 18bc
000000c0: 076f a2bc c786 ff3c 5259 45bd d1cb 75bd
000000d0: bd74 703c 7641 b2bd 3c5e ad3d c7d7 853d
000000e0: a890 333b 2905 e1ba 6438 243d 0d5a 9e3d
000000f0: 59e1 063d d74a 53b8 5bce 6d3d ac2b 1c3d
00000100: 7e86 72bc 839c 1cbc f5ce 8c3c 325f 4c3d
00000110: 6f86 b23b 2055 bcbc 193e 473d d85c 08bc
00000120: fc7b af3d 3af4 2b3a 24df b4bc 995a 8e3d
00000130: 9098 873d 0a8b 73bd 4926 113d a3d4 ba3c
00000140: a4ab 2abd 30fb 2fba 4ed4 82bd 006c a33d
00000150: ea95 a7bc 789e 593b 9652 f23c 0c03 a9bc
00000160: 2516 193d c44e 3dbd 2e2a 663d 8e15 11bd
00000170: 2c01 9fbd fb3b b4bd f66d 963c 8735 9fbd
00000180: db35 383d ab1a 3abd 92b8 753d 8efc abbc
00000190: 64f8 b1bc 546f 9a3d 428f d23c c477 9cbc
000001a0: a2db 183d baac 213c 12fb 9abd dabb ebbc
000001b0: d94b 7fbd 489b 4fbd c584 9a3d 1797 a13d
000001c0: cd28 4a3d eecf cbbc 4304 873b c115 073d
000001d0: ae15 41bd 0962 a33d d042 fa3c 186f 61bd
000001e0: 5042 5bbc 9fb2 89bc f6d3 d1bc 255c 223d
000001f0: bd41 393c a581 02bc cc22 6f3d 0691 63bc
00000200: 08b7 96bd ac23 a43d 2521 b3bd 6a6e 8dbd
00000210: dec8 45bd 3e7e 24bd 721f d63c 0cda 85bd
00000220: a8cb 4cbd e213 75bd c84e 493c 3db6 713d
00000230: 334a 86bd 4440 12bd dc18 633c 6236 eb39
00000240: 9162 84ba 44db 91bd 3eb6 aabd b631 473b
00000250: 16a3 aebd 903e 5cbd 1524 9abd 8e51 893d
00000260: cedc 883d 2eaf 08bd 239f a13d b1a9 c0bc
00000270: 3826 933d 8cd8 a5bc eb25 3b3d 881f 89bd
00000280: bf06 713d 69e5 8a3d 6163 acbd 21d7 58bd
00000290: 6184 fdbb d588 963d 0385 42bd 7fae 533c
000002a0: 1390 02bd 0e26 1bbd 00e4 953d b8a1 7a3c
000002b0: 1962 9ebd dc10 8ebd ab32 853d c038 c5bc
000002c0: 21ef cfbc 5122 70bc b2ce ecbc 01ce e0ba
000002d0: 2bb3 b43c 1e6f a7bd 3820 8d3d 51b7 883d
000002e0: 6475 a2bd 9283 0e3d 7380 b93c 6adf 7a3c
000002f0: ca5e 8a3d 6f35 7abd 1dc6 80bd f0d9 b6bb
00000300: 3841 8ebd d974 403d d7dc 1b3c 91f1 8b3a
00000310: eff3 833d 3f48 b7bc 1801 f2bc 8df1 eebc
00000320: 609a 45bd ce06 ecbb 7acc aabd f141 6f3c
00000330: 22a7 a5bd 54e1 493c 81fb 5cbc cf22 4f3d
00000340: c2b9 0fbd ea2e 8fbb 57cc 1abc ba92 693d
00000350: 3b14 933d 5c31 93bd 0865 ebbc d23f 193d
00000360: f41c 0c3d b77c 37bd 1e49 833d c6e7 e83b
00000370: 03cf 793d 8ed3 053d f945 d0bb ba51 913c
00000380: 0921 463d f215 86bd 0865 9a3d b914 903d
00000390: 286d 9abd 0580 f63c 06d0 433d 28ff 8cbd
000003a0: 1de1 a23d 2a62 013d 2f20 8dbc bef7 acbd
000003b0: 8b5c ab3d b615 3fbd 5a1d 0ebc cb53 8ebd
000003c0: bc9a 31bd 5e03 5d3d 21b7 9abc a053 443d
000003d0: 0c35 89bd 72ec 923c ca6c 9bbd ffa4 643d
000003e0: 5cfd 47bd fbb5 0d3c b9d2 efbc 202d ad3d
000003f0: 4468 8dbd 3ddf 9d3d 6568 ea3c 0b96 73bd

shit.2.weight f4 [128, 256]
-0.055700444 -0.02685009 -0.04467918 0.054621607 -0.014984675 0.018947244 -0.044178486 0.05638314
-0.0057774186 0.022450797 0.015653059 -0.023706943 -0.050698392 -0.02930244 -0.007900119 0.0012650862
0.03329595 0.026228808 -0.04637841 -0.038072415 0.03285788 0.021574244 -0.0056198686 0.046370678
-0.061232887 -0.019167237 0.052030176 -0.041781127 -0.04020775 -0.00046774745 -0.0067358017 0.008108586
-0.027807608 0.025127664 0.04752344 0.01897423 -0.060790434 -0.021157764 -0.055426963 -0.03794627
0.05536764 -0.039553918 0.05274026 0.0051903427 -0.015537545 -0.0075632036 -0.007376477 -0.05963736
0.030435018 -0.05710195 -0.047868147 -0.033395976 -0.00059330463 0.044215202 -0.01691176 -0.018572927
0.025463343 0.008095391 -0.0400298 -0.029381417 -0.006784573 0.035974205 -0.02641549 0.048972957
0.016066939 -0.0034785643 -0.03155782 -0.04374595 -0.03523641 -0.013384163 0.011300325 -0.0072431117
0.041601434 -0.020850912 -0.013830304 0.00478632 -0.032144487 -0.0439035 -0.002664268 0.04199735
-0.060908534 0.010391831 -0.038616553 -0.002095729 0.037267 0.006275013 0.014213249 0.045871653
0.040810496 -0.05335445 -0.03987889 0.0037677214 0.049267247 -0.051084824 -0.018662013 -0.032896586
-0.05258838 -0.010957785 0.024638772 -0.05795534 -0.007493302 0.035153463 -0.03605485 0.03442757
-0.018897451 -0.046187058 0.0466505 0.042526476 -0.026534237 0.022075914 -0.06148795 -0.054987356
0.03397847 -0.018422619 0.008352071 0.04043196 -0.053867325 0.060620055 0.024233624 0.04145789
-0.04189419 -0.032705136 0.05280398 0.020172454 -0.06177122 0.039619565 -0.057896808 0.022050776
-0.016464815 -0.060007453 -0.035298847 -0.021930918 0.038568355 0.03410463 0.019166805 0.058092855
0.0031167567 0.018318973 0.020217016 0.044607453 -0.048657186 0.038810827 0.04693219 -0.044263802
0.042263374 0.010530271 0.053579524 -0.03242199 0.00023945421 -0.044263624 -0.031303875 0.020636097
0.030636862 0.004433155 0.0011997595 0.032652788 0.055097528 -0.047869913 0.022116289 0.012377776
0.03623596 -0.006424792 0.0018656924 0.02289921 0.057266824 0.048523612 0.02923967 0.012880899
-0.022111453 0.014415927 -0.04502718 0.03795264 0.035875894 -0.017848857 -0.04218495 0.034958057
0.022663742 0.01535359 0.06069485 0.057615586 -0.0491814 0.027182788 -0.022693582 0.01005245
-0.012253098 -0.044263512 0.023364708 0.027343169 -0.05750487 -0.030204296 -0.008429714 -0.03951229
0.03660111 0.019339837 0.0038682744 -0.0603519 0.061679117 -0.032128394 -0.025510207 0.059319556
0.019537963 0.03400416 0.032041967 0.030090801 0.021488898 0.022906542 0.04008206 -0.023032539
0.02365803 0.052683353 0.044689603 0.033462897 0.053238004 -0.023134403 0.05602505 -0.012787223
-0.014722645 0.052973077 -0.004518591 0.044294626 -0.0077438504 0.03913275 0.025375523 0.056916177
-0.044727743 -0.031681195 -0.03513503 -0.050267607 0.019591771 -0.030720927 -0.048161514 0.057118006
-0.01860331 -0.011699565 0.016526505 0.055922017 -0.047827713 -0.05061359 0.037521325 0.011989772
-0.04830356 -0.030587144 -0.02629245 0.043338455 -0.05372242 -0.060586207 0.004435189 -0.044418007
-0.03623835 -0.02883938 0.031096496 -0.011803634 -0.011025287 -0.036624767 -0.050580114 -0.018484198
00000000: 2626 64bd b8f4 dbbc 8401 37bd e8ba 5f3d
00000010: 4882 75bc 4037 9b3c 80f4 34bd 02f2 663d
00000020: 8050 bdbb bcea b73c d83a 803c 1035 c2bc
00000030: 1ea9 4fbd ac0b f0bc 806f 01bc 40d1 a53a
00000040: 5661 083d ccdd d63c 4af7 3dbd d2f1 1bbd
00000050: fc95 063d 78bc b03c e026 b8bb 2eef 3d3d
00000060: 56cf 7abd 9c04 9dbc 981d 553d b022 2bbd
00000070: e2b0 24bd 003c f5b9 00b8 dcbb e0d9 043c
00000080: c8cc e3bc 88d8 cd3c f0a7 423d d86f 9b3c
00000090: 64ff 78bd 0c53 adbc 6207 63bd 8c6d 1bbd
000000a0: 2ec9 623d 4a03 22bd 2c06 583d c013 aa3b
000000b0: 3091 7ebc c0d4 f7bb 60b6 f1bb 4e46 74bd
000000c0: dc52 f93c bce3 69bd 6411 44bd 38ca 08bd
000000d0: 0088 1bba 001b 353d 888a 8abc 4026 98bc
000000e0: 8098 d03c 88a2 043c 4af6 23bd 4cb1 f0bc
000000f0: 2051 debb b059 133d 4c65 d8bc de97 483d
00000100: d09e 833c a0f8 63bb c642 01bd f42e 33bd
00000110: 0e54 10bd 4049 5bbc 0025 393c a057 edbb
00000120: 4466 2a3d 88cf aabc 8098 62bc 90d6 9c3b
00000130: f0a9 03bd 28d4 33bd 009b 2ebb 6a05 2c3d
00000140: 3a7b 79bd 8042 2a3c 642c 1ebd 8058 09bb
00000150: 48a5 183d a09e cd3b b0de 683c eae3 3b3d
00000160: e828 273d 328a 5abd 0c58 23bd e0eb 763b
00000170: 74cc 493d 523e 51bd 14e1 98bc 92be 06bd
00000180: ea66 57bd 4888 33bc 40d7 c93c 9462 6dbd
00000190: 608a f5bb 14fd 0f3d 40ae 13bd ec03 0d3d
000001a0: d4ce 9abc a42e 3dbd 9814 3f3d 3e30 2e3d
000001b0: 545e d9bc 8cd8 b43c cada 7bbd 6c3a 61bd
000001c0: 022d 0b3d 08eb 96bc 20d7 083c fc9b 253d
000001d0: fca3 5cbd bc4c 783d 9885 c63c c0cf 293d
000001e0: 3e99 2bbd d2f5 05bd fc48 583d b440 a53c
000001f0: d203 7dbd 2048 223d 3425 6dbd d4a3 b43c
00000200: 38e1 86bc 60ca 75bd 8695 10bd 78a8 b3bc
00000210: daf9 1d3d 4cb1 0b3d b403 9d3c c6f2 6d3d
00000220: 8042 4c3b ac11 963c 289e a53c 4eb6 363d
00000230: c24c 47bd 1af8 1e3d f83b 403d f64d 35bd
00000240: 5c1c 2d3d 2887 2c3c 3476 5b3d eccc 04bd
00000250: 0016 7b39 c64d 35bd 7e38 00bd 080d a93c
00000260: 28fa fa3c 0044 913b 4041 9d3a eebe 053d
00000270: f2ad 613d 3e13 44bd 382d b53c 28cc 4a3c
00000280: 286c 143d 1087 d2bb 408a f43a 2097 bb3c
00000290: 9e90 6a3d b2c0 463d 0888 ef3c 680a 533c
000002a0: 1423 b5bc c830 6c3c 6c6e 38bd 3a74 1b3d
000002b0: 9af2 123d c437 92bc 20ca 2cbd 2e30 0f3d
000002c0: 50a9 b93c a08d 7b3c 2a9b 783d 52fe 6b3d
000002d0: 7072 49bd 70ae de3c e4e7 b9bc 08b3 243c
000002e0: 38c1 48bc a84d 35bd 5867 bf3c c8fe df3c
000002f0: 3a8a 6bbd 006f f7bc c81c 0abc a4d7 21bd
00000300: 0ceb 153d 946e 9e3c e082 7d3b 8e33 77bd
00000310: 3ea3 7c3d 1099 03bd c8fa d0bc 10f9 723d
00000320: 140e a03c f247 0b3d 703e 033d fc80 f63c
00000330: 7c09 b03c 80a6 bb3c 162d 243d bcae bcbc
00000340: 7cce c13c 80ca 573d 720c 373d 6410 093d
00000350: 1810 5a3d 5c84 bdbc 867a 653d 8081 51bc
00000360: 4037 71bc 4cfa 583d b010 94bb 486e 353d
00000370: 20c0 fdbb aa49 203d 54e0 cf3c f020 693d
00000380: 7034 37bd 24c4 01bd c0e9 0fbd 68e5 4dbd
00000390: ec7e a03c 74aa fbbc 0245 45bd 92f4 693d
000003a0: f865 98bc 88af 3fbc 9862 873c 7c0e 653d
000003b0: fee6 43bd 3250 4fbd f6af 193d c070 443c
000003c0: f4d9 45bd e491 fabc 4463 d7bc aa83 313d
000003d0: 0a0c 5cbd 3e29 78bd 1055 913b a8ef 35bd
000003e0: aa6e 14bd 9040 ecbc 14be fe3c 0864 41bc
000003f0: 68a3 34bc da03 16bd 182d 4fbd 2c6c 97bc

shit.2.bias f4 [128]
0.011295192 0.005616322 0.038789585 -0.0064371675 0.013278097 -0.049866006 0.030692682 -0.048589915
0.042827837 -0.042655915 -0.019341245 0.004945636 -0.05686091 0.04494948 -0.04803203 -0.0076330304
0.0046351478 0.053146884 0.06036637 -0.024825491 -0.059274063 0.031462304 -0.016476467 0.035295635
-0.050244547 0.06139709 -0.024822205 -0.05117263 -0.01612831 0.04660245 0.05846256 -0.028236426
0.024465255 0.016971901 -0.025835678 0.0016197115 -0.03173682 -0.052009076 -0.01260978 0.05641868
0.026172653 -0.025336407 0.060668357 0.052175604 -0.00740657 0.029953726 0.02483771 0.016560912
-0.038973942 -0.036346756 0.031655766 -0.0257565 -0.016265541 0.050841384 0.009052396 -0.0064753145
0.049549118 0.011029139 -0.032661565 0.028703362 0.027825147 0.0186809 -0.023760162 0.048397236
0.013110302 0.015599526 -0.05713571 0.040687993 -0.017556451 -0.039728068 -0.02629371 -0.020295411
-0.04870326 0.04063975 -0.053624973 0.0011914447 0.061088428 -0.039509557 0.0026336908 -0.033026904
-0.057144985 -0.012854658 -0.0042109787 0.043800786 0.0045088306 -0.030174658 -0.044548973 0.054088995
0.01786112 -0.010127217 0.03526648 0.06189257 -0.0001590848 0.038270943 -0.042547345 0.02526065
-0.009574071 0.021070592 0.030054562 -0.052193508 0.044693775 0.05739048 -0.011285499 0.054956652
-0.045707986 -0.020206459 0.026885293 0.03964504 0.004560098 0.013352953 0.019568413 -0.009505853
0.01629962 0.017872103 -0.041391037 -0.020553507 -0.04318873 0.021018408 -0.011969127 0.056474857
-0.014606781 0.03666801 -0.05250749 0.042609155 0.05871273 -0.052926555 -0.039913297 -0.05193363
00000000: 780f 393c 2009 b83b d4e1 1e3d e0ee d2bb
00000010: 608c 593c 4c40 4cbd 386f fb3c 3806 47bd
00000020: 3e6c 2f3d f8b7 2ebd 8871 9ebc 000f a23b
00000030: fce6 68bd f21c 383d 3cbd 44bd 801e fabb
00000040: 70e2 973b 8cb0 593d ba42 773d d45e cbbc
00000050: 5cc9 72bd 9ede 003d a8f9 86bc 2892 103d
00000060: 3acd 4dbd 847b 7b3d f057 cbbc 649a 51bd
00000070: 841f 84bc 36e2 3e3d 7076 6f3d 1450 e7bc
00000080: 5c6b c83c a808 8b3c 58a5 d3bc 804c d43a
00000090: 78fe 01bd 7807 55bd 4099 4ebc 4617 673d
000000a0: 0868 d63c 4c8e cfbc 627f 783d 16b6 553d
000000b0: d0b2 f2bb 8461 f53c 7478 cb3c c0aa 873c
000000c0: 24a3 1fbd 56e0 14bd 7aa9 013d 4cff d2bc
000000d0: 503f 85bc 0e3f 503d 8050 143c e02e d4bb
000000e0: 04f4 4a3d 90b3 343c 22c8 05bd 5023 eb3c
000000f0: 90f1 e33c b008 993c aca4 c2bc 2e3c 463d
00000100: 98cc 563c 2895 7f3c 2207 6abd 74a8 263d
00000110: 8cd2 8fbc e6b9 22bd e865 d7bc 9042 a6bc
00000120: 127d 47bd de75 263d dca5 5bbd 402a 9c3a
00000130: dc37 7a3d c6d4 21bd 009a 2c3b 3847 07bd
00000140: dc10 6abd 589c 52bc 40fc 89bb 7468 333d
00000150: d0be 933b d830 f7bc fc78 36bd 6c8c 5d3d
00000160: 7c51 923c a0ec 25bc 9673 103d 1083 7d3d
00000170: 00d0 26b9 fec1 1c3d 2046 2ebd 6cef ce3c
00000180: 90dc 1cbc 3c9c ac3c fc34 f63c dcc8 55bd
00000190: d210 373d 4812 6b3d d0e6 38bc 3a1a 613d
000001a0: 4c38 3bbd 0488 a5bc 8c3e dc3c d662 223d
000001b0: e06c 953b 58c6 5a3c f04d a03c 70be 1bbc
000001c0: c886 853c 8468 923c a689 29bd d45f a8bc
000001d0: aae6 30bd cc2e ac3c 281a 44bc 2e52 673d
000001e0: 4851 6fbc 3231 163d 1812 57bd f086 2e3d
000001f0: c27c 703d 84c9 58bd 207c 23bd 5cb8 54bd
